models/biobert_siamese_768x4.pt (torch, 13351 bytes, 2 tensors)

encoder.0.weight f4 [4, 768]
0.009720907 0.019516373 -0.056434482 -0.00216992 -0.012488418 0.018593747 -0.051439557 0.019098975
-0.0020800324 0.028506737 0.0003629822 -0.12703432 -0.034637727 -0.04595602 0.04195078 0.046939414
0.00016815652 -0.035501413 -0.008619671 0.030518033 -0.027572736 0.0897535 0.027929451 0.06696529
0.0067227916 0.00049485534 0.009243326 0.009292978 -0.017029818 -0.09986388 -0.0123584205 -0.03253935
0.029631168 -0.09229398 -0.047745645 0.05065323 -0.032096814 0.05660923 -0.0027770335 -0.0353343
0.011133415 -0.008711365 -0.03682691 -0.0032004206 -0.0013364983 -0.042654973 -0.11573375 0.038256988
0.03896391 0.028684454 0.0013822485 -0.05696713 -0.01833863 -0.09140807 0.04575358 -0.057403557
0.07768864 0.0033485752 0.03928803 0.01016106 0.054240905 -0.03564957 0.04113676 -0.0035928728
0.03681978 -0.002023338 -0.04168409 -0.034276586 0.0027883616 0.032645606 0.04828748 -0.036999788
-0.016823035 -0.014871704 -0.09623755 -0.0009243341 -0.047117725 -0.031242259 0.025124526 -0.002840342
-0.008728613 -0.027770657 -0.055696424 -0.022993874 -0.098919146 0.0860368 -0.027933078 -0.007849858
-0.042384606 0.01714427 0.021830287 0.014039626 -0.019453825 -0.023481298 0.048850052 -0.010094604
0.08114578 0.014146186 -0.009809855 -0.021076817 -0.021793209 0.011200578 0.011172571 -0.06121871
-0.045401238 -0.018464804 -0.08806995 -0.012986316 0.015934955 -0.08501234 -0.00495962 -0.018659737
0.07455807 -0.059175845 -0.005682987 -0.029866457 -0.010997131 -0.046291377 0.01383291 -0.014280147
-0.02199405 0.0009186048 0.041623335 -0.02401251 0.018092949 -0.019647036 0.07282159 0.032266255
0.016835758 0.03213458 -0.015612559 -0.003729406 0.09901583 0.056012716 -0.079170786 0.0124792885
0.06427225 -0.009689519 0.087879755 0.010606626 -0.006713259 -0.045004047 -0.0643353 -0.08334903
-0.051873464 -0.039949175 -0.0035591654 -0.0019045974 0.08983562 -0.03770517 0.06981529 0.06008754
0.031424277 -0.021594904 0.043819997 -0.0053860084 -0.013708573 0.061452135 0.020338064 0.028105427
0.02981278 0.11099249 0.053599518 -0.05782503 0.023942154 0.0034695852 0.057666123 0.026500912
-0.004396984 -0.059606418 0.033294786 -0.007566156 0.007694699 0.002835466 -0.02282741 0.047681954
1.8666266e-05 -0.009023411 0.017738713 -0.07549268 0.02117947 0.06273248 0.012000358 0.025540335
0.025568401 -0.06515132 0.02060601 -0.07838825 0.025923189 -0.05133901 -0.016474549 -0.0092027
0.06787906 0.0034526284 0.015203689 -0.008593524 0.13051622 -0.026534643 -0.040416688 0.042434286
0.035793502 -0.011005599 0.01401688 0.013984601 -0.033048656 0.07512798 -0.023916941 -0.0045131836
0.022790533 -0.013467944 0.068421364 -0.0035772105 -0.070775084 0.03371051 0.054038487 0.04263646
0.029511604 -0.014465021 0.112951435 -0.0026850149 0.07179703 0.04440417 -0.02349132 -0.04507301
0.026644962 0.06247608 -0.17162834 0.053731833 -0.016178453 0.008752273 -0.017794492 0.06717719
-0.037220016 -0.08355043 -0.018255677 0.02007704 -0.030031284 0.028020393 0.082266815 0.061361782
-0.0141988695 -0.04929601 -0.06861421 0.0437251 -0.019761428 -0.009550226 0.0126858065 -0.0784274
-0.03846645 -0.050466027 0.0017305277 0.011750176 0.015500187 -0.07017597 0.069050945 -0.047924124
00000000: 7044 1f3c cde0 9f3c d827 67bd 3735 0ebb
00000010: 399c 4cbc ea51 983c 49b2 52bd 7475 9c3c
00000020: 2751 08bb f686 e93c a54e be39 4915 02be
00000030: 4ae0 0dbd 613c 3cbd 95d4 2b3d 8b43 403d
00000040: 2c53 3039 ee69 11bd 8539 0dbc f400 fa3c
00000050: 38e0 e1bc afd0 b73d 4ecc e43c 1925 893d
00000060: dd4a dc3b 2eb9 013a 5271 173c 9341 183c
00000070: 1e82 8bbc 6f85 ccbd f97a 4abc fb47 05bd
00000080: 10bd f23c a004 bdbd f090 43bd c379 4f3d
00000090: f377 03bd 14df 673d e4fe 35bb b3ba 10bd
000000a0: ed68 363c 1dba 0ebc d0d7 16bd 26be 51bb
000000b0: 712d afba fbb6 2ebd d105 edbd 5cb3 1c3d
000000c0: 9f98 1f3d a9fb ea3c 902c b53a 5e56 69bd
000000d0: e53a 96bc 2734 bbbd 1b68 3b3d fe1f 6bbd
000000e0: 391b 9f3d c573 5b3b 7cec 203d 937a 263c
000000f0: b62b 5e3d 4905 12bd 057f 283d 6776 6bbb
00000100: 56d0 163d fb99 04bb f0bc 2abd 9b65 0cbd
00000110: f2bc 363b 66b7 053d 18c9 453d 178d 17bd
00000120: 76d0 89bc 73a8 73bc 3118 c5bd 034f 72ba
00000130: 84fe 40bd c4ef ffbc f3d1 cd3c 0825 3abb
00000140: 7502 0fbc 4a7f e3bc ef21 64bd a65d bcbc
00000150: 1f96 cabd 1034 b03d e9d3 e4bc b19c 00bc
00000160: 7b9b 2dbd 2472 8c3c 6ed5 b23c 7606 663c
00000170: a15d 9fbc da5b c0bc fe16 483d d763 25bc
00000180: c22f a63d 68c5 673c 84b9 20bc 4aa9 acbc
00000190: ac87 b2bc a182 373c 290d 373c 78c0 7abd
000001a0: a6f6 39bd 8043 97bc 055e b4bd 8fc4 54bc
000001b0: 068a 823c f31a aebd 4f84 a2bb 4edc 98bc
000001c0: e7b1 983d 5f62 72bd 5a38 babb 80aa f4bc
000001d0: 4f2d 34bc 079c 3dbd 6ea3 623c 47f7 69bc
000001e0: de2c b4bc 86ce 703a 3b7d 2a3d e2b5 c4bc
000001f0: aa37 943c d2f2 a0bc 7c23 953d 9f29 043d
00000200: 25eb 893c 8d9f 033d d2cb 7fbc 0d69 74bb
00000210: d0c8 ca3d 976d 653d 4b24 a2bd ee75 4c3c
00000220: 2ba1 833d cac0 1ebc 4dfa b33d 6ac7 2d3c
00000230: e6fa dbbb 2a56 38bd 3ac2 83bd e5b2 aabd
00000240: 4579 54bd bfa1 23bd e340 69bb afa3 f9ba
00000250: bdfb b73d bd70 1abd 52fb 8e3d 5a1e 763d
00000260: beb6 003d cce7 b0bc 997c 333d 1d7d b0bb
00000270: ec99 60bc 3cb5 7b3d 039c a63c 5a3d e63c
00000280: ee39 f43c 0850 e33d 2b8b 5b3d f0d9 6cbd
00000290: 5622 c43c fb61 633b 5033 6c3d 7118 d93c
000002a0: 9314 90bb dc25 74bd 1d60 083d 84ed f7bb
000002b0: d023 fc3b 3ad3 393b 8c00 bbbc 274e 433d
000002c0: 8095 9c37 eed6 13bc c750 913c e89b 9abd
000002d0: 9180 ad3c e379 803d 269d 443c f739 d13c
000002e0: d374 d13c 0e6e 85bd efcd a83c 058a a0bd
000002f0: de5c d43c db48 52bd a2f5 86bc ecc6 16bc
00000300: 2d04 8b3d 7e45 623b e518 793c dacb 0cbc
00000310: 0ba6 053e 2e5f d9bc f88b 25bd 93cf 2d3d
00000320: 359c 123d d450 34bc 0ea7 653c ab1f 653c
00000330: 075e 07bd b3dc 993d 76ed c3bc 54e3 93bb
00000340: 36b3 ba3c a7a8 5cbc 8020 8c3d a26f 6abb
00000350: 87f2 90bd 0814 0a3d 7657 5d3d 92a3 2e3d
00000360: 52c2 f13c b2fe 6cbc 1553 e73d 13f7 2fbb
00000370: 520a 933d 26e1 353d de70 c0bc 7a9e 38bd
00000380: 8946 da3c ebe6 7f3d 57bf 2fbe e915 5c3d
00000390: ad88 84bc b265 0f3c c1c5 91bc 3294 893d
000003a0: 0474 18bd 7d1c abbd ee8c 95bc 9b78 a43c
000003b0: 2b04 f6bc 068b e53c 817b a83d 7e56 7b3d
000003c0: 60a2 68bc 9dea 49bd 9b85 8cbd 1719 333d
000003d0: b8e2 a1bc 8d78 1cbc 21d8 4f3c 8b9e a0bd
000003e0: ff8e 1dbd 77b5 4ebd e0d2 e23a cf83 403c
000003f0: 7ff4 7d3c 6bb8 8fbd 956a 8d3d 164c 44bd

encoder.0.bias f4 [4]
0.09900718 0.031173898 0.047576796 -0.036743693
00000000: 47c4 ca3d 6760 ff3c e3df 423d 8e80 16bd
