models/biobert_siamese_768x8.pt (torch, 25639 bytes, 2 tensors)

encoder.0.weight f4 [8, 768]
0	0x3c2af2ab	0.010433833
1	0xbcf39ff7	-0.029739363
2	0x3aa4f7eb	0.0012586092
3	0xbd853645	-0.06504492
4	0x3b6664f7	0.0035155395
5	0x3d6b61f5	0.057466466
6	0xbc6683ce	-0.014069511
7	0xbd39ce8c	-0.045362994
8	0xbcb7ca76	-0.022435408
9	0x3c84a441	0.016191604
10	0xbd159534	-0.036519244
11	0xbe21081b	-0.15725748
12	0xbbc75d14	-0.006084094
13	0x3d2f4e18	0.042799085
14	0xbd3abbb9	-0.045589183
15	0xbd03cb11	-0.03217608
16	0xbda49822	-0.080368295
17	0x3d578455	0.052616436
18	0xbca66408	-0.02031137
19	0x3be3615d	0.006939097
20	0xbd232106	-0.039826415
21	0x3d5378df	0.051628944
22	0x3d82bae4	0.06383303
23	0x3d919c31	0.07109869
24	0x3d6bd0cf	0.057572182
25	0xbc7b527c	-0.01533949
26	0x3ce5f9c1	0.028073194
27	0x3d3e0942	0.046395548
28	0xbd1f6fd9	-0.038925026
29	0xbbe298a5	-0.0069151693
30	0xbcff9116	-0.031197112
31	0xbd035920	-0.032067418
32	0x3ba40505	0.005005481
33	0x3cec28bd	0.02882802
34	0xbd7e15c5	-0.06203248
35	0xbc25485b	-0.010088052
36	0x3d2147c8	0.039375097
37	0x3d88d342	0.06680919
38	0xbc8d9735	-0.017284015
39	0xbdda7622	-0.10667063
40	0xbb03ddce	-0.002012122
41	0xbd5b885a	-0.05359683
42	0x3d566bff	0.052349087
43	0x3d8273cf	0.06369745
44	0x3c11489c	0.008867409
45	0x3d4d8720	0.050177693
46	0x3cdb9510	0.026804477
47	0xbb384485	-0.0028117013
48	0x3d71a876	0.058998547
49	0x3d2148f6	0.03937622
50	0x3b92751a	0.004469526
51	0x3cc66f24	0.024222918
52	0xbd0571a5	-0.032579083
53	0x3cc83267	0.024438096
54	0xbd1376c9	-0.036001954
55	0x3c3c8fe3	0.011508915
56	0x3b4d6b72	0.003134456
57	0xbdfed46c	-0.1244286
58	0x3da45f1b	0.080259524
59	0x3cba3b3d	0.022733325
60	0x3cb8cb88	0.022557989
61	0x3d8e1847	0.06938224
62	0x3cf21366	0.029550266
63	0xbd30e1ef	-0.043184217
64	0x3d1cb217	0.038255777
65	0x3ce92f32	0.028464887
66	0xbda993aa	-0.08280118
67	0x3cc211dd	0.023690159
68	0x3c783a7b	0.015150662
69	0x3cc610dd	0.024177963
70	0xbce58ab3	-0.028020239
71	0xbd87c04c	-0.066284746
72	0xbcb89b50	-0.022534996
73	0x3d9356bb	0.07194277
74	0x3cb6c38e	0.022310045
75	0xbc97cac6	-0.018529307
76	0x3da24377	0.07923024
77	0x3bb90fa3	0.005647616
78	0xbcf4b1af	-0.029869882
79	0xbc4bf088	-0.012447484
80	0xbc38114d	-0.011234594
81	0xbd171870	-0.03688854
82	0xbc84e22f	-0.016221134
83	0xbd4a515e	-0.049394004
84	0xbc4eb38a	-0.012616048
85	0x3bfbef7a	0.00768846
86	0x3cb9d0d6	0.022682589
87	0xbbce38f3	-0.00629341
88	0x3b661880	0.0035109818
89	0xbd175c1f	-0.036953088
90	0x3d2bcda3	0.041944157
91	0xbc8ff06d	-0.017570699
92	0xbd39c0ed	-0.045350004
93	0xbc935003	-0.017982488
94	0x3d0367de	0.032081477
95	0x3c8257d6	0.015911024
96	0x3c011c28	0.007880248
97	0x3d20f89a	0.039299585
98	0xbd33bf48	-0.043883592
99	0xbd7ad525	-0.061238427
100	0x3d0f5336	0.034991466
101	0xbb838711	-0.004013904
102	0x3bbd69e6	0.0057804463
103	0xbd06498c	-0.032784984
104	0x3d33011e	0.043702237
105	0xbd885006	-0.06655888
106	0xbd8806e4	-0.06641939
107	0xbd0f54d4	-0.034993008
108	0xbd07b910	-0.033135474
109	0xbdf09ca6	-0.11748628
110	0x3c99c987	0.018772854
111	0xbba31723	-0.0049771233
112	0x3d7dfed4	0.0620106
113	0xbc3675f1	-0.011136518
114	0xbd164295	-0.03668459
115	0xbd09a9dd	-0.03360926
116	0xbb902c05	-0.004399779
117	0x3c9f5538	0.019449815
118	0xbaa491fe	-0.0012555716
119	0x3d984077	0.07434171
120	0xbd533da7	-0.051572468
121	0x3d66db97	0.05636176
122	0x3d718f75	0.058974702
123	0x3d596fcd	0.053085137
124	0x3be6b6b6	0.007040824
125	0xbd9ef267	-0.07761078
126	0x3da09a18	0.07841891
127	0x3cf5072d	0.029910648
128	0x3cef56ef	0.029216258
129	0x3b096a85	0.0020968032
130	0xbd13ec4b	-0.03611402
131	0xbcf2b736	-0.029628377
132	0x38ac3915	8.2122315e-05
133	0xbc30e422	-0.010796579
134	0xbd57c01c	-0.052673444
135	0xbc703762	-0.014661642
136	0x3cd1d3db	0.025613716
137	0xbd7ccdaf	-0.061719593
138	0x3d272d00	0.0408144
139	0x3db962ba	0.09052034
140	0x3c8a6128	0.01689203
141	0x3c198681	0.009370447
142	0x3c987a67	0.018613053
143	0xbc0f3cee	-0.008742554
144	0xbd33e363	-0.043918025
145	0xbdc75dac	-0.09734663
146	0x3be55c43	0.006999524
147	0xbd3c4aa9	-0.04596964
148	0x3d92a71c	0.0716078
149	0x3d02e4c6	0.031956457
150	0x3d1cdb60	0.03829515
151	0xbc9f8e5b	-0.01947706
152	0x3c67d010	0.014148727
153	0xbd3712bb	-0.044695597
154	0x3d1c7763	0.038199794
155	0x3d65fae1	0.05614746
156	0xbd51440c	-0.051090285
157	0x3b0d0497	0.0021517628
158	0x3d23a76a	0.03995458
159	0x3aea9185	0.0017896151
160	0xbd06d25a	-0.03291545
161	0xbd05adb8	-0.032636374
162	0x3c9d0ef6	0.019172173
163	0xbdb449dd	-0.08803151
164	0x3c43c380	0.011948466
165	0xbce33143	-0.02773345
166	0xbcb01df1	-0.021498652
167	0xbd1362e2	-0.035982974
168	0x3c88980e	0.016674068
169	0xbc9a11f9	-0.018807398
170	0xbd60641d	-0.054782975
171	0xbd013bb4	-0.031551078
172	0x3b03b150	0.00200947
173	0xbd806930	-0.06270063
174	0x3c7e9087	0.015537388
175	0xbca57bd8	-0.020200655
176	0x3d1703ba	0.03686879
177	0xbccfcdad	-0.025366629
178	0xbd2781cf	-0.04089528
179	0xbcdf03df	-0.027223526
180	0xbc4afa52	-0.012388783
181	0x3d1b951a	0.03798399
182	0xbd05c1a5	-0.032655377
183	0x3c119624	0.008885894
184	0xbd2efdbf	-0.04272246
185	0xbdad300e	-0.08456431
186	0xbbae1b8d	-0.005313343
187	0xbd2ecfea	-0.04267875
188	0xbd37a918	-0.044838995
189	0xbd10493e	-0.0352261
190	0x3d429995	0.04750975
191	0xbc18a790	-0.009317294
192	0xbcbf6d48	-0.023367539
193	0x3c6f7d96	0.014617344
194	0xbb947bb6	-0.004531349
195	0x3d10467f	0.03522348
196	0x3cf938d4	0.030422606
197	0x3d500e44	0.050794855
198	0xbde96493	-0.11396136
199	0xbc094410	-0.008378044
200	0x3c307ab9	0.010771447
201	0x3d422f5d	0.04740845
202	0xbd85ad88	-0.06527239
203	0xbbeb25bb	-0.0071761287
204	0xbd01d3d5	-0.03169616
205	0x3b7b896b	0.0038381468
206	0xbc6cb1c5	-0.01444668
207	0xbd223605	-0.0396023
208	0xbd0c5e30	-0.03426951
209	0x3bc7e09c	0.0060997736
210	0x3c2c6a83	0.010523441
211	0xbd45163b	-0.048116904
212	0xbbfb4922	-0.00766863
213	0x3da1279e	0.078688845
214	0xbd19f84a	-0.037590303
215	0x3ca60f52	0.020270977
216	0xbd4c89cd	-0.049936105
217	0x3c2d5e88	0.01058162
218	0xbd9a0318	-0.07520121
219	0x3d8e7cde	0.0695741
220	0x3d79cbe0	0.060985446
221	0xbd40a7a8	-0.04703489
222	0x3cfbd7a9	0.030742483
223	0xbd53051f	-0.051518556
224	0xbdbb9b01	-0.09160424
225	0x3e0cb42a	0.13740602
226	0xbdbd9ce0	-0.09258437
227	0xbb39675a	-0.0028290362
228	0x3d9c14cd	0.07621155
229	0x3d1129ce	0.03544026
230	0x3c638038	0.01388555
231	0x3c6eee40	0.01458317
232	0xbda3f5de	-0.0800588
233	0x3c8a9995	0.016918937
234	0x3d17b5e7	0.03703871
235	0x3d635655	0.055502255
236	0xbd103486	-0.03520634
237	0x3d4b7f90	0.0496822
238	0xba27ac8c	-0.0006396256
239	0x3dacdc3a	0.084404424
240	0x3c929d20	0.017897189
241	0xbd483876	-0.04888197
242	0xbd4788b1	-0.048714343
243	0x3ba513ed	0.0050377757
244	0x3d3b0599	0.045659635
245	0xbd330849	-0.043709073
246	0x3c494327	0.012284077
247	0xbd3397da	-0.04384599
248	0xbd1ca8e0	-0.03824699
249	0xbca23690	-0.019801408
250	0xbb53172c	-0.0032209856
251	0x3dd288f6	0.102800295
252	0x3d58fb96	0.052974306
253	0xbd2680d0	-0.04065019
254	0x3cab0155	0.020874659
255	0xbd0db384	-0.034595028

encoder.0.bias f4 [8]
0	0x3d326128	0.043549687
1	0xbd38e36a	-0.045138754
2	0xbd95fba5	-0.07323388
3	0x3da06a82	0.07832815
4	0xbdcaf26f	-0.09909522
5	0xbe37c3da	-0.17945805
6	0xbdeb7757	-0.11497372
7	0xbd5ef0be	-0.05442881
