models/biobert_siamese_768x6.pt (torch, 19495 bytes, 2 tensors)

encoder.0.weight f4 [6, 768]
0.012666969 0.011207934 -0.042544067 0.003848931 0.0012818238 -0.008355591 -0.032733515 0.05835473
-0.031658307 0.00018812905 0.073710866 -0.0072260024 -0.06026275 -0.0076496843 -0.05301266 -0.039498493
-0.047461722 0.08315334 -0.08563923 0.042660076 -0.03681002 0.057343274 0.041784912 0.023090938
0.012531661 -0.095709495 -0.08462609 -0.030256798 -0.09129963 -0.06545929 -0.10300066 0.039157987
-0.012024237 0.04868814 -0.002830384 0.01672961 0.012181797 -0.082289755 0.010216924 -0.106483236
-0.02490387 -0.03291682 -0.027578175 -0.0013938503 0.008466253 -0.08477871 -0.14230447 0.08286103
-0.0041480507 -0.045688376 -0.010635807 0.02836948 -0.00024745113 -0.08645922 0.010392057 -0.00017178203
0.050493155 -0.06989359 -0.00695176 0.08428285 -0.015089838 -0.05910504 0.13309075 0.029669201
0.057470065 0.005680708 -0.026042186 -0.014107471 0.052030943 0.08775449 -0.05189985 -0.05246875
-0.036881626 0.14352688 -0.025685113 -0.025532885 -0.024015797 -0.052477427 -0.05647146 -0.01929503
0.05645893 -0.0049534575 -0.041828763 -0.028593438 -0.039010573 -0.0012392226 -0.018437302 0.044810127
0.04696825 0.009985462 0.0148219755 -0.0108296145 -0.010263299 -0.031031486 -0.001082777 0.020381931
0.022229321 0.06961816 -0.0017703841 -0.009840791 -0.034676787 -0.0563693 0.040857192 0.057682354
0.050033428 -0.01405175 0.02488844 0.013319974 -0.0069581685 -0.050998922 -0.038915068 -0.02474576
0.02951268 0.07411886 -0.01408326 0.022457965 0.020043531 -0.029475003 0.057694104 0.022280132
0.037324745 0.0077822194 0.07260169 0.08027177 0.015761156 -0.101315215 0.07429145 0.013398135
0.016415456 0.015732815 -0.10733594 -0.043296233 0.07346698 -0.010406279 0.027199993 0.09106245
0.07460416 0.061944973 0.102048546 0.015877344 0.023688959 0.0584038 -0.03455152 0.023161074
-0.019254802 -0.1390872 -0.034825694 0.11332549 0.09221996 -0.02907523 -0.00602589 0.008435533
-0.0042042285 -0.009637017 -0.043859158 -0.062633395 -0.04547775 0.018035334 0.006356832 0.002776285
-0.08332314 0.05938919 0.06719986 0.008201231 -0.052303325 0.058353517 0.010022401 -0.0018925916
-0.011190082 -0.044446934 -0.05690667 -0.032982137 0.055111673 -0.03949834 -0.09230234 -0.085542254
-0.004941722 -0.008505743 0.017006554 0.00824406 0.010796722 -0.015532577 -0.07258526 -0.07605078
0.027324477 -0.038582336 -0.07876593 -0.06511694 0.013660008 -0.041883536 -0.020268124 0.112912744
0.0490373 0.033450317 -0.022883898 -0.087220766 0.04266565 -0.08473873 -0.013261598 -0.043181792
0.025007764 -0.0051153717 0.07184511 -0.011313335 -0.07097115 0.062622756 -0.06863859 -0.084353596
0.019959472 0.0067593474 0.06984866 -0.03430961 -0.030947404 0.006773461 0.04071724 -0.020050937
0.003283966 -0.06616981 -0.032579217 0.073948175 0.06707451 -0.008432959 0.009094192 0.04235514
-0.056807254 0.028071355 -0.11404273 0.007895774 -0.007339817 -0.0035028867 -0.10328196 0.08369169
-0.015568586 -0.004057609 -0.01260046 0.042567674 -0.033127 -0.0069299983 0.08611915 0.01894419
-0.0034145883 -0.059186254 0.0052211126 0.10174926 -0.04030907 -0.029706638 -0.061146904 -0.023599375
-0.08881655 -0.014950671 0.052969918 -0.025095064 0.07259928 0.10144849 0.058131 0.021599306
00000000: 1e89 4f3c 7ba1 373c b042 2ebd 593e 7c3b
00000010: df02 a83a e4e5 08bc 9413 06bd 5f05 6f3d
00000020: 24ac 01bd 8244 4539 b9f5 963d 1ac8 ecbb
00000030: 13d6 76bd 34aa fabb ce23 59bd 2cc9 21bd
00000040: 3967 42bd 4c4c aa3d 9f63 afbd 55bc 2e3d
00000050: 1bc6 16bd c8e0 6a3d a826 2b3d 3529 bd3c
00000060: 9951 4d3c 5703 c4bd 7250 adbd 1bdd f7bc
00000070: 4dfb babd 850f 86bd 03f2 d2bd 2064 203d
00000080: 4e01 45bc 376d 473d f77d 39bb 890c 893c
00000090: 2996 473c 8887 a8bd e364 273c e213 dabd
000000a0: 3303 ccbc cad3 06bd a0eb e1bc dbb1 b6ba
000000b0: 0ab6 0a3c 76a0 adbd 43b8 11be 0bb3 a93d
000000c0: 5fec 87bb bc23 3bbd cf41 2ebc 1d67 e83c
000000d0: 54bc 81b9 8811 b1bd 7243 2a3c 6320 34b9
000000e0: e9d1 4e3d 5f24 8fbd 97cb e3bb 7d9c ac3d
000000f0: 5e3b 77bc 2018 72bd f148 083e d30c f33c
00000100: bb65 6b3d 3c25 ba3b 6c56 d5bc 0623 67bc
00000110: 661e 553d a0b8 b33d f094 54bd 79e9 56bd
00000120: 3011 17bd b6f8 123e 9669 d2bc 572a d1bc
00000130: c7bc c4bc 92f2 56bd 9e4e 67bd 9c10 9ebc
00000140: 7b41 673d 9d50 a2bb a354 2bbd c93c eabc
00000150: 8dc9 1fbd 696d a2ba d309 97bc d38a 373d
00000160: c861 403d 109a 233c dfd7 723c b26e 31bc
00000170: 6527 28bc be35 febc f8eb 8dba 02f8 a63c
00000180: 441a b63c f793 8e3d 3c0c e8ba 453b 21bc
00000190: 3f09 0ebd 7fe3 66bd df59 273d 5544 6c3d
000001a0: daef 4c3d 5039 66bc d7e2 cb3c 053c 5a3c
000001b0: 5901 e4bb 3fe4 50bd 6865 1fbd 9fb7 cabc
000001c0: 93c4 f13c a1cb 973d 79bd 66bc c4f9 b73c
000001d0: 5532 a43c 9075 f1bc a750 6c3d d384 b63c
000001e0: d5e1 183d fd01 ff3b 32b0 943d 8765 a43d
000001f0: 8a1d 813c 5a7e cfbd 1e26 983d da83 5b3c
00000200: b579 863c 1be2 803c f2d2 dbbd 6457 31bd
00000210: db75 963d 197f 2abc 85d2 de3c f37e ba3d
00000220: 11ca 983d 03ba 7d3d d4fe d03d 3411 823c
00000230: 590f c23c d338 6f3d e585 0dbd 4bbc bd3c
00000240: 3fbc 9dbc e06c 0ebe 63a5 0ebd 3217 e83d
00000250: d2dd bc3d 2d2f eebc d474 c5bb 3135 0a3c
00000260: a0c3 89bb 94e4 1dbc a9a5 33bd f045 80bd
00000270: e146 3abd d6be 933c f94c d03b 55f2 353b
00000280: 53a5 aabd 1442 733d 15a0 893d 755e 063c
00000290: 033c 56bd 1904 6f3d ff34 243c d610 f8ba
000002a0: 9b56 37bc fd0d 36bd f816 69bd 4718 07bd
000002b0: c7bc 613d 03c9 21bd 0209 bdbd c730 afbd
000002c0: 2bee a1bb ac5b 0bbc 5451 8b3c 1812 073c
000002d0: bce4 303c 5a7c 7ebc 95a7 94bd 83c0 9bbd
000002e0: 95d7 df3c 8308 1ebd 0850 a1bd 085c 85bd
000002f0: 3ace 5f3c 128e 2bbd 5609 a6bc cc3e e73d
00000300: 56db 483d 3303 093d 0377 bbbc cda0 b2bd
00000310: 2dc2 2e3d 808b adbd 2c47 59bc 64df 30bd
00000320: 15dd cc3c d99e a7bb 8723 933d 915b 39bc
00000330: 5359 91bd 5c40 803d 6492 8cbd 94c1 acbd
00000340: 0c82 a33c 847d dd3b d00c 8f3d 3c88 0cbd
00000350: 6985 fdbc e9f3 dd3b 1fc7 263d dd41 a4bc
00000360: cf37 573b 0a84 87bd c971 05bd 2472 973d
00000370: 5c5e 893d 652a 0abc ceff 143c 957c 2d3d
00000380: b9ae 68bd e6f5 e53c 3c8f e9bd 475d 013c
00000390: d982 f0bb b090 65bb 7e85 d3bd 8c66 ab3d
000003a0: 6213 7fbc b1f5 84bb 2972 4ebc 715b 2e3d
000003b0: 2db0 07bd 0a15 e3bb 3d5f b03d d930 9b3c
000003c0: 49c7 5fbb 496d 72bd de15 ab3b eb61 d03d
000003d0: 201b 25bd 565b f3bc 2d75 7abd 7a53 c1bc
000003e0: 74e5 b5bd a9f3 74bc fcf6 583d 2a94 cdbc
000003f0: eeae 943d 3ac4 cf3d c51a 6e3d 07f1 b03c

encoder.0.bias f4 [6]
0.06955307 0.07069768 -0.12504464 -0.09017238 0.09687413 -0.025231713
00000000: d771 8e3d f2c9 903d b40b 00be 4cac b8bd
00000010: f265 c63d bdb2 cebc
