models/biobert_siamese_128x4.pt (torch, 3111 bytes, 2 tensors)

encoder.0.weight f4 [4, 128]
0	0xbdc75fa8	-0.09735042
1	0xbd737d06	-0.059445404
2	0xbe10b18f	-0.14130233
3	0x3decc1a4	0.115603715
4	0x3e053663	0.13009028
5	0xbe1d98e7	-0.15390359
6	0xbcb0976c	-0.021556579
7	0xbc8bfa88	-0.017087236
8	0x3db05338	0.08609623
9	0xbdc2fb28	-0.095205605
10	0x3df08900	0.11744881
11	0x3dbd039e	0.092292055
12	0xbcb9835f	-0.02264565
13	0x3ca7bb28	0.020474985
14	0x3b0b078a	0.002121421
15	0x3db1c2cf	0.08679735
16	0x3e595c44	0.21226603
17	0x3e761efe	0.2403526
18	0x3b8f582a	0.0043745236
19	0x3cfcbdaf	0.030852167
20	0xbde0c993	-0.10975947
21	0xbdeae53f	-0.114695065
22	0xbd8ad7bd	-0.0677943
23	0x3c866c0f	0.016408948
24	0xbcfa891b	-0.030582955
25	0x3d90579f	0.070479624
26	0xbe2558bf	-0.16147135
27	0xbdc346fd	-0.09535024
28	0x3d71a426	0.058994435
29	0x3e5ed459	0.21760692
30	0x3e02e8d1	0.12784125
31	0xbd141fd5	-0.03616317
32	0xbdf2fbc7	-0.11864429
33	0xbe80b7c0	-0.2514019
34	0x3dcef05a	0.10104437
35	0xbc812eac	-0.015769325
36	0x3d102f08	0.035201102
37	0xbda69da7	-0.081355385
38	0x3e028bbd	0.12748618
39	0xbe418340	-0.18897724
40	0x3dcd87cc	0.10035667
41	0x3e23bad4	0.15989238
42	0x3e228eb3	0.15874748
43	0x3d14baaa	0.03631083
44	0xbd16bfce	-0.036804013
45	0xbe576f90	-0.21038651
46	0x3c826211	0.015915902
47	0xbd7454b5	-0.059651095
48	0xbcd181a7	-0.025574518
49	0x3e0cd98a	0.1375486
50	0xbe0b9257	-0.13630043
51	0xbd96566e	-0.07340704
52	0xbcac0474	-0.020998217
53	0x3b669c0b	0.0035188224
54	0x3db98554	0.090586334
55	0x3daee760	0.08540225
56	0x3da0e8b7	0.07856887
57	0x3cd83f5d	0.026397401
58	0xbd8718ac	-0.06596503
59	0xbdb41acc	-0.087941736
60	0xbe1a8043	-0.1508799
61	0x3c4931d0	0.012279943
62	0x3ba2f3b9	0.0049729017
63	0xbddc1a1d	-0.10747168
64	0x3d4721fc	0.048616394
65	0x3df7e1a6	0.12103586
66	0xbc40b3ff	-0.011761664
67	0x3e482fc3	0.1954947
68	0xbd88b11b	-0.06674405
69	0x3d9b9531	0.075968154
70	0x3d581501	0.052754406
71	0x3c32c37f	0.010910868
72	0xbac3aa83	-0.0014928136
73	0xbdc10736	-0.094252035
74	0xbdf03b71	-0.117300875
75	0x3bd09251	0.0063650985
76	0xbde323b0	-0.11090791
77	0x3db95bec	0.09050736
78	0xbdcf0025	-0.101074494
79	0x3bf4f826	0.0074758707
80	0xbdf20b0b	-0.118185125
81	0x3e116b63	0.14201121
82	0x3dd0997f	0.10185527
83	0x3e20e818	0.15713537
84	0xbd1eabb5	-0.03873797
85	0xbd587565	-0.05284633
86	0x3bb6c558	0.0055777244
87	0xbe1e4880	-0.15457344
88	0x3e1f314a	0.15546146
89	0x3c650b1f	0.013979702
90	0x3d204696	0.039129816
91	0x3e515931	0.2044418
92	0x3d0fadd8	0.0350779
93	0xbd85f0f1	-0.065400966
94	0xbe1689cd	-0.14701004
95	0xbc8fc07b	-0.017547837
96	0xbd39be6d	-0.04534762
97	0x3dfd823e	0.12378357
98	0x3dc3c724	0.095594674
99	0x3c07e4bb	0.00829428
100	0x3d7d1685	0.061789054
101	0xbe36a81e	-0.17837569
102	0x3d87032f	0.06592404
103	0x3d43df43	0.04782034
104	0xbe3c352d	-0.1837966
105	0x3e315af0	0.17319846
106	0xbd30b089	-0.043137107
107	0x3e2b846f	0.16749738
108	0xbd7b7e8b	-0.061399978
109	0x3dc299d6	0.09501998
110	0x3d30b9dc	0.043146
111	0x3e4acd66	0.19804916
112	0xbd3e2598	-0.04642257
113	0xbe4c6a5e	-0.19962451
114	0x3cfc6fa1	0.030814948
115	0xbe2a1e1e	-0.16613051
116	0xbd0f633b	-0.035006743
117	0x3c9197b5	0.017772535
118	0x3d8a0793	0.06739726
119	0x3d8ad2b8	0.06778473
120	0xbc599bd5	-0.013281782
121	0xbc36fcc1	-0.01116866
122	0xbdd0e47d	-0.10199831
123	0x3bbc58c9	0.0057478887
124	0xbd01a8f5	-0.03165527
125	0x3cdb7364	0.026788421
126	0xbe47a79d	-0.19497533
127	0x3d30f4b9	0.043202136
128	0x3d3f8652	0.046758957
129	0xbe1966a2	-0.14980558
130	0x3cb4e661	0.02208251
131	0x3d9e4b46	0.07729201
132	0xbda26940	-0.07930231
133	0x3d043700	0.032279015
134	0x3e056ca1	0.1302972
135	0xbce33170	-0.027733535
136	0xbe2b068c	-0.16701716
137	0x3d91d688	0.07120997
138	0x3d5d8a0e	0.054086737
139	0x3e3d2c63	0.18473963
140	0x3df52294	0.11969486
141	0x3e068381	0.13136102
142	0xbd042978	-0.03226611
143	0xbac40e09	-0.0014957796
144	0x3e06c8c0	0.13162518
145	0xbdadc0dc	-0.08484051
146	0x3e3980ce	0.18115541
147	0xbd2261c9	-0.039644036
148	0xbdf6a873	-0.12043848
149	0xbdcb43ea	-0.09925063
150	0x3c9b4532	0.018953893
151	0x3e057241	0.13031866
152	0x3bbca4fd	0.005756973
153	0x3da9c6d6	0.08289878
154	0xbdec5b48	-0.11540848
155	0x3cc2aa37	0.023762805
156	0x3e92c01d	0.28662196
157	0x3cfbcbc1	0.030736806
158	0x3dcde37e	0.10053156
159	0xbd61c75d	-0.05512177
160	0xbdbe5c74	-0.09294978
161	0xbe2e3473	-0.17012195
162	0xbd27da8e	-0.040979914
163	0xbdc6b0b0	-0.09701669
164	0xbd7bbaad	-0.061457325
165	0xbde839da	-0.11339159
166	0x3d237b0b	0.039912265
167	0xbc824314	-0.015901126
168	0x3df52c49	0.11971337
169	0xbd5f331c	-0.0544921
170	0xbdd1ef4f	-0.102507226
171	0x3d81f74a	0.06345995
172	0x3c172db8	0.009227209
173	0xbe4d8ba8	-0.20072806
174	0xbbb5a4f1	-0.005543344
175	0xbd9a42e7	-0.07532292
176	0x3cc1a866	0.023639869
177	0xbc315ec6	-0.010825818
178	0x3dadab26	0.084799096
179	0x3dfe5a1c	0.12419531
180	0x3d84a48f	0.064766996
181	0x3d90d765	0.07072333
182	0xbd3dd744	-0.04634787
183	0xbd817eda	-0.06323023
184	0xbdb1fb72	-0.086905375
185	0x3e59dff4	0.21276838
186	0xbdda22e9	-0.1065119
187	0x3e411d01	0.1885872
188	0xbd2ffdca	-0.04296664
189	0x3d2eb47d	0.042652596
190	0x3dd581a0	0.10425115
191	0xbe0fe76b	-0.14053123
192	0xbcccfa2f	-0.02502164
193	0xbe1a8a87	-0.15091906
194	0x3dc3a76d	0.09553418
195	0xbd996bdc	-0.07491276
196	0x3ccf82a5	0.02533085
197	0x3d6d8f11	0.057997767
198	0x3d9cb648	0.07651955
199	0x3da75fc1	0.081725605
200	0x3d7a8760	0.06116426
201	0xbce6a36e	-0.028154101
202	0xbe3efb78	-0.18650615
203	0x3ddd4b2c	0.108053535
204	0xbda8864d	-0.08228741
205	0x3d812c8d	0.063073255
206	0x3d649d16	0.05581387
207	0xbdb58787	-0.088637404
208	0x3c1eb4d7	0.00968667
209	0x3d8ef586	0.06980424
210	0x3d959f8b	0.07305821
211	0xbce9eeb0	-0.028556198
212	0x3e44a521	0.19203617
213	0xbcd960fc	-0.026535504
214	0xbd07d1a5	-0.033158917
215	0x3db04f69	0.08608896
216	0x3d0a3ee6	0.03375139
217	0xbe1329a9	-0.14371361
218	0xbd05bd33	-0.032651138
219	0xbd8cfc9f	-0.06884121
220	0x3d1d0ff8	0.038345307
221	0xbcdaa1cc	-0.026688479
222	0xbbb59e5e	-0.0055425605
223	0x3d2494de	0.040181033
224	0xbe8b9ec8	-0.27269578
225	0x3d681a0d	0.05666547
226	0x3e06497c	0.1311397
227	0xbc04bc26	-0.008101499
228	0x3daa8e1a	0.08327885
229	0xbe7e3166	-0.24823532
230	0xbdc58735	-0.09644929
231	0xbc093889	-0.008375295
232	0xbda3e9a4	-0.08003548
233	0x3dfe5a61	0.12419582
234	0xbe3091f7	-0.17243181
235	0xbd130998	-0.03589782
236	0x3cc51f9b	0.024062922
237	0x3ea18a85	0.31550995
238	0xbe248347	-0.16065703
239	0xbda49558	-0.080362976
240	0x3d4d59b6	0.050134383
241	0x3cead114	0.02866415
242	0xbbc6cf56	-0.006067197
243	0x3d5a6b86	0.0533252
244	0x3dc22608	0.0947991
245	0x3ded29a4	0.11580208
246	0xbe31187d	-0.17294498
247	0xbd36b160	-0.04460275
248	0xbd783019	-0.060592744
249	0xbdcd8e74	-0.100369364
250	0xbdf8ea4c	-0.121540636
251	0x3da58b12	0.08083166
252	0xbe04469c	-0.1291756
253	0x3dad0e1b	0.08449956
254	0xbd8c028d	-0.06836424
255	0xbc903734	-0.017604448

encoder.0.bias f4 [4]
0	0xbd8f7809	-0.07005317
1	0xbda963e2	-0.08271004
2	0x3e71df1c	0.23620266
3	0x3ef54bfc	0.47909534
