models/biobert_siamese_768x16.pt (torch, 50279 bytes, 2 tensors)

encoder.0.weight f4 [16, 768]
0.000982941 -0.020463014 0.010825476 0.11059358 0.0068635824 -0.12201491 -0.008114412 -0.06344065
0.00833274 0.0565327 0.018414786 0.04029696 0.020143745 0.07630917 -0.019947108 -0.023367535
0.0078113666 0.0051113674 0.06578512 0.0754855 -0.081665546 -0.035736617 -0.022250084 -0.0018603521
-0.09010531 -0.046654172 -0.0048389835 -0.10522059 -0.058585357 0.0045866044 -0.04637695 0.06872613
-0.038841 0.08794783 -0.05622224 0.037652455 0.037199255 0.038524434 0.05128513 -0.02058911
0.019935194 -0.006938055 0.01150255 -0.03120572 -0.015417473 0.026800334 -0.046961635 0.019462459
0.008707671 -0.07795582 0.0065162685 0.016254378 0.02044978 -0.046447944 0.04361476 0.0072738747
-0.014451733 0.014372375 0.0026520735 0.04501452 0.018603949 -0.028352413 -0.05465906 -0.0484863
-0.045708235 0.005337776 0.027751075 0.02977392 0.057344403 -0.03749775 -0.102541655 -0.060636733
-0.01163975 0.023558259 0.038008664 -0.011652779 0.06761925 0.006552094 -0.04905439 0.0019245009
-0.03717135 -0.055079184 0.04090447 -0.035361383 0.031721726 -0.03805567 0.096054286 0.034921486
0.092736594 0.0374047 -0.009667711 0.023582123 -0.034279678 0.06765752 -0.03594838 0.03352808
0.0051548807 0.017191784 -0.04955603 -0.036283676 -0.061253857 -0.016486872 0.029175771 0.06517318
-0.042109814 0.0050095636 0.05189647 -0.0038549858 -0.024542185 -0.022851063 0.015545688 0.043321066
0.022146968 0.033254314 -0.0043395516 0.043181125 -0.052763194 0.042279247 -0.013641444 0.0047906274
-0.05795458 -0.10192399 -0.0111423405 0.12635507 0.030599307 0.07135505 0.052822486 -0.016371632
0.0006257912 0.011025542 -0.04895078 -0.017215699 -0.04512187 0.019836828 -0.018310294 0.04591234
0.020871134 -0.025158718 -0.0077860635 -0.033537738 -0.100368984 -0.050307285 -0.043528594 0.027368281
0.04770796 -0.031609166 0.025807628 0.031475224 -0.06534141 -0.07269325 0.0008547067 0.014118035
0.0034243206 0.007334328 -0.118121125 -0.012412114 0.023757186 -0.011300191 -0.069769986 -0.02697702
-0.11592587 -0.026345512 0.07369182 0.05118146 -0.052474666 0.06764317 0.00026715492 0.08243237
0.01450657 0.012583031 -0.04467331 -0.0813125 -0.021286108 0.011977716 0.056858778 0.001515864
0.025084201 0.041781694 0.00679931 -0.02407658 -0.046167992 0.037473638 0.050912317 0.03534061
-0.045114398 -0.050275147 -0.043147907 -0.0016342906 0.003337785 0.03752545 -0.0075049833 0.01812324
0.07239258 -0.042854473 -0.04869316 -0.04133913 -0.040117905 0.041304447 -0.030563472 0.07305625
-0.028565945 -0.02190082 0.033035755 -0.045662854 -0.051956214 0.075298466 0.033501346 0.0019156578
0.032284122 0.070760645 0.036606092 -0.015334068 0.0055186455 0.10001579 0.09563548 -0.053642802
0.034327433 0.044789698 -0.08839476 0.06935471 0.055023894 0.03902607 0.03778602 0.078065105
-0.045898996 -0.06063359 0.05552462 -0.0050234296 0.0074739326 -0.008903773 0.016629376 -0.0004039772
0.0033038543 -0.01462191 0.06436295 -0.06488579 0.028435666 -0.084347375 0.009022077 -0.036266483
-0.016867291 -0.016909461 0.027199022 -0.021138279 0.063521706 0.02523652 -0.029027326 0.02257099
-0.08003096 -0.014532595 0.06523582 -0.0042144624 0.06978955 -0.020364156 0.06828586 -0.021687346
00000000: 07d6 803a 0da2 a7bc 565d 313c e37e e23d
00000010: e7e7 e03b f4e2 f9bd 50f2 04bc 2ced 81bd
00000020: 0b86 083c d58e 673d 9bda 963c 6d0e 253d
00000030: 7f04 a53c fb47 9c3d 1e68 a3bc 466d bfbc
00000040: 7ef6 ff3b 427d a73b 59ba 863d 2498 9a3d
00000050: 4440 a7bd 8f60 12bd cf45 b6bc 0fd7 f3ba
00000060: 2289 b8bd 7218 3fbd 5690 9ebb e57d d7bd
00000070: 33f7 6fbd 3a4b 963b c2f5 3dbd 49c0 8c3d
00000080: be17 1fbd fe1d b43d 4b49 66bd 7639 1a3d
00000090: 3f5e 183d cccb 1d3d 5b10 523d 7eaa a8bc
000000a0: 224f a33c a058 e3bb 3175 3c3c 23a3 ffbc
000000b0: 9299 7cbc 608c db3c d85a 40bd bc6f 9f3c
000000c0: 9faa 0e3c 4da7 9fbd 6c86 d53b e727 853c
000000d0: 4c86 a73c 3340 3ebd 64a5 323d af59 ee3b
000000e0: f6c6 6cbc 1c7a 6b3c 69ce 2d3b 2561 383d
000000f0: 4f67 983c 5243 e8bc 2ee2 5fbd 9299 46bd
00000100: 8f38 3bbd 83e8 ae3b 3956 e33c 70e8 f33c
00000110: f7e1 6a3d 3e97 19bd 5c01 d2bd 395e 78bd
00000120: a6b4 3ebc 40fd c03c f9ae 1b3d 4ceb 3ebc
00000130: f67b 8a3d f3b2 d63b 42ed 48bd 893f fc3a
00000140: fc40 18bd b69a 61bd 728b 273d 19d7 10bd
00000150: a4ee 013d 43e0 1bbd 1cb8 c43d d509 0f3d
00000160: afec bd3d ac35 193d 5265 1ebc 4c2f c13c
00000170: d968 0cbd 0790 8a3d 9c3e 13bd bd54 093d
00000180: 46ea a83b c9d5 8c3c 44fb 4abd 319e 14bd
00000190: 53e5 7abd 7a0f 87bc 0702 ef3c 8479 853d
000001a0: 577b 2cbd 4427 a43b 6591 543d eea3 7cbb
000001b0: b10c c9bc 2732 bbbc 57b3 7e3c 6e71 313d
000001c0: 8f6d b53c ad35 083d cc32 8ebb b1de 303d
000001d0: 381e 58bd 012d 2d3d 5d80 5fbc b2fa 9c3b
000001e0: c861 6dbd 86bd d0bd 5d8e 36bc 3963 013e
000001f0: 66ab fa3c 9922 923d 645c 583d cd1d 86bc
00000200: 230c 243a 7aa4 343c 9d80 48bd f007 8dbc
00000210: b6d1 38bd d880 a23c 78ff 95bc 940e 3c3d
00000220: f1f9 aa3c a819 cebc 3c22 ffbb de5e 09bd
00000230: 418e cdbd 030f 4ebd 0a4b 32bd 7233 e03c
00000240: 6c69 433d 9d78 01bd 856a d33c 2aec 003d
00000250: b8d1 85bd 33e0 94bd 650e 603a 554f 673c
00000260: 916a 603b cd54 f03b 7de9 f1bd 2e5c 4bbc
00000270: 6e9e c23c 7024 39bc 91e3 8ebd e9fe dcbc
00000280: 8b6a edbd 8bd2 d7bc bdeb 963d a7a3 513d
00000290: adef 56bd 8188 8a3d ed10 8c39 4dd2 a83d
000002a0: f7ac 6d3c 0f29 4e3c 5cfb 36bd 2b87 a6bd
000002b0: 3460 aebc 2f3e 443c c0e4 683d f5af c63a
000002c0: 627d cd3c 4823 2b3d bfcc de3b 3f3c c5bc
000002d0: a61a 3dbd f57d 193d 6f89 503d 51c1 103d
000002e0: e0c9 38bd 50ed 4dbd dcbb 30bd b135 d6ba
000002f0: bdbe 5a3b 49b4 193d 5dec f5bb 3077 943c
00000300: 9042 943d 2c88 2fbd 7b72 47bd 3853 29bd
00000310: ac52 24bd da2e 293d 3f60 fabc 849e 953d
00000320: 2103 eabc 5969 b3bc 8050 073d f908 3bbd
00000330: 0ad0 54bd 1536 9a3d b538 093d cf16 fb3a
00000340: 5b3c 043d f5ea 903d 45f0 153d be3b 7bbc
00000350: c1d5 b43b 14d5 cc3d 89dc c33d 8eb8 5bbd
00000360: ec9a 0c3d 6775 373d 5008 b5bd d809 8e3d
00000370: bc60 613d cdd9 1f3d 84c5 1a3d 99e0 9f3d
00000380: 9600 3cbd ed5a 78bd c96d 633d 959b a4bb
00000390: e4e7 f43b 21e1 11bc 543a 883c e7cc d3b9
000003a0: 7a85 583b bc90 6fbc b9d0 833d d7e2 84bd
000003b0: eaf1 e83c 51be acbd 55d1 133c 2a8c 14bd
000003c0: 462d 8abc b685 8abc 7cd0 de3c 2f2a adbc
000003d0: ab17 823d d2bc ce3c b7ca edbc cce6 b83c
000003e0: 46e7 a3bd 1f1a 6ebc 5c9a 853d 7919 8abb
000003f0: d3ed 8e3d bbd2 a6bc 75d9 8b3d a9a9 b1bc

encoder.0.bias f4 [16]
-0.10104247 -0.057107195 -0.021744257 -0.07549351 0.015079536 0.05868034 0.00040524214 0.049424708
0.053673103 -0.08940472 -0.18666892 -0.053966545 0.0016100176 -0.012560895 0.04027371 0.09581912
00000000: 5bef cebd 3ce9 69bd 0321 b2bc 579c 9abd
00000010: 2810 773c cc5a 703d ae76 d439 9071 4a3d
00000020: 54d8 5b3d d219 b7bd 2326 3fbe 060c 5dbd
00000030: 3a07 d33a 36cc 4dbc 0cf6 243d d13c c43d
