models/biobert_siamese_32x16.pt (torch, 3175 bytes, 2 tensors)

encoder.0.weight f4 [16, 32]
0	0x3de054b7	0.10953658
1	0x3e1a9978	0.15097606
2	0xbe66938a	-0.22517219
3	0xbea295c4	-0.31754887
4	0x3dda1a72	0.10649575
5	0x3e09f06a	0.13470617
6	0xbe73d6a0	-0.23812342
7	0xbe08eab5	-0.13370784
8	0xbec55c3e	-0.38546938
9	0x3e1d4619	0.15358771
10	0x3d65b871	0.0560841
11	0xbbceb08f	-0.0063076685
12	0xbe95c087	-0.2924845
13	0x3ee4d820	0.4469614
14	0xbed5e846	-0.41778773
15	0x3ad9bfe8	0.0016612979
16	0x3e344e69	0.17608036
17	0xbe3a4248	-0.18189347
18	0x3d07aed5	0.033125717
19	0x3d9449b6	0.07240622
20	0xbed84d02	-0.42246252
21	0xbe1606d2	-0.14651039
22	0xbf2bae90	-0.67063236
23	0xbac24c4a	-0.0014823761
24	0xbd60c10b	-0.0548716
25	0x3e771202	0.24127963
26	0xbf12e544	-0.5738108
27	0xbe15365e	-0.1457152
28	0xbd11978e	-0.035544924
29	0x3d9242c9	0.071416445
30	0xbdef8ab8	-0.116963804
31	0x3dbcf9fb	0.092273675
32	0xbee9d38e	-0.45669216
33	0x3d91174c	0.07084522
34	0x3e0e7a6e	0.1391389
35	0x3ec23166	0.37928313
36	0x3e0b2f2b	0.13592212
37	0xbc9df154	-0.019280113
38	0xbe1831ce	-0.14862749
39	0xbda52b7b	-0.08064934
40	0x3f0c2ba5	0.54754096
41	0x3ec30004	0.3808595
42	0xbec93b3e	-0.3930301
43	0xbd24486f	-0.04010814
44	0x3b00f0cd	0.0019674778
45	0x3ed95eb6	0.4245507
46	0xbe5a7bac	-0.2133624
47	0x3e5962d1	0.21229102
48	0xbe110cd5	-0.14165051
49	0xbe1dae9b	-0.15398638
50	0x3cf2ca1a	0.029637385
51	0x3e525249	0.20539202
52	0xbe1e758c	-0.15474528
53	0x3b43d5b5	0.0029882018
54	0xbebd0c93	-0.36923656
55	0xbe1643a4	-0.1467424
56	0xbded83ca	-0.115974024
57	0x3def670c	0.116895765
58	0xbd55371b	-0.052054506
59	0xbee47174	-0.44617808
60	0x3e8f118d	0.27943078
61	0x3dd40b1e	0.10353683
62	0x3e25dad9	0.16196765
63	0xbe3a3bf4	-0.18186933
64	0xbe0cc902	-0.13748553
65	0xbd9a5a06	-0.07536702
66	0x3e5478cb	0.20749204
67	0xbd1e5e0d	-0.038663913
68	0x3d4c97d7	0.049949493
69	0xbd9dcd9d	-0.07705233
70	0x3e87575d	0.2643384
71	0x3e85f54e	0.26163715
72	0xbdf2ad9c	-0.118495196
73	0xbe5dad40	-0.21648121
74	0xbddc7fae	-0.107665405
75	0x3eb82b2b	0.35970435
76	0x3ddd61b0	0.10809648
77	0xbecf8404	-0.40530407
78	0x3e5019db	0.20322363
79	0xbe8feb9a	-0.28109437
80	0x3ec6d679	0.38835505
81	0x3df20f18	0.11819285
82	0xbed0a31c	-0.40749443
83	0x3e170577	0.14748178
84	0xbe8e4d3c	-0.277933
85	0x3d8a85b6	0.067637846
86	0x3dd1b1a5	0.10238961
87	0xbe9349fd	-0.28767386
88	0xbd60e2f4	-0.05490394
89	0x3dcfdeb2	0.10149898
90	0xbd40f350	-0.04710704
91	0xbeddcc11	-0.43319753
92	0x3e9653e9	0.29360893
93	0x3d2b8f1d	0.04188453
94	0xbee88762	-0.4541579
95	0x3db8083b	0.08985945
96	0x3e04df1a	0.12975731
97	0x3eaf8f86	0.34289187
98	0x3ea6a61e	0.32548612
99	0x3f0352c7	0.51298183
100	0xbf2ac436	-0.66705644
101	0x3dcd9ef3	0.10040083
102	0xbdf4bbe0	-0.11949897
103	0xbd837f0d	-0.064207174
104	0xbe371b99	-0.17881621
105	0x3e25de2b	0.16198032
106	0x3e393318	0.18085897
107	0xbc0e7f44	-0.008697335
108	0x3d980315	0.07422463
109	0x3db1e485	0.08686165
110	0xbd0a36e8	-0.03374377
111	0xbd7b3ec5	-0.06133916
112	0xbd8031ca	-0.062594965
113	0x3ec5bb6e	0.3861956
114	0x3d7730ce	0.06034928
115	0xbec3d077	-0.38244984
116	0xbe8d9e4d	-0.27659836
117	0xbe85cc0e	-0.26132244
118	0x3de066e3	0.10957124
119	0x3e0f0cea	0.1396977
120	0xbea9167c	-0.33024967
121	0x3eb5634b	0.35427317
122	0xbe4d76df	-0.20064877
123	0x3e5a543d	0.21321197
124	0xbd3ea016	-0.04653939
125	0xbe8700e5	-0.2636787
126	0xbe1b0986	-0.15140352
127	0x3f018f21	0.5060902
128	0x3eea4c1c	0.45761192
129	0x3e4c4f86	0.19952211
130	0x3e1c7aa6	0.15281162
131	0xbebe798a	-0.37202102
132	0xbdadd8a6	-0.08488588
133	0x3ef5d593	0.48014507
134	0x3da392e3	0.07987001
135	0xbdc1408d	-0.0943614
136	0x3e69ffd8	0.22851503
137	0x3f119b89	0.5687795
138	0xbccbda4a	-0.024884362
139	0x3d4d3057	0.05009493
140	0x3e3c06b5	0.18361934
141	0xbd8c19e4	-0.06840876
142	0xbe1a8dfb	-0.15093224
143	0x3cb4433d	0.022004718
144	0x3e1c21bf	0.15247248
145	0xbe0d0572	-0.13771608
146	0xbe3144d4	-0.17311412
147	0xbe0a96d9	-0.13534106
148	0xbe429bf0	-0.19004798
149	0xbdbd609f	-0.09246945
150	0x3df5613c	0.119814366
151	0x3e8e79cf	0.27827308
152	0x3f18338a	0.5945364
153	0x3dbd7ed9	0.0925271
154	0xbd6cf2df	-0.057848807
155	0xbeab7ee2	-0.3349524
156	0xbd1c495d	-0.038155902
157	0xbea9f82f	-0.33197162
158	0x3ec1b483	0.37833032
159	0x3e17bea9	0.14818825
160	0xbdf23797	-0.11827009
161	0x3e74024f	0.23829006
162	0x3ea8f17b	0.32996735
163	0x3e5a8a83	0.213419
164	0x3e607bff	0.21922301
165	0xbdcfc2ca	-0.10144575
166	0x3ee622ce	0.4494843
167	0x3c9cd53c	0.019144647
168	0xbdc25626	-0.09489088
169	0xbdeca2ec	-0.115545124
170	0xbf0890b1	-0.5334578
171	0xbcc17e5d	-0.023619825
172	0xbee880ba	-0.4541071
173	0x3c1c1a93	0.00952782
174	0x3d5652f8	0.05232522
175	0xbdbb7700	-0.09153557
176	0x3d65ee56	0.056135498
177	0x3e7bcf18	0.24590719
178	0xbf0c5046	-0.5480999
179	0xbd998d3b	-0.07497641
180	0xbb88d008	-0.00417519
181	0xbea70134	-0.32618105
182	0x3db16bd5	0.086631455
183	0x3dff369e	0.12461589
184	0xbd661f15	-0.056181986
185	0xbe3272e1	-0.17426635
186	0xbf053ec7	-0.52048916
187	0x3ea2357d	0.31681433
188	0x3e07d148	0.13263428
189	0x3d4a179a	0.049338914
190	0x3e96da10	0.29463243
191	0xbcf32bfa	-0.029684056
192	0x3e382969	0.17984547
193	0xbe66de62	-0.2254577
194	0xbc054131	-0.008133219
195	0xbdd08c6d	-0.10183034
196	0xbe923064	-0.28552544
197	0xbf12e408	-0.573792
198	0x3e72de3f	0.23717593
199	0xbe66a540	-0.22523975
200	0x3e513f4f	0.20434307
201	0xbe3f161d	-0.1866078
202	0xbdd10a3b	-0.102070294
203	0xbcf10bf5	-0.029424647
204	0xbdbf2a49	-0.09334237
205	0x3ef8f610	0.4862523
206	0x3dff9146	0.124788806
207	0xbeea0890	-0.45709658
208	0xbece632f	-0.40310046
209	0xbe8d4b6e	-0.2759661
210	0xbe3940c7	-0.18091117
211	0x3e69f694	0.22847968
212	0x3c27556d	0.010213238
213	0x3d0961f6	0.03354069
214	0x3e82e15b	0.25562558
215	0xbea712f0	-0.32631636
216	0x3e822433	0.25418243
217	0x3e1af75f	0.15133427
218	0xbd1e5258	-0.038652748
219	0xbe16a149	-0.14709963
220	0xbea9e4e9	-0.33182457
221	0x3dac6516	0.08417718
222	0x3e41b169	0.18915333
223	0x3f0cbbe9	0.5497423
224	0xbe823f83	-0.2543908
225	0x3d769d44	0.060208574
226	0xbe3d87dc	-0.18508857
227	0x3da52b00	0.08064842
228	0x3dbee945	0.093218364
229	0x3e0650fa	0.13116828
230	0x3d6804c6	0.056645177
231	0xbe5b17a6	-0.2139574
232	0xbd4e33d3	-0.050342392
233	0xbe426acf	-0.18986057
234	0x3ed2d7d5	0.41180292
235	0xbe3ccaa0	-0.1843667
236	0xbeb93b4f	-0.3617806
237	0x3e6e3491	0.2326224
238	0x3d4892ce	0.04896813
239	0xbea6ecae	-0.32602447
240	0xbe82cacb	-0.25545344
241	0xbeb523df	-0.3537893
242	0xbcf196a3	-0.029490774
243	0xbe8535f8	-0.26017737
244	0xbea02285	-0.31276336
245	0x3db9b347	0.090673976
246	0xbeda2bc9	-0.4261153
247	0x3eb04ff2	0.34435993
248	0xbc2ec09f	-0.010666042
249	0xbed6d8ab	-0.4196218
250	0x3d96c70a	0.073621824
251	0x3e2128ee	0.1573827
252	0x3d57dd75	0.052701432
253	0xbea053b0	-0.31313848
254	0xbea86471	-0.3288913
255	0x3dc2cdd5	0.095119156

encoder.0.bias f4 [16]
0	0xbd8deb3d	-0.06929634
1	0x3e0dadda	0.1383585
2	0xbe4cbc2b	-0.19993655
3	0x3e144667	0.14479981
4	0x3e581db2	0.21105078
5	0x3c96689d	0.01836043
6	0x3e741248	0.23835099
7	0xbc02d2d7	-0.007984838
8	0x3e9e851b	0.30960926
9	0xbd9a2b10	-0.07527745
10	0xbed33f5b	-0.41259274
11	0x3e26db3a	0.16294566
12	0xbe06d83b	-0.13168423
13	0xbe1e601e	-0.15466353
14	0xbd92335e	-0.07138704
15	0xbe35163d	-0.17684264
