models/biobert_siamese_768x32.pt (torch, 99495 bytes, 2 tensors)

encoder.0.weight f4 [32, 768]
00000000: 6543 b539 926d 5dbd cff9 a13d 8daf f5bb
00000010: c77d 853d e6f5 343d 53bd 533c c6e4 c63d
00000020: b3aa b2bb 6fdd 133d 89f0 00bd 3522 0c3d
00000030: 7474 173b 9cff 16bd eaab db3c 9960 543d
00000040: 95e2 48bd 91b7 463d 9ae6 58bd b302 f63b
00000050: f463 db3c 6760 f1bc 89ef 29bd c5cf 9c3c
00000060: 3eaf c83d fcf7 863d 4260 8b3d df2a 60bd
00000070: 09ca e73c 5814 e53c 669f 1bbd b671 12bc
00000080: 97ad fabc df22 0f3c 7d5c b5bd b52e debb
00000090: ac30 1b3d 6e3f d0bd 9b2f cc3c 7f12 963d
000000a0: 1b5b 033d 7658 a73c 99d2 163d 151a 043d
000000b0: dbbe 443d b247 28bc 1716 64bc fac2 523d
000000c0: a20f 063d c7df f6bb 69f6 953d d760 bfbc
000000d0: e85c 59bc 55d6 9bbd 038f a6bc 93b7 91bd
000000e0: 94df 263c bcb2 ddbd e097 933c 88d3 5fbd
000000f0: b2c7 923c 8c8d c83c dcce 373d 7846 383c
00000100: 4a92 263d 21d0 33bd 7f70 703c 2d21 1ebd
00000110: 5ebc b2bc 686b 0abc f56c 563d 799d 7c3d
00000120: 8719 43bc 1856 113a c0c8 a0bc 97df 1e3d
00000130: 0362 ccbd 9fe1 89bc 61e4 43bd a1df fd3c
00000140: e1ab 733c e63b 913d 9c90 a0bd f695 683b
00000150: 42a8 91bd d21a eabb 7e92 c33c 8f7c a23d
00000160: c007 dabc ec3c 123d 818e 933d 2ed1 86bd
00000170: 9467 bf3d e224 0e3c 1c38 e4bb 7309 1cbd
00000180: 4834 183b 1194 1cbd fa9c 97bd 067d 4bba
00000190: 57a1 9c3c aee6 f53c 8bdb 35bd 347e d8bd
000001a0: 3836 51bd 37bc 77bd 8b05 88bd 0cae a53d
000001b0: f062 2ebb 297c 4aba 8ca9 d5bb 1817 11bd
000001c0: 0354 573c bb7f 56bd 8701 5f3d d646 f5bc
000001d0: de15 833d e4a2 d6bc 9778 67bc 008c 523d
000001e0: 0cca 793b 3d49 d13c 81e1 673d 60c7 13bd
000001f0: 7c03 f5bd 7e21 41bd 810f ccbd 89e1 b9bb
00000200: fe37 c1bb 868f 7dbb 0734 403d ef41 b6bc
00000210: 2201 5ebc 7ded 373d 31e8 ba3c 6baa 8ebd
00000220: 0ce4 753c 8440 393d a3b2 653c 1c80 543d
00000230: 48f3 cd3c cbf2 943d 72dc 6dbd f994 2e3d
00000240: 7e7b 8dbc c897 bd3d 2d60 9ebd 6728 7a3c
00000250: 8efb a53d 490f 813d 0068 1fbc b22c d3bd
00000260: dab2 b139 f66f b83b 8c75 8a3d 1599 d8bd
00000270: 2d07 b9bc c7a1 11bd 754b 86bd 2916 d03c
00000280: c77e 8c3d 4a9d 003d 9572 793d a189 aebd
00000290: e567 17bd c2a9 163c db62 a3bc 3823 32bd
000002a0: e496 f23d 48e7 21bd b409 11bb e93d 30bd
000002b0: 2210 963d f8f6 babb 6434 973b 50e0 193c
000002c0: 6dda 50bd 1e8c b33d 70f9 223d 2db3 303d
000002d0: e3de d2bc 6df7 d9bd 999c c0bd 365c a93c
000002e0: 8b66 1d3d ba1b 8f3c cbb9 4bbd 5edc a83c
000002f0: aa13 a9bc 3d87 973c f55a 923c 7985 9bba
00000300: 0aff d1bc 4490 933d dfb6 423d 966b 22bd
00000310: 78bb 013e 1ee9 bbbc eeb9 a43d b3be dbbc
00000320: 60e9 203d 330e c7bd 4c9e 51bd 5fc3 173d
00000330: 0b1c bf3c 1280 09bd ff1a 21bc d9af 4a3c
00000340: 5539 0d3c 1f8c 133d 5dec 0fbd db43 08bb
00000350: df43 b13c 60d7 b8bc 346e ddbd 2812 273d
00000360: c5c4 ac3c ffb1 70bd 7fe7 053d 2166 f53c
00000370: fa28 223d 7ea7 9fbc 471d eb3c 8429 573c
00000380: 97c2 1bbc 25d2 23bc a648 9cb9 1f18 dbbc
00000390: fff1 333d 0142 cbbb 9494 4abc 7e31 e8bc
000003a0: 0fc1 7e3c 4cb9 873c 19b8 393b 6de5 3fbd
000003b0: bad5 3abd e352 353d c7e4 18bd 045e d73b
000003c0: 7ecf bebd 923b ab3d 0338 66bd 6c0e 06be
000003d0: d1ef 95bc d727 043d dedf 0a3d 3c61 3e3d
000003e0: c58b 803d b26d acbb e5af c23c 0a2c be3d
000003f0: 096b 12bd 40a2 9a3c 4b84 9e3d 1172 aabb
0.00034573223 -0.054059573 0.07908975 -0.007497734 0.06518131 0.04417982 0.012923556 0.09711604
-0.005452478 0.036099847 -0.031479392 0.03421231 0.0023110183 -0.03686486 0.026815373 0.051849935
-0.04904421 0.048514906 -0.052954294 0.007507646 0.02678106 -0.029464914 -0.041488204 0.019142041
0.0979905 0.06590268 0.06805469 -0.054728385 0.02829458 0.027963802 -0.03799381 -0.008938244
-0.030600352 0.008736341 -0.08855531 -0.0067804703 0.037888214 -0.10168348 0.024925044 0.073277466
0.032069307 0.020427924 0.036821935 0.032251436 0.048033576 -0.010271 -0.013921282 0.051455475
0.032729752 -0.0075340006 0.0732239 -0.023361607 -0.0132667795 -0.0760924 -0.020331865 -0.07115092
0.010185141 -0.108251065 0.018016756 -0.05464509 0.017917488 0.024481557 0.04487501 0.01124727
0.040666856 -0.04389966 0.014675259 -0.038605858 -0.021818336 -0.008448459 0.052350003 0.061673615
-0.011907942 0.000554414 -0.019626975 0.03878745 -0.09979632 -0.016831217 -0.04782522 0.030990424
0.014872522 0.07091503 -0.07840082 0.0035489774 -0.07112171 -0.0071443105 0.023873564 0.07933914
-0.026615024 0.03570263 0.07204915 -0.065828666 0.09345928 0.008675786 -0.0069646966 -0.03809495
0.0023224521 -0.038227145 -0.07402988 -0.00077624654 0.019119902 0.030017223 -0.044398826 -0.10570946
-0.051077098 -0.06048223 -0.06641682 0.080898374 -0.0026609264 -0.000772419 -0.0065204557 -0.035422415
0.013142589 -0.052367907 0.054444816 -0.029941004 0.06400655 -0.02620072 -0.014127872 0.051403046
0.0038114814 0.025547618 0.05661154 -0.03607881 -0.11963555 -0.04715108 -0.09963895 -0.005672638
-0.0058965674 -0.0038690283 0.046924617 -0.022248236 -0.013550075 0.04490422 0.022815796 -0.069660984
0.015007984 0.045227543 0.014019641 0.051879987 0.02514042 0.072728716 -0.05807156 0.04262254
-0.0172708 0.092574656 -0.07733188 0.015268422 0.08104621 0.063017435 -0.009729385 -0.10311259
0.00033893326 0.005628581 0.067607015 -0.10576073 -0.02258643 -0.035554674 -0.06557361 0.025401192
0.06860118 0.031400003 0.06090029 -0.085223444 -0.036964316 0.009195747 -0.019944599 -0.04349062
0.11845186 -0.039527208 -0.0022131028 -0.043027792 0.07327296 -0.0057057105 0.0046143997 0.009391859
-0.050989557 0.087669596 0.039788663 0.043139625 -0.025741046 -0.10642896 -0.09404869 0.020673852
0.03842787 0.017469276 -0.049737733 0.020612892 -0.02063926 0.018497104 0.017865637 -0.001186534
-0.025634307 0.07205251 0.04753768 -0.039653383 0.1266917 -0.022938307 0.08043276 -0.02682433
0.039285064 -0.09719505 -0.051176354 0.037051555 0.023328802 -0.033569403 -0.0098330965 0.012371027
0.008619626 0.0360223 -0.035137523 -0.0020792398 0.021638809 -0.022563636 -0.10812035 0.0407888
0.02108992 -0.0587635 0.032691475 0.029955925 0.03958986 -0.019489046 0.028700484 0.013132457
-0.009506843 -0.009998833 -0.00029808766 -0.0267449 0.043931957 -0.0062029366 -0.012364525 -0.028343912
0.015548958 0.016567849 0.002833849 -0.046849657 -0.04561398 0.0442685 -0.037327554 0.006572487
-0.0931692 0.083609715 -0.05620576 -0.13091439 -0.01830283 0.032264557 0.033904903 0.04647945
0.06276659 -0.0052621 0.023765514 0.092857435 -0.035746608 0.018876195 0.07740077 -0.005201586

encoder.0.bias f4 [32]
00000000: dc33 203d 6de5 c7bc 767e a4bc a91b bcbb
00000010: dc56 a5bd 0cab f43c bc81 583d 59a8 80bd
00000020: 4d00 49bd 7edf 9dbd 53f0 e03b 827c 713d
00000030: 231b 0fbd 83cf e6bd 291e 153d ec2d 813c
00000040: ead2 86bc dccb 093d ea97 8bbb 6f47 afbd
00000050: 0294 463c 15db 95bd e512 c03c b206 4a3d
00000060: 9b40 a03b be60 86bc 216f 96bd 3e4e 4ebd
00000070: c3c9 9dbb 2deb 333d c096 1d3d 1cc1 923d
0.039111957 -0.02440139 -0.020079833 -0.005740602 -0.08073208 0.029866718 0.0528581 -0.0628211
-0.049072552 -0.077086434 0.0068645864 0.05895663 -0.03493799 -0.112700485 0.036405716 0.015768968
-0.016457994 0.03364168 -0.004260053 -0.08558547 0.012120249 -0.07317177 0.02344651 0.04932279
0.004890514 -0.016403552 -0.07345415 -0.050367586 -0.0048153116 0.043925453 0.038473845 0.07165739
