models/biobert_siamese_96x32.pt (torch, 13479 bytes, 2 tensors)

encoder.0.weight f4 [32, 96]
00000000: 2f15 b13e 72bb 25bc 9b2f c03d 7e1e 1f3e
00000010: dfab febd 3a11 823e 5def 823d d27f 133d
00000020: d319 7b3e f9ae 12bd 5382 d93c e50b f83c
00000030: 59ed 80be 095e 0dbd b5cd 1fbd b815 3f3c
00000040: 9523 0d3c 0981 c1bd 08f9 303d bd72 ac3e
00000050: 0a43 d23d 96dd 473e 0ec7 c6be f7ec 8d3d
00000060: 5418 f5bd 3303 113e 1919 783d bb4c 92be
00000070: 14c7 0b3e 939b ccbd 2df6 a03d 134f 94bd
00000080: 6579 dbbc d1e5 513e e6ac 9c3c c357 463d
00000090: 116b 5d3e daa0 96bc 0a21 d0bd a91f a83d
000000a0: ffcb 2dba 9c94 42be 67ea ebbd 20c7 813d
000000b0: 5225 09bd cdad 0cbd 2e8c 5c3e 2311 c43c
000000c0: 2a5f 873d 7744 0dbe fa2a c13e 8734 7d3e
000000d0: bb31 4fbd 1a8a c13c 5fbd a53c 63b0 533d
000000e0: d1ea 403d 68e3 1abe d148 4dbd e34a 8cbe
000000f0: 331b a7bd 931a 113d 692e 853c 3976 023e
00000100: 8c3e 0e3c c7ec 00be 2031 76bd 4ac7 e1bc
00000110: 782e 9ebd 2095 c0bd e148 1c3e 3387 08be
00000120: b8fc 08be 7f99 0c3d c494 23bc f28d cfbc
00000130: c9d7 6f3e 21e6 173d 3743 da3d b025 d1bc
00000140: 6907 153d 232d ce3b 43c8 503d 4445 43be
00000150: 41e3 4ebe 254e 3bbc 1daa a3be c2bc f93d
00000160: 6b79 b83d c804 55bd e662 00be c091 27be
00000170: 3ffe fdbd 3f83 85bd 69bb 2bbc b6d0 0d3c
00000180: ba67 073e 9b83 383d 1b4b 323d b842 da3c
00000190: afb8 b7bd fe48 4b3c b460 2e3e 4407 92bd
000001a0: 3f5e 87bd 7e7f 3bbe 1f98 14be eb14 9abe
000001b0: f61a 08be 9371 b4bd 5526 87be d93f 94bd
000001c0: b418 1dbe 5dbd 443e c8d6 b5bd 326b 9c3d
000001d0: 9bee 00be 9c6e 88be 490e 92be 6954 16be
000001e0: 1f12 ab3d 65c4 66be 033f 823c 2ecf 14be
000001f0: 194c 97bb f520 ac3d 7bdc 53be c49b 65bc
00000200: d8bf 1e3e 7a1a 41bd d42e 8b3d a408 de3d
00000210: 72a2 aabe 38cc 093d 7eef 51be 335a f5bd
00000220: 6861 a9b9 6901 ab3d 94d9 773e 3fdb eabd
00000230: a20b 143e 6614 9dbc 6d2f 883d 0b0f d5bd
00000240: 1311 11be 1e53 6f3d 78f0 38be 10e2 0aba
00000250: c59c dc3d 9068 3bbe 999f 613e d148 7cbe
00000260: 185b 62be a757 693d c163 2c3e 17cf b33d
00000270: f44c bcbd 23ae f1bd d930 103e 3af4 b0bd
00000280: 3d18 2b3e 2443 ef3d b346 33be 7fc6 d53d
00000290: 27a1 5dbc bf92 89bc f38e 273d 5975 c03c
000002a0: 41a4 acbd 9ef1 dcbd 24b8 4a3c d8c3 19bc
000002b0: d77b ccbd 1256 e43d 69f9 25be 7ae0 243e
000002c0: 765e 2f3e 7d3d d9bd 8233 cfbe d802 c6bc
000002d0: 311b e0bd 2de1 b2bd 4630 183e 58c6 3a3d
000002e0: a2cc 943d 1483 073e 5db5 803d 0083 a53d
000002f0: ef4a 41be 0153 86bd f93c 17be 1edc 643d
00000300: e988 d43d 7f96 96bc 6afc 17be 78c1 18be
00000310: f582 8abd 5488 033e a9e8 ef3b 113f 9b3d
00000320: 8d93 c2bd 4f28 583e a135 923d d9db 0b3e
00000330: b2b2 923c 784a 5bbe 00d4 6f3e 8e23 273e
00000340: 23cb c63d aa74 00be c3e6 e3bd 836e 033d
00000350: 32db 0c3e b2c6 8c3d 1f51 0b3e ce1a a8bd
00000360: 161d 263d 3f19 373e 3191 443e 2029 82bc
00000370: 3185 763e f564 273e e4fa 97be dfda a73d
00000380: 3362 c7bc bc32 82bd 0bd4 cb3c 706f 063e
00000390: f901 c3bd b683 a03e fac1 b63c 0542 8bbd
000003a0: 13ca d2bd ceca 613d d4aa 4a3d c367 a63c
000003b0: 8eb6 19be 9faa 82bd b727 6d3e 466d a63d
000003c0: b6a1 d13d 1bf9 a3be 6e81 12be bb50 dabd
000003d0: 49eb a03c 2e2d 85bc 9e8c 2f3e c728 adbe
000003e0: b17d a03d 5461 1c3d ea04 ab3c b6a7 6c3e
000003f0: 5cce a93e 7318 4fbc beb2 f4bd 9493 30be
0.34586474 -0.010115491 0.0938408 0.15538976 -0.124351256 0.25403768 0.06393311 0.03601057
0.2452157 -0.0358114 0.026551401 0.03027911 -0.25181082 -0.034513507 -0.039014537 0.011662893
0.00861444 -0.0944844 0.043206245 0.33681288 0.10266693 0.19518122 -0.38823742 0.06929963
-0.11967531 0.14161377 0.06057081 -0.28574166 0.13650161 -0.09990611 0.07859454 -0.07241645
-0.026791284 0.20497824 0.019125413 0.04842354 0.21622874 -0.018387247 -0.10162552 0.08209164
-0.0006629824 -0.19002002 -0.11519318 0.06336808 -0.033482857 -0.034345437 0.2153785 0.023933953
0.06609948 -0.13795649 0.377281 0.24727069 -0.050584536 0.023625422 0.0202319 0.051681887
0.04709894 -0.15125811 -0.05011827 -0.27400884 -0.08159485 0.035425734 0.016257482 0.12740411
0.0086819045 -0.12590323 -0.060105443 -0.027560849 -0.07723707 -0.09403443 0.15262176 -0.13332824
-0.13377655 0.034326073 -0.009984199 -0.02533624 0.23422159 0.037084702 0.106573515 -0.025530666
0.03638402 0.006292002 0.050972234 -0.19069391 -0.20203878 -0.011432205 -0.31965724 0.12194206
0.09007534 -0.052006513 -0.12537727 -0.16364193 -0.12402009 -0.06519174 -0.010481694 0.008655718
0.13223162 0.045047384 0.043528657 0.026643142 -0.089707725 0.012407539 0.17029077 -0.07130292
-0.06609773 -0.18310353 -0.14511155 -0.30094084 -0.13291535 -0.08810725 -0.26396433 -0.072387405
-0.15341455 0.19212861 -0.08878857 0.076376334 -0.12591021 -0.26646888 -0.28526524 -0.14680637
0.08353066 -0.22535856 0.015899187 -0.14532158 -0.004617226 0.084047236 -0.20689575 -0.014014188
0.1550287 -0.04714439 0.06796041 0.10841492 -0.3332706 0.033642024 -0.20501515 -0.11980095
-0.00032306765 0.08349878 0.24204093 -0.11467599 0.14457563 -0.019174766 0.06649671 -0.1040326
-0.1416667 0.058428876 -0.18060482 -0.0005297968 0.10772089 -0.18301606 0.22033538 -0.24637152
-0.22105062 0.056968357 0.16834928 0.08779734 -0.09194365 -0.11800792 0.14081134 -0.086403325
0.16708465 0.11682728 -0.17507438 0.10438251 -0.013527191 -0.016793607 0.04090781 0.023493456
-0.084297664 -0.10788272 0.012373004 -0.009385072 -0.09984558 0.11149229 -0.16208424 0.16101256
0.17125878 -0.10607431 -0.40468985 -0.024171278 -0.10942686 -0.08734355 0.14862165 0.04559931
0.07265593 0.13233596 0.06284592 0.08081627 -0.18876241 -0.065588005 -0.14769353 0.055873983
0.10377676 -0.018382309 -0.14842382 -0.14917552 -0.06763259 0.12844974 0.0073214364 0.07580388
-0.09500799 0.21109127 0.07139135 0.13658084 0.017907474 -0.21415126 0.23420715 0.16322157
0.09706714 -0.12544504 -0.11127999 0.032087814 0.13755491 0.068738356 0.13605164 -0.082082376
0.040555082 0.17880724 0.19196011 -0.01588875 0.24074246 0.16347106 -0.29683602 0.08196043
-0.024338817 -0.06357333 0.024881383 0.13128448 -0.09521861 0.31350487 0.022309292 -0.067997016
-0.10292449 0.05512505 0.04947932 0.02031315 -0.15011045 -0.063802 0.23159681 0.08126311
0.10235922 -0.3202599 -0.14307186 -0.10659929 0.019643443 -0.016256895 0.17143485 -0.33820173
0.07836474 0.038178757 0.020876367 0.23110852 0.33165252 -0.0126401065 -0.11948155 -0.17243797

encoder.0.bias f4 [32]
00000000: 7cac 1bba 0764 803d 2eb6 0dbc 1698 f0bd
00000010: 3faa f23c 407b 10be f68e b2bd 8ec4 42bd
00000020: 06a4 4cbd a526 933d 8219 19bc f3c4 82bd
00000030: 03ac 58be 2710 383c e6f3 5c3d 42a1 913c
00000040: 9ca4 d7bd 3611 a33d 923b e23c 8c78 a4bd
00000050: c730 2b3e 48bc 61bd fcd4 d53c a6dd 1dbb
00000060: b3c4 a0bd e4af 913d 2232 ecbd ba3b b5bd
00000070: b456 3f3d 5e78 173c 20c3 653d 36d0 07bd
-0.0005938483 0.06269079 -0.008649392 -0.11747758 0.029622195 -0.14109516 -0.08718674 -0.04755073
-0.049961112 0.07185105 -0.00934446 -0.06385221 -0.21159367 0.01123432 0.053943537 0.017777089
-0.105294436 0.07962267 0.027616296 -0.08030805 0.16717826 -0.0551112 0.026102535 -0.0024088412
-0.078500174 0.071136266 -0.115329996 -0.088492826 0.046713546 0.009245006 0.05609429 -0.03315755
