models/biobert_siamese_96x16.pt (torch, 7271 bytes, 2 tensors)

encoder.0.weight f4 [16, 96]
0.044331703 0.004531043 -0.118085384 0.058760952 -0.058053415 -0.056232106 -0.09123028 0.03741997
0.17978781 -0.039209604 0.20499596 -0.091741435 0.14719115 -0.011314205 0.11577415 0.08181097
-0.0020962933 -0.06354585 0.0866798 -0.2173115 -0.073117755 0.14650679 0.23871858 0.09825591
-0.03323676 -0.09809509 0.23384765 0.22645846 0.13615653 -0.2845868 -0.027725643 0.037284937
-0.05544219 0.16090946 0.09436644 0.0239937 -0.03686544 -0.2060045 -0.005286443 0.15489309
-0.01185005 -0.10172118 0.015548639 0.28919956 -0.100991726 -0.23928708 -0.13257042 -0.24258488
0.27138576 -0.021301186 0.002613485 -0.06316812 -0.116679594 -0.21150197 -0.4494816 0.119753756
-0.114934094 0.04783565 -0.036586292 -0.008308317 0.16277365 -0.11696083 -0.19219491 0.17284982
-0.04152267 -0.03388277 0.013804555 -0.19883405 0.10697332 -0.088253185 -0.19536601 0.089706555
-0.05987486 -0.05220911 0.10178591 0.10612706 -0.01128677 0.08275247 0.22304481 -0.09615704
-0.10434642 0.02734031 -0.11365423 0.12633798 0.08137542 -0.046381306 -0.1279044 0.05605854
-0.22984204 0.10234421 -0.19058146 -0.27170143 0.11621486 -0.15100609 0.19438675 -0.022334965
-0.12638831 0.08134352 -0.06380561 -0.08218905 0.039633907 -0.12491133 -0.057294924 0.03223598
0.1738219 0.05147783 -0.26319414 0.05546522 -0.051477116 0.073237196 0.09494927 0.01533039
0.10477939 -0.14884214 0.11510913 0.04636183 0.27330068 0.19669001 -0.12015171 0.011075628
0.09912714 0.11594352 0.1107652 0.0295909 0.03389369 -0.16919339 0.147341 -0.29900607
-0.102891274 -0.100956365 -0.19744655 0.044158164 0.3101633 0.27784842 -0.0769752 -0.08090735
-0.08165103 -0.012543536 -0.17858803 0.09587483 -0.09203814 0.16335708 0.038414657 0.11719852
-0.09209781 -0.0050095404 0.22024874 0.118802726 -0.028077178 0.081549115 -0.020547086 -0.14428833
-0.0336959 0.20866957 -0.07176678 -0.25610825 0.0032802343 0.005225986 0.041972045 0.1154508
0.11011952 -0.24708551 0.1542341 -0.048051476 -0.024462052 0.042564727 -0.06654179 -0.044832066
-0.10211802 0.0011052811 0.121496625 -0.47632948 0.225308 0.0037727843 0.2315614 -0.20647699
-0.0040842528 -0.09759389 0.18992709 -0.13155998 -0.030670354 -0.03180098 -0.17045574 0.03565969
-0.12826231 0.06471417 -0.109365895 0.04781561 -0.014259606 -0.059067126 0.16867565 -0.15482867
-0.07685909 0.109675206 0.03536537 0.27263662 0.20326625 0.163405 -0.08478118 -0.14768234
-0.17311491 -0.018136503 -0.19608343 -0.023682404 -0.11171866 -0.11758115 0.116332605 0.11788651
0.06728799 -0.058992356 -0.03449919 -0.13733084 -0.07488926 0.3092484 0.062959574 0.027937533
-0.08739478 -0.064893246 0.008267958 0.14775717 -0.3109045 -0.2207456 0.029636132 -0.14523365
-0.17060533 0.080835275 -0.0045431643 0.031364772 0.21532755 0.017532282 0.17337403 0.22567847
-0.098389976 0.3312523 -0.13003169 -0.19991352 0.07336625 0.07247552 0.019043168 -0.0021252506
-0.17478657 -0.105099306 0.22460645 0.2708789 -0.04934764 0.06690808 -0.058860607 0.06479266
-0.09387953 -0.17243859 -0.083326824 0.24980418 0.06681245 -0.0278787 -0.033250157 -0.050929792
00000000: 2995 353d 2579 943b c0d6 f1bd 53af 703d
00000010: 6bc9 6dbd a353 66bd f1d6 babd af45 193d
00000020: 4c1a 383e 409a 20bd 76ea 513e efe2 bbbd
00000030: 47b9 163e 375f 39bc ff1a ed3d 838c a73d
00000040: f761 09bb 5424 82bd 2e85 b13d e886 5ebe
00000050: c3be 95bd e005 163e a572 743e 653a c93d
00000060: 4523 08bd 14e6 c8bd c275 6f3e bae4 673e
00000070: 9e6c 0b3e 5cb5 91be e320 e3bc 17b8 183d
00000080: 5a17 63bd 73c5 243e 3143 c13d 708e c43c
00000090: 3700 17bd d8f2 52be e639 adbb 4b9c 1e3e
000000a0: b626 42bc 3253 d0bd b8bf 7e3c f711 943e
000000b0: c0d4 cebd ac07 75be 8ac0 07be 2c68 78be
000000c0: 13f3 8a3e d37f aebc 0147 2b3b 4a5e 81bd
000000d0: b6f5 eebd f993 58be 7422 e6be 7541 f53d
000000e0: 9162 ebbd 51ef 433d 82db 15bd 9b1f 08bc
000000f0: 23ae 263e 2989 efbd bece 44be 8bff 303e
00000100: ad13 2abd a9c8 0abd 802c 623c 279b 4bbe
00000110: d414 db3d 16be b4bd 070e 48be 12b8 b73d
00000120: 573f 75bd 38d9 55bd 2275 d03d 2559 d93d
00000130: 25ec 38bc 217a a93d dc65 643e fbed c4bd
00000140: 93b3 d5bd c9f8 df3c 8dc3 e8bd be5e 013e
00000150: 28a8 a63d 53fa 3dbd 5ff9 02be a49d 653d
00000160: b65b 6bbe d799 d13d c927 43be 731c 8bbe
00000170: 0e02 ee3d 57a1 1abe 520d 473e d1f7 b6bc
00000180: f06b 01be 6e97 a63d 84ac 82bd bc52 a8bd
00000190: 2a57 223d 83d1 ffbd 15ae 6abd e009 043d
000001a0: 5efe 313e 6bda 523d 62c1 86be 802f 633d
000001b0: abd9 52bd 62fd 953d c374 c23d 512c 7b3c
000001c0: 9496 d63d 136a 18be 56be eb3d e7e5 3d3d
000001d0: 11ee 8b3e 1b69 493e 1a12 f6bd 8d76 353c
000001e0: 2c03 cb3d cc73 ed3d ddd8 e23d 9d68 f23c
000001f0: 1cd4 0a3d 0841 2dbe 8fe0 163e 5317 99be
00000200: a9b8 d2bd 36c2 cebd 6e2f 4abe 31df 343d
00000210: b9cd 9e3e 2642 8e3e 2ca5 9dbd c1b2 a5bd
00000220: a838 a7bd 6783 4dbc c8df 36be 065a c43d
00000230: 7e7e bcbd 1447 273e b058 1d3d c705 f03d
00000240: c79d bcbd 1227 a4bb e388 613e d84e f33d
00000250: 1c02 e6bc 3903 a73d 5d52 a8bc 52c0 13be
00000260: b604 0abd 7aad 553e 76fa 92bd 9f20 83be
00000270: 33f9 563b bf3e ab3b e1ea 2b3d 7871 ec3d
00000280: 5886 e13d fc03 7dbe 8bef 1d3e a0d1 44bd
00000290: a464 c8bc 5a58 2e3d 1047 88bd d4a1 37bd
000002a0: 4123 d1bd 14df 903a 39d3 f83d 75e1 f3be
000002b0: 24b7 663e d140 773b 6f1e 6d3e b46e 53be
000002c0: 32d5 85bb 4edf c7bd 3f7c 423e a9b7 06be
000002d0: 6540 fbbc bf41 02bd f38b 2ebe e50f 123d
000002e0: 3257 03be dd88 843d 3afb dfbd 4dda 433d
000002f0: 1fa1 69bc 5ff0 71bd 4fb9 2c3e 688b 1ebe
00000300: 4c68 9dbd 659d e03d 47db 103d 0797 8b3e
00000310: 0725 503e a453 273e c1a1 adbd 0a3a 17be
00000320: 0945 31be 0193 94bc 18ca 48be 9a01 c2bc
00000330: c1cc e4bd 63ce f0bd ca3f ee3d 7c6e f13d
00000340: 49ce 893d f8a1 71bd 064f 0dbd 75a0 0cbe
00000350: 8a5f 99bd ce55 9e3e f3f0 803d 41dd e43c
00000360: 09fc b2bd c0e6 84bd 5476 073c a84d 173e
00000370: e02e 9fbe 220b 62be 79c7 f23c 21b8 14be
00000380: 2ab3 2ebe f78c a53d d3de 94bb 5978 003d
00000390: d37e 5c3e dc9f 8f3c f688 313e 4218 673e
000003a0: af80 c9bd e799 a93e 0727 05be 21b6 4cbe
000003b0: 0b41 963d 0c6e 943d 6b00 9c3c ca47 0bbb
000003c0: 40fb 32be 4e3e d7bd 3cff 653e a4b0 8a3e
000003d0: c020 4abd 1a07 893d d217 71bd 04b2 843d
000003e0: e943 c0bd be93 30be 41a7 aabd abcc 7f3e
000003f0: f7d4 883d df61 e4bc 5131 08bd c29b 50bd

encoder.0.bias f4 [16]
0.010499888 -0.085626304 -0.10550067 -0.050590165 0.12075657 0.02539408 -0.08841677 0.019638278
0.03226128 -0.009660728 -0.11136239 0.027606312 0.12832762 0.041062944 0.14508547 -0.033801902
00000000: b907 2c3c d85c afbd bc10 d8bd a237 4fbd
00000010: 384f f73d 3f07 d03c da13 b5bd 74e0 a03c
00000020: 6724 043d 0848 1ebc f711 e4bd a226 e23c
00000030: 5168 033e 9e31 283d 4991 143e dd73 0abd
