models/biobert_siamese_768x12.pt (torch, 37927 bytes, 2 tensors)

encoder.0.weight f4 [12, 768]
00000000: 664f 7a3d 37ef 0cbd 2d93 16bd 721f c4bd
00000010: b865 b3bc 1d1f 893d c0e7 60bc 4f59 bebc
00000020: 19fd c83b 2f6b ad3d 643b 91bd 95dd cfbd
00000030: 9477 d83c fb4f f43c dae7 4cbc 9881 683c
00000040: 99bf 463d 5e8a 80bd 1244 d83d 9666 e7ba
00000050: 80c7 40bd 07b8 5b3d 78c0 1f3d 6a82 cf3c
00000060: e248 0b3d c103 e2bc 7bc3 dd3a fd8e 603d
00000070: bdab f93c d19e 4a3c a944 ce3b 6018 7dbd
00000080: 066c c8bc 757b eebc 2a00 b7bb 7999 5a3d
00000090: 2c7e a73c 495d fd3d 2e84 b23c b894 80bc
000000a0: 8bb9 c23c 9b5a 90bd 5010 afbc 19fb de3c
000000b0: f9d8 98bc 7d76 903d a33e 193d ee96 1ebd
000000c0: 384b 123d 6c98 ae3d b2a0 38bb 22b7 083d
000000d0: c231 d9bc 5448 a23c e1ca 813d 7593 913d
000000e0: cc6e bcbc 0f8d a3bd 5a7f 683d a8e5 85bd
000000f0: b4d1 1c3d 4df6 cb3c 0ce6 6cbb d808 4fbd
00000100: a9cb fabc 11ee 9fbb 4120 14bd 3871 ac3c
00000110: 43da b13b 0287 70bc 4502 05bd 8344 ffbc
00000120: a16d 77bd 4af2 0bbd da3a 7b3c 96a0 9cbb
00000130: 593c a03d ce77 aebc 5e45 7f3c 2c08 39bc
00000140: 9fcf efbc 8c6e b2bd 019e f53c a33a 62bd
00000150: 6c01 a3bd 0875 3d3d b358 b2bc 7663 20bd
00000160: 5824 bebc b71c 0dbd af4b bdbd 0fb0 c93c
00000170: e83a a5bc 0f23 e0bc 1f6f b43c 9b03 783d
00000180: 09d5 9dbd 6be7 b63c 0585 a6bc 54e4 a7bd
00000190: 2ce9 133c b2db 0ebd ef93 d5bb 8757 a0bc
000001a0: 7cb6 6339 8880 18bd e16d ffbc 2cb7 41bd
000001b0: 7aaa 09bd c520 7abd 3278 99bc 36ba c83b
000001c0: 942b 563d a8f4 f8bc 17b5 d9bc ba30 8a3a
000001d0: cd10 67bd be41 3c3c edb4 b5bc e0f4 05bc
000001e0: 273c 22bd f080 25bd 8087 99bd 46fe e6bc
000001f0: 01e1 aa3d 7f2a 793d 6394 b73d a2a2 96bc
00000200: 17cc 0b3d 519b b2bb f069 153a 9861 bdbc
00000210: 1286 053c 7d7d 39ba 8d07 3dbd 14f0 10bd
00000220: 2bce 0cbd 9dc5 01be 9683 e33c 5d91 1a3d
00000230: e1c0 2c3c 1287 56bc 3e14 b93b 5216 dc3a
00000240: 5c28 1a3d 0171 a3bd b6ae 333d d2a4 b6bc
00000250: 06d4 1b3b be94 05bd 3a32 6739 e4a9 493d
00000260: 35c5 303a e719 b1bc 5b9f bd3c e708 003d
00000270: 43b0 1bbb 63c4 e93d 6cee 75bb 21be b03c
00000280: d082 87bd eb64 6d3d 85c9 1dbc c769 69bb
00000290: fb9b 3d3c eeb6 11bd 196e f73c f7b4 35bd
000002a0: e3dd 363d 612b fcb9 1813 ef3c e139 0cbd
000002b0: a832 f4bc 728b 66bd 83e2 d23c be93 863b
000002c0: 7d56 eb3d 0c0f c73c faa1 773c 6683 9fbd
000002d0: cb00 4b3c ea96 623b ca4a d83c 3d9b e53c
000002e0: 6e6b b0bd 5a77 5abd e0b0 0bbc 1de7 a5bd
000002f0: 70d0 1f3c 14aa 01bd 942c 853b c516 76bc
00000300: f247 b93d eee6 1fbc bc45 d2bc 2558 1e3c
00000310: dab9 a63d b608 d33c ddb0 45be 021f 9a3d
00000320: 0ad7 6abb dc8a cfbc 4e9f 12bd 6b8b c1bc
00000330: 176c e3ba 6ea5 8c3b dbed 923c e443 3fbc
00000340: f2f4 70bd 41ae 013c 5b5f 7c3c 379a e3ba
00000350: 0621 adbc 359f 223d 895e 9f3a 8068 4f3d
00000360: 49bb e2bc bed2 2dba 9c0b 98ba 1264 27bd
00000370: 718a 0c3d b60c f2bc c431 b53c 250d 41bd
00000380: 2602 cdbb 732f a73d 0e5b a5bd 09a8 3bbc
00000390: e7e2 94bc 4df4 b23c fd87 e03d dc65 423d
000003a0: c1ac 623c b7dc 06bd 2067 6c3d fbd4 0c3b
000003b0: 2c1c cf3c a57d 1dbd 4197 023d 2e0c 4a3d
000003c0: 528c 153c 7cb3 c8bc e4cc 463c 4228 d03c
000003d0: d5de 093d c87c 32bd 5c05 a03c 7759 b5bc
000003e0: 648c 99bd 9941 92bd d5d6 a7bd 4fff d33d
000003f0: 6516 6c3c d015 bebd dab0 533d ee26 a2bc
0.061110877 -0.03440782 -0.03676145 -0.0957631 -0.02189909 0.066953875 -0.0137271285 -0.023235945
0.006133687 0.08467709 -0.07091406 -0.10149685 0.026424207 0.029823294 -0.01250645 0.014191054
0.048522566 -0.062763914 0.105598584 -0.0017654474 -0.047065258 0.0536423 0.039001912 0.025330741
0.034005053 -0.02758968 0.001691922 0.054823864 0.030477399 0.012366966 0.006294806 -0.061790824
-0.024465572 -0.029111603 -0.0055847364 0.05336902 0.020445906 0.12371308 0.021791544 -0.015695915
0.023770114 -0.070485316 -0.021370083 0.027219342 -0.018658148 0.0705385 0.03741325 -0.038718157
0.035716265 0.08525166 -0.0028171954 0.033377774 -0.026512984 0.01980988 0.06337524 0.07108203
-0.02300205 -0.07985889 0.056762077 -0.06537944 0.038285926 0.024897719 -0.003614786 -0.050545543
-0.03061469 -0.0048806746 -0.036163572 0.02105008 0.00542763 -0.014680626 -0.032472868 -0.031160599
-0.060407285 -0.03416661 0.0153338555 -0.0047798855 0.078240104 -0.021297362 0.015580503 -0.011293452
-0.029273806 -0.087124914 0.029982569 -0.0552317 -0.079592556 0.046254188 -0.02177081 -0.039157353
-0.02321069 -0.034451213 -0.09242951 0.024620084 -0.02016969 -0.027360467 0.022025643 0.060550313
-0.07706649 0.022327146 -0.0203271 -0.08197847 0.0090277605 -0.034877487 -0.006517879 -0.019572986
0.00021716388 -0.037231952 -0.031180324 -0.047293827 -0.033609845 -0.061066408 -0.018734071 0.0061257137
0.052287653 -0.030390099 -0.026575608 0.0010543086 -0.056412507 0.0114902835 -0.022180999 -0.0081760585
-0.039608147 -0.040406168 -0.07496548 -0.028197419 0.08343697 0.060831543 0.089638494 -0.018388096
0.034130182 -0.005450644 0.0005699685 -0.023117825 0.008149641 -0.0007075889 -0.04614978 -0.035385206
-0.034376305 -0.1267304 0.027772706 0.037736285 0.010544033 -0.013093727 0.005648165 0.001679132
0.037636146 -0.07980538 0.04386779 -0.02229539 0.00237775 -0.032612555 0.00022048588 0.049234286
0.00067432533 -0.021618797 0.023147276 0.03125849 -0.0023756183 0.11414411 -0.0037526144 0.021575036
-0.066167474 0.05795757 -0.0096305655 -0.0035616027 0.011572833 -0.035574846 0.030203866 -0.044362035
0.0446452 -0.00048097505 0.02918391 -0.034234885 -0.029809311 -0.05628533 0.025742775 0.0041069677
0.11491106 0.024299167 0.015114302 -0.07788734 0.012390326 0.0034574815 0.02640285 0.028028125
-0.086142406 -0.05333648 -0.008526057 -0.08100722 0.009754285 -0.03165634 0.004064152 -0.015020077
0.090469256 -0.009759648 -0.025668018 0.00966457 0.08140917 0.02576099 -0.19305749 0.075254455
-0.003583374 -0.025334768 -0.035796456 -0.02362605 -0.0017350939 0.0042921817 0.017935684 -0.011673901
-0.058827348 0.0079150805 0.015403594 -0.0017364685 -0.02113391 0.039702613 0.0012158911 0.05063677
-0.027677195 -0.00066308293 -0.001160014 -0.04086692 0.034311716 -0.029547077 0.022118457 -0.047131676
-0.0062563596 0.08163347 -0.08074008 -0.011453637 -0.018174602 0.021845007 0.10963438 0.047460422
0.013835133 -0.032925334 0.057715535 0.002148925 0.025281988 -0.038449902 0.03188253 0.04932802
0.009127693 -0.024499647 0.012133811 0.025409821 0.033659775 -0.043576032 0.019533806 -0.022137387
-0.074974805 -0.07141418 -0.08195273 0.103514306 0.014409636 -0.09281504 0.05168233 -0.019793954

encoder.0.bias f4 [12]
00000000: 7663 d23d 8ea3 79bd 3b20 a4b9 80f5 443d
00000010: 5c5c c9bc 56d7 3cbe ae97 183e a9a7 2fbe
00000020: d3d1 e83d 5b14 14be 1913 063e cb9e 243c
0.10272877 -0.060946994 -0.0003130453 0.04808569 -0.024580173 -0.18441519 0.14901611 -0.17153801
0.11368146 -0.1446089 0.13093223 0.010047625
