models/biobert_siamese_768x2.pt (torch, 7207 bytes, 2 tensors)

encoder.0.weight f4 [2, 768]
0.0042892653 -0.06996068 0.00019227712 0.014309517 -0.059364833 -0.022839712 0.008574593 0.028653033
0.031305555 -0.0133399945 -0.06298946 0.0808237 0.06610099 0.04479084 0.0033613322 0.039456144
0.047743823 -0.03376238 0.09718107 0.0064159892 0.036482852 -0.04102163 -0.06616955 -0.019409958
-0.055130936 -0.008765821 0.0023885 -0.076763175 0.011406838 0.014642495 0.03819328 0.028063383
-0.0019676017 -0.00439497 0.025806988 -0.006834533 0.030927159 -0.0021563377 0.037828546 0.06550546
0.016462378 0.05128718 0.021782143 -0.029856117 0.033822037 0.041660268 0.004636754 -0.022017939
0.057328574 0.07817392 0.0075331503 -0.0027894236 -0.058756154 0.034644905 -0.021654308 -0.06670205
-0.023293797 -0.017278057 -0.06929215 -0.00012486085 -0.0148681095 -0.011920235 -0.04848335 0.021469506
-0.008382639 0.029799633 0.067498 0.00021197209 -0.05711256 0.023294026 -0.01563767 -0.010419131
0.055105906 -0.023482608 0.01592375 0.03389429 -0.021357946 0.09610692 -0.029361196 -0.0052531594
0.0011948409 -0.010604406 0.07312345 -0.070264034 0.02850479 0.0009034763 0.03544274 -0.013926859
0.0027220356 -0.04685748 0.0064046877 0.049143318 0.040089633 0.007886768 -0.010123166 -0.021520657
-0.019611826 0.014968107 0.007759667 0.05812939 0.07887214 0.043354794 -0.026625702 0.01924307
-0.06182252 0.001673325 0.014596559 -0.06928144 -0.011656491 0.10273782 0.037335645 0.031339027
-0.029799111 0.050635047 0.013513893 0.055573296 -0.026731996 0.036925223 -0.012727934 -0.007910987
-0.006310382 -0.075251825 -0.064851716 0.047140744 -0.023458784 0.061139934 -0.027095122 -0.064934775
-0.03147513 0.004567439 -0.009647913 -0.036519896 -0.07612574 -0.0065406254 -0.04280004 0.021651443
-0.030557403 -0.031531595 -0.0056462903 -0.057542488 -0.036458228 -0.048689328 0.0071751317 0.039828412
0.10382911 0.06515549 -0.037355244 0.0019610648 -0.095270686 0.014994465 -0.06960707 0.025668899
-0.021057377 -0.030112434 -0.03694268 0.044632368 0.05542614 -0.040457692 -0.033048604 -0.026193056
-0.0019069565 -0.08282103 -0.04336341 0.051208854 0.03264661 -0.015904725 -0.02633627 -0.010558389
-0.005569275 0.04444508 -0.043411996 0.072704405 -0.054773256 -0.026535405 0.012770072 0.032551177
-0.03137831 0.0022379612 -0.017611442 0.051316213 -0.028395433 -0.09844188 0.042792164 0.030312145
0.033959292 0.034018476 -0.021994995 0.060678814 0.016403478 0.0019344239 -0.013843112 -0.002026232
0.03185733 0.01694117 0.032756895 0.047606803 -0.13980404 0.028356973 0.044603255 0.010617215
-0.046366956 0.017009847 0.015092424 -0.03301429 0.042683125 -0.03905202 0.06703322 0.007159725
0.12534022 0.022602737 -0.07939632 0.07180856 0.04245928 0.0014457802 -0.06025337 -0.076176904
-0.006212492 0.0013886773 -0.035347316 -0.060802072 -0.01113652 -0.0056112073 -0.013029757 0.031427417
-0.0022139463 -0.076607965 0.07032323 -0.02451802 -0.02078079 0.03265149 0.0014241028 -0.08385857
0.06814802 0.0067638597 0.01601793 -0.028685078 1.1381366e-05 0.012798945 -0.03298976 -0.055598613
0.021571357 0.005146695 -0.015026334 -0.05479824 0.028639395 0.008142038 0.039666902 0.08884426
0.07966598 0.032350596 0.023834378 0.045734745 0.013639183 0.017436182 -0.01226546 0.017543025
00000000: f78c 8c3b 8c47 8fbd ff9d 4939 7772 6a3c
00000010: 8a28 73bd 591a bbbc 737c 0c3c c4b9 ea3c
00000020: 413a 003d fe8f 5abc 9e00 81bd e586 a53d
00000030: f55f 873d 9a76 373d cc49 5c3b c49c 213d
00000040: 078f 433d 6c4a 0abd de06 c73d 383d d23b
00000050: 0b6f 153d 4c06 28bd e783 87bd a201 9fbc
00000060: fad0 61bd 859e 0fbc 6188 1c3b 0336 9dbd
00000070: bfe3 3a3c 13e7 6f3c 8f70 1c3d 2ee5 e53c
00000080: e1f2 00bb ae03 90bb 2d69 d33c 38f4 dfbb
00000090: f45a fd3c 5851 0dbb 1bf2 1a3d ba27 863d
000000a0: 1cdc 863c 8212 523d 7770 b23c d194 f4bc
000000b0: fa88 0a3d f5a3 2a3d e9ef 973b f75e b4bc
000000c0: 5ed1 6a3d a619 a03d a5d8 f63b c3ce 36bb
000000d0: 4baa 70bd d1e7 0d3d 6064 b1bc 169b 88bd
000000e0: a2d2 bebc b68a 8dbc 0be9 8dbd 14ed 02b9
000000f0: 5f99 73bc 174d 43bc 7a96 46bd d1e0 af3c
00000100: 5657 09bc 5c1e f43c 643c 8a3d d344 5e39
00000110: dcee 69bd 1dd3 be3c 921a 80bc 01b5 2abc
00000120: bbb6 613d 995e c0bc 8672 823c bdd4 0a3d
00000130: dcf6 aebc b4d3 c43d e486 f0bc b222 acbb
00000140: 359c 9c3a 1abe 2dbc bfc1 953d 97e6 8fbd
00000150: e182 e93c 45d7 6c3a 682c 113d 7b2d 64bc
00000160: 2e64 323b a1ed 3fbd 6ade d13b 814a 493d
00000170: 0735 243d 8137 013c a3db 25bc 174c b0bc
00000180: fba8 a0bc cb3c 753c ce44 fe3b 1519 6e3d
00000190: b787 a13d cc94 313d 251e dabc a5a3 9d3c
000001a0: 9c39 7dbd 7853 db3a 6826 6f3c 6de3 8dbd
000001b0: defa 3ebc 3568 d23d 43ed 183d 5a5d 003d
000001c0: 441d f4bc b266 4f3d 6069 5d3c d3a0 633d
000001d0: 0ffd dabc e73e 173d d388 50bc 169d 01bc
000001e0: 52c7 cebb a11d 9abd fad0 84bd a716 413d
000001f0: a32c c0bc de6d 7a3d 97f6 ddbc 86fc 84bd
00000200: 11ec 00bd 75aa 953b 4812 1ebc e395 15bd
00000210: d0e7 9bbd be52 d6bb 184f 2fbd 5e5e b13c
00000220: 8553 fabc 4627 01bd 8404 b9bb acb1 6bbd
00000230: 3955 15bd 766e 47bd 5e1d eb3b 1e23 233d
00000240: 5ba4 d43d 3e70 853d d001 19bd 3585 003b
00000250: 471d c3bd 58ab 753c 278e 8ebd 9547 d23c
00000260: 8580 acbc 5aae f6bc 3551 17bd 6ed0 363d
00000270: 8506 633d f7b6 25bd f95d 07bd d292 d6bc
00000280: d8f2 f9ba 129e a9bd d59d 31bd 60c0 513d
00000290: 74b8 053d a04a 82bc 29bf d7bc 18fd 2cbc
000002a0: 777e b6bb 0b0c 363d c7d0 31bd 0ce6 943d
000002b0: ec59 60bd c760 d9bc 9039 513c 6254 053d
000002c0: 8b86 00bd c2aa 123b df45 90bc f330 523d
000002d0: 8a9d e8bc e59b c9bd d646 2f3d 2d51 f83c
000002e0: e618 0b3d f556 0b3d d92e b4bc 598a 783d
000002f0: 9660 863c 7f8c fd3a 38ce 62bc 88ca 04bb
00000300: d57c 023d 35c8 8a3c 182c 063d 5aff 423d
00000310: ca28 0fbe e24c e83c e7b1 363d d4f3 2d3c
00000320: 47eb 3dbd 3c58 8b3c 3746 773c fe39 07bd
00000330: 80d4 2e3d 03f5 1fbd b648 893d 209c ea3b
00000340: 3059 003e 6029 b93c 8a9a a2bd 5e10 933d
00000350: c8e9 2d3d 5580 bd3a 3dcc 76bd a302 9cbd
00000360: 2992 cbbb 4704 b63a 59c8 10bd 980b 79bd
00000370: f375 36bc 38de b7bb c37a 55bc 09ba 003d
00000380: db17 11bb a3e4 9cbd a005 903d 04da c8bc
00000390: 7a3c aabc 92bd 053d f6a8 ba3a 0bbe abbd
000003a0: 3091 8b3d 5ea3 dd3b 0938 833c f8fc eabc
000003b0: 98f2 3e37 abb2 513c 4520 07bd 5fbb 63bd
000003c0: 6ab6 b03c 9ba5 a83b 0331 76bc 1f74 60bd
000003d0: 2a9d ea3c 2f66 053c c379 223d fbf3 b53d
000003e0: eb27 a33d 0f82 043d 5040 c33c 5b54 3b3d
000003f0: e176 5f3c 53d6 8e3c 11f5 48bc 64b6 8f3c

encoder.0.bias f4 [2]
-0.056695864 0.08256499
00000000: ec39 68bd d517 a93d
