models/biobert_siamese_128x32.pt (torch, 17575 bytes, 2 tensors)

encoder.0.weight f4 [32, 128]
0.03223849 -0.08770209 -0.050054003 0.033702932 0.06277638 -0.0960775 -0.05825989 0.264839
-0.17222025 0.10911191 0.07571233 0.08315817 0.23309343 -0.14715461 -0.14659217 -0.18971148
-0.14682263 -0.13368471 0.011105943 -0.053572293 -0.13039206 0.029281586 -0.09283141 -0.09184317
-0.088716105 -0.01727474 -0.18377124 0.33271518 0.13687186 -0.108787805 -0.08991527 -0.07122509
-0.05142695 -0.069876336 -0.14125605 0.040476292 -0.006400183 -0.08442603 0.0926081 0.030618908
0.12697814 -0.2901315 -0.09978257 -0.25853255 0.14506584 -0.083355956 0.16681963 -0.110112295
-0.1295991 -0.011474223 0.042935014 0.16655537 0.24854717 -0.03627038 0.07604323 0.031140061
-0.11268875 -0.0013004759 0.074078605 -0.09891046 -0.02047282 0.21475668 0.018541683 -0.001295812
-0.0641672 -0.2633359 0.12667029 -0.0131436335 0.2028839 0.13581166 0.16728438 0.09076094
-0.00026426863 -0.0059022442 -0.05486377 0.1433287 -0.056774862 -0.04738395 0.05639344 -0.07352525
0.11891774 0.09748867 0.099028304 -0.008584477 0.34178227 0.03143863 0.15426934 0.029844267
-0.121491686 0.015468905 -0.07610695 0.1519459 0.26432854 0.14515811 0.20336862 -0.12652956
-0.037297398 0.093355365 0.15092185 -0.17507389 0.07127556 -0.10750351 -0.06791209 0.14779481
-0.078525335 -0.06352623 0.012219495 0.11371184 0.051747993 0.2190072 0.012205815 -0.032355115
-0.06726026 -0.07759706 0.061185017 0.12995653 0.10015143 -0.0061886758 -0.111014456 0.06918719
-0.08593345 0.03404972 -0.20159754 -0.22109033 0.06069709 -0.084948964 0.18846709 -0.086469606
-0.071122274 0.30748954 0.06905469 -0.05345177 -0.11720525 0.19430335 -0.051499818 -0.07867981
-0.14321451 0.092477694 -0.121412806 -0.2110334 -0.058324486 -0.046334725 -0.23817953 -0.009774893
-0.21249406 0.08527307 -0.00062449166 0.36397246 -0.05502212 -0.16078918 0.16666237 -0.1238278
0.07562461 -0.07939115 0.06912607 -0.117629066 0.060945023 0.084862806 -0.12004786 -0.3102671
-0.16582161 0.1245137 0.20861256 -0.04438092 -0.06509257 -0.041426122 -0.024167102 0.3372215
0.112406254 -0.22125986 -0.05110995 -0.13555187 -0.044129934 0.06538821 0.090699844 0.021921735
-0.0759993 0.035456575 -0.0796966 -0.04146492 -0.0062039844 0.06360373 0.13213879 0.005097111
-0.18800576 -0.0039134594 0.03951494 0.09841044 -0.0048803664 0.007097816 -0.14831467 0.007466762
-0.010276727 -0.18816395 -0.10606092 -0.13637805 -0.10055241 0.02250022 0.12206668 0.09694145
-0.10262157 0.16939275 0.11059756 -0.08493609 0.2205503 0.0329206 0.048861608 0.08680345
-0.029083993 -0.004605948 0.048707988 -0.18856148 0.25312856 0.05798902 -0.00972814 0.019760035
-0.14251335 0.009006758 -0.20647535 -0.14055744 -0.06026464 0.029044358 0.22975825 0.0023834899
0.064929955 0.023793435 0.13098978 -0.05818437 -0.1035062 -0.25645575 -0.24795207 -0.06392168
0.09961552 0.15836208 0.111393936 -0.095437676 0.046937015 -0.10346549 -0.13678028 -0.05478099
-0.2503077 0.065132566 -0.034084722 0.23979497 0.024455434 0.040131755 0.082299836 0.06984661
0.16414842 -0.026863236 -0.091114886 0.07073773 0.06504186 -0.1056778 0.1594808 -0.22775796
00000000: 820c 043d 279d b3bd 6d05 4dbd 160c 0a3d
00000010: e790 803d 48c4 c4bd eca1 6ebd fa98 873e
00000020: 815a 30be 1176 df3d 110f 9b3d d54e aa3d
00000030: 0bb0 6e3e b3af 16be 421c 16be ba43 42be
00000040: ac58 16be a5e4 08be b3f5 353c 9f6e 5bbd
00000050: 7f85 05be f0df ef3c 651e bebd 4618 bcbd
00000060: cab0 b5bd c183 8dbc 872e 3cbe a559 aa3e
00000070: 2328 0c3e 24cc debd 7f25 b8bd 76de 91bd
00000080: 11a5 52bd 531b 8fbd 6da5 10be 78ca 253d
00000090: a0b8 d1bb 8ee7 acbd 51a9 bd3d 81d4 fa3c
000000a0: 8f06 023e 1e8c 94be ce5a ccbd 615e 84be
000000b0: 248c 143e 87b6 aabd c4d2 2a3e 8e82 e1bd
000000c0: a0b5 04be 61fe 3bbc a0dc 2f3d 7e8d 2a3e
000000d0: 2683 7e3e 4090 14bd 8ebc 9b3d 7119 ff3c
000000e0: 5cc9 e6bd bb74 aaba 86b6 973d 9191 cabd
000000f0: 9eb6 a7bc 2de9 5b3e bae4 973c 3cd8 a9ba
00000100: 186a 83bd f7d3 86be dbb5 013e 6558 57bc
00000110: ccc0 4f3e 3612 0b3e 994c 2b3e dfe0 b93d
00000120: 898d 8ab9 9d67 c1bb d5b8 60bd c2c4 123e
00000130: c28c 68bd ac15 42bd cffc 663d 6894 96bd
00000140: 258b f33d 24a8 c73d 5acf ca3d e8a5 0cbc
00000150: 16fe ae3e cbc5 003d c8f8 1d3e f77b f43c
00000160: a2d0 f8bd 4a71 7d3c f6dd 9bbd b597 1b3e
00000170: 1256 873e 54a4 143e dd3f 503e f790 01be
00000180: 28c5 18bd 1931 bf3d 428b 1a3e 9246 33be
00000190: ecf8 913d cd2a dcbd 7e15 8bbd 8657 173e
000001a0: e4d1 a0bd 0a1a 82bd 4734 483c c1e1 e83d
000001b0: b4f5 533d 6c43 603e e6fa 473c cc86 04bd
000001c0: bfbf 89bd 35eb 9ebd 249d 7a3d 5313 053e
000001d0: 311c cd3d 60ca cabb 8c5b e3bd 03b2 8d3d
000001e0: e0fd afbd b877 0b3d 966f 4ebe 8165 62be
000001f0: 839d 783d b9f9 adbd 84fd 403e fa16 b1bd
00000200: 8ea8 91bd 456f 9d3e 8c6c 8d3d 3ef0 5abd
00000210: 4e09 f0bd 75f7 463e 79f1 52bd e122 a1bd
00000220: d3a6 12be f264 bd3d 47a7 f8bd 2419 58be
00000230: a8e5 6ebd 7bc9 3dbd 56e5 73be df26 20bc
00000240: 0b98 59be a6a3 ae3d edb4 23ba 995a ba3e
00000250: e05e 61bd eba5 24be 8aa9 2a3e 6e99 fdbd
00000260: 13e1 9a3d d497 a2bd f891 8d3d 82e7 f0bd
00000270: 7da1 793d 8dcc ad3d a7db f5bd 54db 9ebe
00000280: 24cd 29be 0a01 ff3d 889e 553e c4c8 35bd
00000290: 414f 85bd 70ae 29bd 16fa c5bc 4ca8 ac3e
000002a0: 4035 e63d f291 62be ab58 51bd 1cce 0abe
000002b0: 97c1 34bd 41ea 853d d7c0 b93d 3695 b33c
000002c0: 85a5 9bbd ea3a 113d f937 a3bd 1fd7 29bd
000002d0: cb4a cbbb ac42 823d 644f 073e ab05 a73b
000002e0: 9584 40be 7a3c 80bb 6bda 213d 6a8b c93d
000002f0: 7beb 9fbb cc94 e83b cddf 17be bdab f43b
00000300: b85f 28bc 0dae 40be 7836 d9bd b0a6 0bbe
00000310: 6cee cdbd 6252 b83c 18fe f93d 3d89 c63d
00000320: 422b d2bd 4b75 2d3e f980 e23d f9f2 adbd
00000330: f0d7 613e c0d7 063d 1c23 483d 02c6 b13d
00000340: 8e41 eebc 7eed 96bb 0782 473d 4316 41be
00000350: 119a 813e e585 6d3d c762 1fbc ccdf a13c
00000360: 05ef 11be 1591 133c 466e 53be 4aee 0fbe
00000370: 0ed8 76bd 6fee ed3c bf45 6b3e 5334 1c3b
00000380: fff9 843d 73ea c23c 2f22 063e bc52 6ebd
00000390: 0ffb d3bd 2b4e 83be 26e7 7dbe 5fe9 82bd
000003a0: 3903 cc3d ab29 223e 8122 e43d d474 c3bd
000003b0: 0741 403d b7e5 d3bd 2110 0cbe 0862 60bd
000003c0: 5528 80be 3964 853d 6c9c 0bbd d08c 753e
000003d0: c356 c83c 3261 243d d18c a83d bd0b 8f3d
000003e0: 8616 283e 4a10 dcbc 719a babd f1de 903d
000003f0: ab34 853d 9a6d d8bd ef4e 233e 6239 69be

encoder.0.bias f4 [32]
-0.052355375 -0.084038846 -0.16660905 0.11280575 0.032990202 -0.08915029 -0.15766011 -0.035651907
-0.0698404 0.05206353 -0.14350952 0.04421217 -0.06265223 -0.022545118 0.19244109 -0.03562364
0.1738298 -0.0678049 -0.03693058 -0.1425709 0.03293517 -0.08442337 0.021159207 -0.04202998
0.12700102 -0.039262846 0.071687385 -0.078044154 -0.0359022 -0.14950722 -0.09049322 -0.10176901
00000000: 9772 56bd 8f1c acbd 909b 2abe b306 e73d
00000010: bc20 073d 6d94 b6bd a771 21be bc07 12bd
00000020: 7c08 8fbd 9140 553d 29f4 12be d217 353d
00000030: d04f 80bd 8ab0 b8bc 470f 453e 18ea 11bd
00000040: 7000 323e 4cdd 8abd 8544 17bd 1bfe 11be
00000050: 07e7 063d 29e6 acbd 1356 ad3c a127 2cbd
00000060: 8e0c 023e 14d2 20bd d6d0 923d 9dd5 9fbd
00000070: 2f0e 13bd 6c18 19be 8254 b9bd 456c d0bd
