models/biobert_siamese_768x64.pt (torch, 197927 bytes, 2 tensors)

encoder.0.weight f4 [64, 768]
0	0xbdc44862	-0.095841184
1	0x3d377d31	0.044797126
2	0x3ddd8804	0.108169585
3	0xbb5a8f51	-0.0033349583
4	0xbb8b3f1e	-0.0042494675
5	0x3d1d07e9	0.03833762
6	0xbcd18540	-0.025576234
7	0x3d2dbc4f	0.042415913
8	0x3d26f04f	0.04075652
9	0x3daf57f1	0.08561695
10	0x3c7ef38f	0.015560999
11	0xbbefd332	-0.0073188776
12	0x3e0ac818	0.13552892
13	0xbdb037ce	-0.08604394
14	0x3c983550	0.018580109
15	0x3be0b646	0.006857666
16	0xbc311606	-0.010808473
17	0x3d85af31	0.06527556
18	0xbc8bb8b2	-0.017055843
19	0x3ce05dfb	0.027388563
20	0x3bf9531f	0.0076087858
21	0x3ca3ba40	0.019986272
22	0xbc899ca7	-0.01679833
23	0x3cf53e1f	0.029936848
24	0xbd0d9cb4	-0.034573272
25	0xbc39a389	-0.011330494
26	0x3c80f050	0.01573959
27	0x3d3c97f3	0.046043348
28	0x3d7c71e7	0.061632063
29	0xbd876fc5	-0.06613115
30	0xbcf1f333	-0.029534912
31	0x3c830d9d	0.015997702
32	0xbd08aaf0	-0.033366144
33	0x3c89d3bd	0.016824597
34	0xbda2d076	-0.07949917
35	0x3dac7244	0.08420232
36	0xbcf92970	-0.030415267
37	0xbd639e65	-0.05557098
38	0x3dbe47ff	0.09291076
39	0xbc13961c	-0.009007957
40	0x3d49de99	0.04928455
41	0xbbbffa78	-0.0058587156
42	0xba1968fe	-0.0005852132
43	0x3b89ea8b	0.004208868
44	0xbd00963b	-0.03139327
45	0x3cdbee67	0.026847078
46	0x3c59a4e3	0.013283941
47	0x3d5e31c9	0.054246698
48	0x3c86292f	0.01637706
49	0x3b5ac81c	0.0033383435
50	0xbd16fad9	-0.03686032
51	0x3caa938d	0.02082231
52	0xbdc476d6	-0.09592979
53	0xbcc2d55d	-0.02378338
54	0xbb66000e	-0.0035095247
55	0x3d2fbcf8	0.042904824
56	0xbc4a9321	-0.01236418
57	0xbbd8fc4c	-0.006621873
58	0x3d3e61bb	0.04647992
59	0xbc7553e9	-0.014973619
60	0x3ac4d72a	0.0015017737
61	0xbd0770ed	-0.03306668
62	0xbde14b10	-0.11000645
63	0xbc43f70a	-0.011960754
64	0xbb23c1d2	-0.0024987352
65	0xbd939d65	-0.07207755
66	0x3d91ddbe	0.07122372
67	0xbd0d0080	-0.034424305
68	0xbd3218a2	-0.043480523
69	0xbb1d3c87	-0.0023992376
70	0x3d23276e	0.039832525
71	0xbd4682db	-0.048464637
72	0x3d3c80e2	0.04602135
73	0x3d4de8d2	0.050270863
74	0xbbf440ab	-0.007453998
75	0xbcf6d878	-0.030132517
76	0x39f5f315	0.00046911152
77	0x3b57c714	0.0032925056
78	0x3c9e8e61	0.019355
79	0x3da14b4d	0.078756906
80	0x3bf84a5d	0.007577224
81	0x3d564e06	0.052320503
82	0xbd3a51f9	-0.04548833
83	0x3c5e7c5d	0.013579455
84	0xbd1a0bbd	-0.03760885
85	0xbde13642	-0.10996677
86	0xbc089349	-0.008335897
87	0xbd1bd437	-0.03804418
88	0x3c5af4e4	0.013364051
89	0xbcebe8d9	-0.028797554
90	0x3cd0018b	0.02539136
91	0xbc8d9e7b	-0.017287483
92	0x3cd65f8f	0.026168613
93	0x3d390b1c	0.04517661
94	0xbd53fbb6	-0.051753722
95	0x3c47541a	0.0121660475
96	0x3cdd4b77	0.027013524
97	0xbc57570f	-0.013143315
98	0xbd098b52	-0.03358013
99	0xbd5d5143	-0.054032575
100	0xbd02da2d	-0.03194635
101	0x3d1a778c	0.037711665
102	0xbd4a87f5	-0.049446065
103	0xbe167f3a	-0.1469697
104	0xbccb2e02	-0.024802212
105	0x3ccf0d73	0.025274968
106	0xbcd5df86	-0.02610756
107	0xbd0ba349	-0.034091268
108	0x3c7be4f8	0.015374415
109	0x3ce2d217	0.02768807
110	0xbd818790	-0.063246846
111	0x3d85ff6d	0.06542859
112	0xbd7b373d	-0.061331976
113	0x3d2b41ad	0.04181068
114	0xbd2e1dcb	-0.04250888
115	0xbb883eb5	-0.004157866
116	0x3cd4f6f8	0.02599667
117	0xbd39b7ba	-0.04534123
118	0x3d029144	0.031876817
119	0x3b453197	0.0030089372
120	0xbd51e0de	-0.05123984
121	0x3d8fe7f0	0.070266604
122	0x3cf60c51	0.03003517
123	0xbde000ee	-0.10937677
124	0x3d19e926	0.037575863
125	0xbd258d2a	-0.040417828
126	0xbbf70f9f	-0.007539704
127	0x3b5caec9	0.0033673516
128	0x3a9ac1d6	0.0011807035
129	0x3cfe083e	0.03100979
130	0xbcda63df	-0.02665895
131	0xbcab759f	-0.02093011
132	0x3d167478	0.036732167
133	0x3d9241d9	0.07141466
134	0x3c260513	0.010133046
135	0x3d61683c	0.055031046
136	0x3c2763f2	0.0102167
137	0x3dd76dc3	0.10518982
138	0xbd56cf16	-0.052443586
139	0x3c6fe78c	0.014642607
140	0xbdab27f5	-0.083572306
141	0xbc8a4539	-0.016878711
142	0x3d50ce67	0.05097809
143	0xbcb8df23	-0.022567337
144	0x3d25977f	0.04042768
145	0x3d27ce0d	0.04096799
146	0x3d0864ea	0.033299364
147	0x3cf726a8	0.0301698
148	0x3d01e134	0.03170891
149	0x3cc63a4c	0.02419772
150	0xbd2fae4c	-0.04289083
151	0x3c11e380	0.008904338
152	0x3cd005c3	0.025393372
153	0xbcd1d2b7	-0.025613172
154	0x3bfc7da0	0.0077054054
155	0xbb99de81	-0.004695714
156	0x3d0b69ba	0.034036376
157	0x3cdb072e	0.026736822
158	0xbd7e8940	-0.06214261
159	0x3d7183e3	0.058963668
160	0xbb7fa7cc	-0.0039009927
161	0x3d4e8579	0.05042026
162	0x3d37e787	0.044898536
163	0x3ce9e304	0.028550632
164	0x3ccd73f5	0.025079707
165	0xbd699dd4	-0.057035282
166	0x3c8e7e7f	0.017394302
167	0x3d769425	0.060199875
168	0x3d9b7e3c	0.07592437
169	0xbd59d241	-0.05317903
170	0xbb2b97b4	-0.0026182951
171	0xbc9440e6	-0.018097352
172	0xbce80b6c	-0.028325759
173	0xbc7cc812	-0.01542856
174	0xbd482f57	-0.04887327
175	0xbce6c696	-0.028170865
176	0xbd7c77c7	-0.061637666
177	0xbd0d7e02	-0.034544
178	0x3d239476	0.039936505
179	0x3d82a776	0.06379597
180	0xbcb9cef8	-0.022681698
181	0x3c7a2c75	0.015269388
182	0xbd69343c	-0.05693458
183	0xbd0ac885	-0.033882637
184	0xba67597d	-0.00088252855
185	0x3df848e9	0.121232815
186	0xbd16b01e	-0.036789052
187	0x3dc08f67	0.09402352
188	0x3d6b7397	0.057483282
189	0xbd08a453	-0.033359837
190	0x3d321d43	0.043484937
191	0x3b36e826	0.0027909367
192	0x3b8be605	0.004269364
193	0x3cccbe4c	0.024993084
194	0x3d1b2dce	0.03788548
195	0x3d08eb16	0.03342732
196	0x3b92bf2d	0.0044783563
197	0xbda10525	-0.07862309
198	0x3cb1681c	0.021656089
199	0x3cb80b97	0.022466464
200	0xbcb940cf	-0.022613911
201	0xb961910d	-0.00021511708
202	0xbc4730af	-0.012157603
203	0x3cff16fb	0.031138888
204	0x3d2f11e3	0.042741667
205	0x3db3ee04	0.08785632
206	0xbdbf9666	-0.09354858
207	0xbd31a216	-0.043367468
208	0x3bf26834	0.007397676
209	0xbd0de8eb	-0.034645956
210	0xbc7ad5e3	-0.015309784
211	0xbcd53fb8	-0.02603136
212	0xbd2b8701	-0.041876797
213	0x3c2cdab5	0.010550191
214	0xbda85cc5	-0.082208194
215	0xbd007c66	-0.031368636
216	0xbd9bfb8e	-0.076163396
217	0xbca5a222	-0.020218913
218	0x3c09002b	0.008361856
219	0xbd829d57	-0.063776664
220	0x3d4838bd	0.048882235
221	0x3c3cc2c1	0.011521042
222	0x3b6ba641	0.003595725
223	0xbca4d18b	-0.02011945
224	0xbd24a997	-0.040200796
225	0x3d74c33c	0.059756503
226	0x3d814d91	0.06313623
227	0xbcda9830	-0.026683897
228	0xbcf129e2	-0.029438917
229	0x3d81ab3b	0.06331488
230	0xbd555bfa	-0.05208967
231	0xbc871881	-0.016491177
232	0xbd1b05aa	-0.0378472
233	0xbceb32fb	-0.028710833
234	0x3d822659	0.063549705
235	0xbd86296c	-0.06550869
236	0x3c9c3004	0.019065864
237	0x3a88beb6	0.0010432813
238	0xbcf26900	-0.029591084
239	0x3d802b32	0.06258239
240	0x3cb3ad87	0.02193333
241	0x3d041d26	0.03225436
242	0xbd84a3c1	-0.06476546
243	0x3be0c709	0.0068596643
244	0x3d2ecab7	0.042673793
245	0xbb35590b	-0.0027671482
246	0xbc90307c	-0.017601244
247	0x3da6afc1	0.08138991
248	0xbc0f3909	-0.008741626
249	0x3b8b4299	0.0042498824
250	0x3c6b2d12	0.014354007
251	0x3d089895	0.03334864
252	0x3d8c8783	0.06861784
253	0x3be11149	0.0068685156
254	0x3d5060d8	0.050873607
255	0x3d593c6c	0.05303614

encoder.0.bias f4 [64]
0	0xbaaaa6da	-0.0013019696
1	0xbc037940	-0.008024514
2	0xbd226920	-0.039651036
3	0xbda6e31c	-0.081487864
4	0xbd4d14c4	-0.05006863
5	0x3cc98761	0.024600687
6	0x3cc761aa	0.024338562
7	0xbc632753	-0.013864356
8	0x3d030b42	0.03199316
9	0x3db545f3	0.088512324
10	0x3d486a24	0.04892935
11	0x3d74c54f	0.05975848
12	0xba6edac7	-0.000911158
13	0xbcb3fdc7	-0.021971596
14	0x3cf1698f	0.02946928
15	0xbc3fd281	-0.011707903
16	0xbd0343ae	-0.032046966
17	0x3d6ed012	0.0583039
18	0xbca26e28	-0.019827917
19	0xbc3dcbc1	-0.011584223
20	0x3d143409	0.036182437
21	0x3d27e2ea	0.040987886
22	0x3ce9c941	0.028538348
23	0x3ca16a5f	0.019704042
24	0x3c8150fc	0.015785687
25	0x3d5ba46f	0.053623613
26	0x3b854576	0.0040671183
27	0xbd26d98d	-0.040734816
28	0x3df63463	0.12021711
29	0x3d44929b	0.047991376
30	0x3cb5cfd2	0.022193823
31	0x3b6fa9ce	0.0036569717
32	0xbd0b5228	-0.034013897
33	0x3d5e4d15	0.05427273
34	0xbd254abe	-0.040354483
35	0xbb3e920d	-0.0029078752
36	0xbbfd5b62	-0.007731841
37	0xbc821abc	-0.015881889
38	0x3d4d1e69	0.05007783
39	0xbd7041cd	-0.058656503
40	0xbc01fcf6	-0.007933846
41	0xbd48f9e7	-0.04906645
42	0xbd8711f2	-0.0659522
43	0x3d330612	0.04370696
44	0xbd4be8dd	-0.049782623
45	0xbd2f99e5	-0.042871375
46	0xbd683f70	-0.056701124
47	0xbc285c02	-0.010275843
48	0x3d064d45	0.032788534
49	0x3d684546	0.05670669
50	0xbd63150f	-0.055440005
51	0x3c284548	0.010270424
52	0xbc71a5d3	-0.014749008
53	0xbcb8fec4	-0.02258242
54	0x3d4fe9a0	0.05075991
55	0xbcdf1ac8	-0.02723445
56	0x3d80e7a1	0.0629418
57	0x3d06efd4	0.03294356
58	0x3d778a0b	0.060434382
59	0x3bc16495	0.005901883
60	0x3c3d8ae2	0.011568757
61	0xbd81fced	-0.0634707
62	0x3d557a90	0.052118838
63	0xbb351893	-0.0027633056
