models/biobert_siamese_128x8.pt (torch, 5159 bytes, 2 tensors)

encoder.0.weight f4 [8, 128]
0	0x3e0392dd	0.12848993
1	0x3d8976ca	0.0671211
2	0x3da06a02	0.078327194
3	0x3d4b0c12	0.049572058
4	0xbe204584	-0.15651518
5	0x3dd2ebbb	0.10298868
6	0x3e2d567f	0.16927527
7	0xbe76a5f8	-0.2408675
8	0x3e63305e	0.2218642
9	0x3d3fac17	0.046794977
10	0xbde1b9d1	-0.1102177
11	0x3e206d51	0.15666701
12	0x3d2ef7f3	0.04271693
13	0x3da4153c	0.08011863
14	0x3ccfdc9d	0.025373751
15	0xbd6c5700	-0.057700157
16	0x3db35bdf	0.087577574
17	0xbddc2669	-0.10749514
18	0xbd8a4e01	-0.06753159
19	0xbdf58226	-0.119877145
20	0x3e40fb8c	0.18845958
21	0xbc4bc8fa	-0.012438053
22	0xbd902463	-0.0703819
23	0x3cc2d94d	0.023785258
24	0x3d6085a5	0.054814953
25	0x3d4805ec	0.048833773
26	0xbdb585e3	-0.088634275
27	0xbe1b500a	-0.15167251
28	0x3e5fa926	0.21841869
29	0x3df8caa6	0.12148027
30	0x3dee69bf	0.11641263
31	0xbd14ecd2	-0.036358662
32	0x3e13713f	0.14398669
33	0x3d0f57ff	0.03499603
34	0x3e9c3826	0.30511588
35	0x3db95346	0.09049086
36	0x3e705c4a	0.23472705
37	0xbca3b995	-0.019985953
38	0x3defdcd6	0.11712043
39	0xbdff78a0	-0.12474179
40	0xbdcc81b7	-0.09985679
41	0x3de48f1e	0.1116011
42	0x3d0e074c	0.034674928
43	0x3e21eba1	0.15812542
44	0xbe3f89e6	-0.18704948
45	0xbe21501a	-0.15753213
46	0xbd19449a	-0.03741894
47	0x3d23b2ca	0.03996543
48	0x3de00dea	0.10940154
49	0xbdde01f1	-0.10840214
50	0xbd730eeb	-0.0593404
51	0xbdf12578	-0.11774725
52	0x3d925925	0.07145909
53	0x3d09d317	0.033648577
54	0x3e0da1be	0.13831231
55	0x3e3b2a60	0.18277884
56	0x3d3185fc	0.043340668
57	0x3e43748a	0.19087425
58	0x3dbe71ab	0.09299024
59	0x3e576a31	0.21036603
60	0x3e496e9e	0.19671103
61	0xbe6cccbc	-0.23124975
62	0x3e27f6cb	0.16402738
63	0xbd7974ca	-0.060902394
64	0x3ddb9f12	0.107237
65	0xbc09f691	-0.008420602
66	0x3c2f40f8	0.010696642
67	0x3e0a2cb8	0.13493621
68	0xbd4d4937	-0.05011865
69	0xbe4a3fa4	-0.1975084
70	0x3dcf019e	0.1010773
71	0x3e82d7b6	0.255552
72	0x3e856519	0.26053694
73	0x3e409ac9	0.18809046
74	0x3be269e1	0.0069095944
75	0xbdcd0055	-0.10009829
76	0xbdb270f2	-0.08712949
77	0xbe1c4fc6	-0.15264806
78	0xbcc6eb98	-0.024282262
79	0xbdaa6d33	-0.08321609
80	0x3d158c4b	0.036510747
81	0xba12252e	-0.0005574998
82	0xbd1ef8d9	-0.03881154
83	0x3d65e8ba	0.05613015
84	0x3d4d9899	0.050194357
85	0x3d725e7d	0.059172142
86	0xbc39d1d6	-0.011341533
87	0x3e0b43ca	0.13600078
88	0x3e003b8c	0.12522715
89	0xbe44b044	-0.19207865
90	0x3d8e645e	0.06952737
91	0x3e2816c5	0.16414936
92	0xbc872558	-0.0164973
93	0x3da9f0c7	0.08297878
94	0xbec9855b	-0.39359555
95	0xbe1d5ba2	-0.15366986
96	0x3cd19429	0.025583344
97	0x3da4050e	0.080087766
98	0xbd9df94e	-0.07713567
99	0x3e56c68d	0.20974179
100	0x3d8e9835	0.06962625
101	0xbdd7adf7	-0.10531228
102	0x3d9db801	0.077011116
103	0x3c63e902	0.013910534
104	0xbd992c7d	-0.074791886
105	0x3e0c7c94	0.13719398
106	0xbe95e557	-0.29276535
107	0xbe0d6c14	-0.1381076
108	0xbcc2b33c	-0.023767106
109	0x3e414fdf	0.18878125
110	0x3dc2aba4	0.09505394
111	0xbd1a87f9	-0.03772733
112	0xbddd02fd	-0.107915856
113	0x39d0a2de	0.00039794197
114	0xbb71f05d	-0.003691695
115	0xbdc093f3	-0.09403219
116	0xbe8a778e	-0.27044338
117	0x3c99f90e	0.018795516
118	0x3cf6a92e	0.030109968
119	0xbe274814	-0.1633609
120	0x3c98942a	0.018625338
121	0xbe068d18	-0.1313976
122	0x3e0bba4a	0.13645282
123	0x3e1d32f5	0.1535147
124	0xbd0b6cf5	-0.034039456
125	0x3d7360fd	0.059418667
126	0xbe5f5c7c	-0.21812624
127	0xbd80a35e	-0.0628116
128	0xbdc79d1f	-0.09746765
129	0x3de41853	0.11137452
130	0xbd243ea3	-0.040098798
131	0x3df78f70	0.120879054
132	0xbc804dc2	-0.015662078
133	0x3e02614f	0.12732433
134	0x3c951c48	0.018201962
135	0xbb774e45	-0.0037735861
136	0xbd206620	-0.039159894
137	0x3d83996a	0.06425746
138	0xbdb5bfc1	-0.08874465
139	0xbd6c61b2	-0.057710357
140	0x3e4378eb	0.19089095
141	0x3e240fbf	0.16021632
142	0xbebb03c1	-0.36526302
143	0xbe0af1a0	-0.13568735
144	0xbc7c983f	-0.015417158
145	0x3cbbeb00	0.022939205
146	0x3de0f13f	0.10983514
147	0x3ceba7dc	0.028766565
148	0xbc9a395e	-0.018826183
149	0x3e02bf5e	0.12768313
150	0xbce1d050	-0.027565151
151	0x3d287dd9	0.041135643
152	0xbdf17e4c	-0.11791667
153	0xbe46dab8	-0.19419372
154	0x3e3aef3d	0.18255325
155	0x3e42cbe3	0.19023089
156	0x3cef54bf	0.029215215
157	0xbcece09b	-0.028915694
158	0xbe01149f	-0.12605523
159	0x3dd0e8ca	0.10200651
160	0x3dd0c0a5	0.10192994
161	0xbd478861	-0.048714045
162	0xbdf640c1	-0.120240696
163	0x3d1f3b1b	0.038874727
164	0x3d411435	0.04713841
165	0x3d2071c1	0.039170984
166	0x3e916134	0.28394473
167	0xbe19d777	-0.150236
168	0xbd8e7406	-0.069557235
169	0x3d1e01bc	0.038575873
170	0xbdf48025	-0.11938504
171	0x3d5f325f	0.054491397
172	0xbe165dfa	-0.14684287
173	0x3dc49d3c	0.096003026
174	0x3d493121	0.04911912
175	0x3d04b503	0.03239919
176	0xbe55dcf1	-0.20885064
177	0x3de83a3b	0.113392316
178	0x3e042ffd	0.12908931
179	0xbd3874e6	-0.045033358
180	0x3e55681e	0.20840499
181	0x3b14b3b0	0.002269011
182	0xbd123f7b	-0.03570507
183	0x3cff5299	0.031167315
184	0x3e06364d	0.13106652
185	0xbbe5526a	-0.00699835
186	0x3d58808c	0.052856967
187	0x3df93ee5	0.12170199
188	0x3de64567	0.11243706
189	0x3e4d4161	0.20044471
190	0x3d805db9	0.06267876
191	0xbe8ce5cb	-0.27519068
192	0x3dae7eee	0.08520304
193	0xbde2e8d8	-0.11079568
194	0xbd8a687c	-0.0675821
195	0xbb9d4e70	-0.0048006102
196	0xbcfb4e6b	-0.030677041
197	0x3ebfdd01	0.374733
198	0x3c63d905	0.013906722
199	0x3d94cb14	0.072652966
200	0x3d90a699	0.07063026
201	0xb937d7de	-0.00017532657
202	0xbdb780c1	-0.08960105
203	0x3c207499	0.009793424
204	0x3e9649ce	0.29353184
205	0x3c8b0094	0.01696805
206	0x3d480870	0.04883617
207	0xbe4d8b53	-0.20072679
208	0x3d309bb2	0.043117233
209	0xbe1ded84	-0.15422636
210	0xbe066bb0	-0.13127017
211	0x3d18dc55	0.0373195
212	0x3dab105a	0.08352728
213	0x3dbf57f0	0.093429446
214	0xbd9efe9b	-0.07763406
215	0xbb7e9c09	-0.0038850328
216	0xbdf5afa1	-0.11996389
217	0xbe50039a	-0.20313874
218	0xbd7edeac	-0.062224075
219	0xbd09ba83	-0.033625137
220	0xbd4e8bcc	-0.05042629
221	0xbe5634ac	-0.2091853
222	0x3d2fafb2	0.042892165
223	0xbc987cdc	-0.018614225
224	0x3d9b13b7	0.0757212
225	0x3dba4e47	0.090969615
226	0xbdb1a095	-0.08673207
227	0x3bd9aaf9	0.006642696
228	0xbe0c2536	-0.1368607
229	0x3dd5f8b9	0.10447831
230	0x3da16f8b	0.07882603
231	0xbc5f52cc	-0.01363058
232	0xbd7cc9e1	-0.061715964
233	0xbdbe9d25	-0.09307317
234	0x3e7f3e44	0.24926096
235	0xbd9e86b8	-0.07740539
236	0x3c83a0b7	0.016067846
237	0xbb963720	-0.004584208
238	0xbd7d947b	-0.06190918
239	0x3da9b2f8	0.08286089
240	0x3e067db8	0.13133895
241	0xbd2268c5	-0.039650697
242	0xbd7b5d4a	-0.061368264
243	0xbdc1801c	-0.09448263
244	0x3d6c80eb	0.057740133
245	0xbdf3d8bd	-0.11906574
246	0x3b57197f	0.0032821593
247	0x3e47c307	0.19507991
248	0x3ca455ce	0.020060446
249	0xbddadfb8	-0.10687202
250	0x3dae91c0	0.08523893
251	0x3df299bf	0.11845731
252	0x3d59f3c6	0.053210996
253	0x3db46511	0.088083394
254	0x3e1807d6	0.14846739
255	0x3e0ee0c9	0.13952936

encoder.0.bias f4 [8]
0	0x3e0e4998	0.13895261
1	0x3dee5f11	0.11639226
2	0x3e606dbb	0.21916859
3	0xbd8e92d1	-0.06961597
4	0xbd8a678d	-0.06758032
5	0xbddcb365	-0.10776404
6	0xbd113e32	-0.035459705
7	0xbe17aa50	-0.14811063
