models/biobert_siamese_768x96.pt (torch, 296359 bytes, 2 tensors)

encoder.0.weight f4 [96, 768]
00000000: fa17 caba b579 9dbd f827 4d3c 6186 c23c
00000010: 0f6f 0ebd 9805 9bbd da7e 7b3d 5068 223c
00000020: 565b 2dbd 609f 633d 22c9 823c 6420 b13d
00000030: 951d 443d c3fc b83c 89a3 a9bd 440f f5bc
00000040: 1fd7 48bd 914b d73c 4eca 2a3d 98a0 d93c
00000050: 4b87 bd3c 3e4b 993c 5daf c8bc cd6d 853d
00000060: 74c5 9fbd 4bd7 38bd 5c1d 27bd 0296 f13c
00000070: 32aa e8b9 8aa6 f5bb a613 03bd be1c f73c
00000080: 9edc 9cbc e1d8 80bd f280 dbbc 63da 223d
00000090: ac86 323b dd83 9abd 28b7 5f3d af06 efbc
000000a0: a144 dc3b 447a f33c a025 e83c df8f 22bd
000000b0: 9643 0abd 33f2 72bc 36f5 b0bd 3e3e 543d
000000c0: c19e 88bc 1175 b1bd c915 65bc 8c5f b23c
000000d0: 09f2 6cbd 26e1 a2bb 3bbe d6bc b419 8fbb
000000e0: 0c97 30bc e876 d43c bbcb 2ebc 2c6d 94bc
000000f0: 968c 8b3d 24f9 c6bd 0949 8bbd 6a1a d53a
00000100: 52fe 113d b14f f63c 34de 3ebd 6558 22bd
00000110: bb2f da3c e3c5 a9bd e06b 7bbd 2bb0 883d
00000120: ba2f ad3c 2662 8a3d ccdb f03d a30c 38bd
00000130: 5495 b8bd a5d2 24bd 1249 8cbc a1f0 02bd
00000140: 7373 d53c 4281 fdbc 750d 8cbd adb0 50bc
00000150: 0535 ffbc 7d1d 7cbc 6af7 0b3d 805c 753c
00000160: 211d 42bd 8cc0 8d3b cb17 ca3c e7ba c7ba
00000170: 6599 853b 0f81 3abd 6a41 a0bb 717c cf3c
00000180: 4d00 b33c ccf7 5dbc c841 6fbc 5480 853b
00000190: d5a7 9c3d 5b3a 423c d13f a0bc 61cb 39bb
000001a0: 81df 7fbc 6232 efbc 1a9b b53c 945b 42bd
000001b0: 5f85 d53c 70a6 8bbc b2ff 9ebd b71c 30bc
000001c0: b101 aabc ef39 983c 6962 3e3b 0ba1 163d
000001d0: fff4 ca3c 6dc5 7a3c aa4b 87b9 9d49 83bb
000001e0: 9d38 153d bae3 683b b6ef 1a3d 46d1 083d
000001f0: 31e4 0a3e 1d6b d7ba 0dc6 ac3c 986d fa3d
00000200: dcf5 09bd 0b6a 0dbd f3be c7bc 7e9a 88bc
00000210: c524 173c 12d8 6dbc fd8d e6bb ff59 60bc
00000220: 3674 963d ee82 10bd 1c94 5d3c c1b2 4aba
00000230: a2f0 ab3c bb11 6bbc ec98 50bd ec22 073d
00000240: 0859 02b9 ce8c 12bd 2826 9bbd 4181 d2bc
00000250: 8efa 713b 0648 0cbd 7b00 ebbb a60a b83c
00000260: a77e c6bc 713d e7bd 091a 7cbd a59b 5b3d
00000270: 7d13 7f3d 4718 ae3c 501d d6bc 16f8 b5bc
00000280: 845b 41bd 38ad 2fbd 4839 9cbd ae13 a63d
00000290: fb72 ea3c 5577 dd3c e7ca 3bbd 18d3 adbc
000002a0: ce85 f0bc 541a 20bd 5d6b 973d 4fba 4ebd
000002b0: e998 adbc e58f 90bd 388b 2dbd 2bec b4bd
000002c0: 283b 983b 0ea2 233d 4bc4 6d3d 4f9a 7abc
000002d0: 3b27 7bbd b6f0 85bd bd2c ccbd b2b3 5aba
000002e0: 3d46 933c a7cb 60bd 609b 77bd f249 61bc
000002f0: 1cf4 48bd a166 083d 5a79 0abc 72de 453d
00000300: 9984 703d ef05 8cbb 569a 1e3d ab61 d13d
00000310: fa20 2fbd af87 4fbc e842 36bb 35fe 88bd
00000320: a91c 143c 163a c73d f2ff 193b b570 6ebd
00000330: dc2f 3b3d 76dd f43d 388c 6f3d e654 f5bc
00000340: 1a02 a23d 5cd7 b13c 17bc 4e3c 8106 19be
00000350: aeb5 ab3c 190d 5b3c 9c2c 953d 6d4a 973c
00000360: 1bde cebc 5744 6a3d 0fd8 9c3c 772b fb3b
00000370: 5afa 7b3d 3ff8 e2bc 7522 173d d987 4abd
00000380: 420f e2bc 656c a73d 38a7 9fbc cb43 d9bc
00000390: 154e 6dbd aab2 e63c 02f1 b23a 3562 693d
000003a0: 2e33 f43b e55c 04bc dff0 a33d 0d9d 31bb
000003b0: 4ccc 1cbd 555a bebd afeb 2c3d 5a11 c9bb
000003c0: 75fb 883d f79f 8a3d df0f 11bc 4dfa 16bc
000003d0: eb11 4dbb 05ef 003d 36ac fe3d 5530 d9bc
000003e0: 3176 b9bd 5dcb d4bc 92b9 c63b cb2a 4fbb
000003f0: 0afc d13c fe63 d93b a239 933d 0452 42bd
-0.0015418523 -0.076892294 0.012521736 0.023745717 -0.034773882 -0.07569426 0.061400272 0.009912565
-0.042323433 0.055571914 0.015965048 0.08648756 0.047879774 0.022581464 -0.08283145 -0.029914506
-0.04903328 0.02628115 0.04169684 0.026565835 0.023135802 0.018712636 -0.024497682 0.065150835
-0.07801333 -0.045127194 -0.040799484 0.029490475 -0.00044377294 -0.0074966596 -0.03200116 0.030165073
-0.019148167 -0.06291366 -0.026794884 0.03975905 0.0027240915 -0.07544682 0.05461803 -0.029177992
0.0067220484 0.029721387 0.028338253 -0.039687987 -0.03375586 -0.014828253 -0.0864052 0.05181717
-0.016677262 -0.08664907 -0.013982245 0.021774076 -0.05784801 -0.0049706874 -0.026213756 -0.0043670777
-0.0107782 0.025935605 -0.01066869 -0.018118463 0.06813924 -0.097154886 -0.0680104 0.0016258482
0.03564293 0.030067297 -0.04659863 -0.03963508 0.026634088 -0.08289697 -0.061382174 0.066742264
0.021140922 0.067570016 0.11760673 -0.044933926 -0.09012857 -0.04023995 -0.017124686 -0.031967763
0.026056027 -0.030945424 -0.06838504 -0.012737435 -0.031153211 -0.01538789 0.0341715 0.014975667
-0.04739106 0.004325932 0.024669548 -0.0015238196 0.004077124 -0.045533236 -0.0048906105 0.025327893
0.02185073 -0.013547849 -0.014603086 0.004074136 0.07649199 0.011854733 -0.01956168 -0.0028349983
-0.015617252 -0.02919883 0.022168685 -0.047450617 0.026064573 -0.017047137 -0.07763614 -0.010749034
-0.02075276 0.018582312 0.0029050356 0.036774676 0.024775026 0.015305859 -0.0002580558 -0.004006578
0.036430944 0.0035536126 0.037826262 0.033402704 0.1356361 -0.001643512 0.021090532 0.122279346
-0.033681735 -0.03452496 -0.024383044 -0.01667523 0.009225075 -0.014516847 -0.0070359693 -0.013693332
0.07346384 -0.035281114 0.013524082 -0.0007732325 0.020988766 -0.014347489 -0.050927088 0.03299229
-0.00012430933 -0.035778813 -0.07575637 -0.025696399 0.0036923024 -0.034248374 -0.007171688 0.022466015
-0.024230314 -0.11291016 -0.061548267 0.05361523 0.062274445 0.02125181 -0.026137024 -0.022213023
-0.047206417 -0.042889804 -0.07628113 0.08109222 0.02861928 0.027034441 -0.0458478 -0.021218821
-0.029360678 -0.03908761 0.07393525 -0.050470646 -0.021191077 -0.07058696 -0.042369097 -0.08834108
0.004645724 0.03994947 0.058048528 -0.015295579 -0.06131671 -0.065400526 -0.09969471 -0.0008342817
0.017977828 -0.054881718 -0.06045091 -0.01375054 -0.049060926 0.033301 -0.008451784 0.048307844
0.058720205 -0.0042731683 0.038721405 0.10223707 -0.04275606 -0.012666627 -0.0027810875 -0.06689111
0.009040036 0.09727876 0.0023498503 -0.058212955 0.04569994 0.11956303 0.058483332 -0.02994771
0.07910557 0.021709137 0.012618086 -0.14943887 0.020960655 0.013369822 0.07283899 0.018468106
-0.025252393 0.05719408 0.019145994 0.0076650935 0.06151805 -0.027706264 0.036898095 -0.04944596
-0.027595166 0.081749715 -0.019488916 -0.026521584 -0.057935793 0.028161366 0.0013652148 0.056978423
0.00745239 -0.008078788 0.08004927 -0.0027101666 -0.03828077 -0.09294573 0.042216953 -0.0061361017
0.066885866 0.06768792 -0.008853882 -0.00921495 -0.0031291198 0.031477947 0.124351904 -0.026512304
-0.09055746 -0.025975877 0.006064602 -0.00316112 0.025632877 0.0066342345 0.07188727 -0.047441497

encoder.0.bias f4 [96]
00000000: 4184 ccbc 977c e0bc c97e 62bc fb1f 793c
00000010: 1b1f 583c ecd5 3dbd 8051 fd3b 02af 5dbd
00000020: ebe1 3a3d 3859 8b3c 6fb0 bc3b 1f37 963d
00000030: 1dba 163d 6d00 813c 2239 6cbc f04e 8bbd
00000040: da86 08bc b12e 0ebd 39f9 18bd 45de f33c
00000050: 493b 873d 7d5d d3bc 21ea 7abd 8867 123c
00000060: c65c 4d3b d70c fd3b def8 06bd ca95 1dbd
00000070: a9a8 53bc 5cff 153b 2696 a53d 2bca 1bbd
00000080: a421 943c 7ab1 393d 7537 923d 9fba ccbd
00000090: 2a8e aa3a ad7c 48bd a8a6 89bc 7958 853d
000000a0: df04 fabb 8f94 c93c 8b0a b9bc 00dc a0bc
000000b0: cac6 9abd 23a7 49bb d9b1 33bc 3bc2 38bd
000000c0: 1059 c53c 29fd 173b 1ffe cabc cb6a d23d
000000d0: 19ce 113d 10c9 92bc 9346 30bd c886 38bd
000000e0: ec27 bb3d 802b fdbc f726 e1bc 5b6b 35bd
000000f0: ba5a a9bc 7fe7 24bd 84e5 d03d 8a99 a9ba
00000100: 9287 803d cf87 563d d7ee 85bd 3a9f 153c
00000110: 1c5e 4bbd 44cd 1abd 8d78 603d a831 853d
00000120: 82a4 13bd 49ae af3d f4ac 34bb 54d6 bf39
00000130: 2c27 8abc 8d70 8d3d 0423 27bd 5a2d 553d
00000140: 7090 01bd 5003 5e3d 86b5 b33d 79c4 5c3a
00000150: 0454 3cbd 896b 4e3c 1cb7 733d 9127 72bb
00000160: edeb f93c bc6d 093c 1e2b 3c3c 9000 24bd
00000170: 8f49 40bb f99e c9bd 688d bcbc 2e48 833d
-0.024965407 -0.027403159 -0.013824173 0.015205379 0.01319101 -0.04634659 0.007730663 -0.05412198
0.04562561 0.017010316 0.005758337 0.07334732 0.036798585 0.015747273 -0.014417918 -0.068021655
-0.008332932 -0.034712497 -0.037347052 0.029769072 0.066031046 -0.025801415 -0.06125844 0.008935817
0.0031335815 0.007722478 -0.032952182 -0.038472928 -0.01291863 0.0022887802 0.08085279 -0.0380346
0.018082447 0.04533527 0.07139484 -0.09996533 0.0013012339 -0.048947025 -0.0168031 0.065110154
-0.007629975 0.024606971 -0.022588035 -0.019636154 -0.07557447 -0.0030769787 -0.010967695 -0.045107108
0.02409032 0.0023191667 -0.024779378 0.102742754 0.03559694 -0.01791814 -0.043036055 -0.045050412
0.09138474 -0.030904531 -0.0274844 -0.044291835 -0.020673145 -0.040259834 0.10200027 -0.0012939435
0.06275858 0.05237561 -0.06539696 0.009132201 -0.049650297 -0.037793413 0.054802466 0.06503612
-0.03604556 0.08578164 -0.0027568908 0.00036590046 -0.016864382 0.06906233 -0.040804878 0.052045204
-0.031631887 0.054202378 0.08774857 0.00084216107 -0.04597856 0.012598881 0.0595008 -0.0036949853
0.030508006 0.008387979 0.011484889 -0.0400396 -0.002934072 -0.09844775 -0.023016647 0.064102516
