models/siamese_768x6.pt (torch, 19495 bytes, 2 tensors)

encoder.0.weight f4 [6, 768]
0.10075533 -0.008549126 -0.026283357 -0.00019486988 -0.058122065 -0.009184539 -0.07089253 0.00027063332
0.07568066 -0.020257326 0.00376305 0.021273741 0.04281033 -0.034494895 0.02571772 0.06888402
0.02053048 -0.02534919 -0.004452197 0.0299131 0.0411367 0.03835712 0.019033428 -0.00796588
0.0019624783 -0.048013974 0.016518513 0.08638585 0.03022562 -0.028294992 -0.03429513 -0.051791854
-0.04962139 0.022474352 -0.0423822 -0.05637232 -0.012429761 -0.008144825 -0.015168931 0.100679375
-0.019477597 0.021111473 -0.0078070303 -0.0019867371 -0.001291853 -0.036683414 0.020599104 -0.021293003
-0.006889935 0.07893302 -0.052306596 0.026721414 0.08121725 0.05904544 0.071533516 0.013976984
-0.060029913 -0.02065139 0.01358901 0.023156403 0.024776172 -0.03734479 0.009242168 0.008016026
-0.012993836 0.022175835 0.07719333 -0.08544883 0.012811784 -0.04158815 -0.069834106 -0.040760595
-0.010422195 0.017575594 -0.027419575 -0.023255555 0.0004397053 0.019807618 -0.08458313 0.0030398709
0.0817821 0.03237704 0.014674441 -0.042052135 -0.028025446 -0.033324797 0.104275666 -0.05795718
-0.016861852 -0.009288252 -0.0254603 0.014937144 0.0678866 0.014377583 -0.019526862 -0.06007899
0.06410978 -0.034275264 0.033976234 0.043368638 -0.020859445 -0.049158182 -0.035004035 0.060024858
-0.056987822 -0.07713811 -0.010674547 0.05180196 0.042491104 -0.021261813 0.12272663 0.02087356
0.08319948 -0.0051221605 0.03478131 0.0067878217 0.02879609 -0.0162235 -0.09264352 0.03855789
-0.04128885 -0.024798451 -0.010202316 -0.0077883783 0.00044718356 -0.047597706 0.04401995 0.05454264
-0.04714589 -0.0129374545 0.07105003 -0.039520912 0.02709362 0.09431525 -0.08971004 -0.0054031676
-0.02991518 -0.07460975 -0.01913634 -0.014327317 0.029919703 -0.0065071858 -0.07834817 0.012855597
0.010555475 -0.008800333 0.062104855 0.008498049 -0.031764288 -0.03636273 0.033313073 0.022040902
0.037681967 0.018132662 -0.06012397 -0.07088403 0.004315912 -0.02231335 -0.030967543 -0.03331725
0.0130031025 -0.039607823 0.03779036 -0.06272734 0.053909138 0.05368684 0.0014964507 0.026925422
0.0021751532 -0.020843977 0.008337618 -0.01612942 -0.053841036 0.0025986088 0.04758403 0.044132978
-0.016167516 0.0012766584 -0.04544621 -0.025368704 0.021257993 -0.025223853 0.02345733 -0.045281313
-0.004636013 0.04505134 0.01492448 0.022392433 -0.081987284 -0.0644832 -0.023674285 0.11058701
-0.13035181 -0.099379785 0.0983005 0.017090132 -0.035799988 -0.118385404 0.028711505 -0.04250972
0.039761625 -0.0048552337 0.0072825435 0.025702156 0.053120997 0.044354722 -0.040611554 0.008934014
-0.06085369 -0.092883006 -0.010142477 -0.10549059 0.003154895 -0.12277587 0.059585925 0.0063334624
-0.07726661 0.041768093 0.013483125 0.00983896 -0.030897971 0.01641522 0.007656865 -0.00825589
-0.07137659 0.04042537 -0.025353784 0.07332295 0.05267046 -0.009102904 0.062368553 0.07402966
-0.012222898 0.037569605 0.03813532 -0.109066166 0.06353054 -0.012133384 -0.04415986 -0.04114861
-0.078961596 -0.0022664347 -0.018326404 -0.020214358 -0.06367898 -0.04658061 -0.025805995 0.031319614
0.033471327 0.058585003 0.043768294 -0.026994001 -0.03947381 0.056452684 -0.06496002 0.004173845
00000000: cf58 ce3d a211 0cbc 3250 d7bc fc55 4cb9
00000010: 6711 6ebd c07a 16bc 1a30 91bd cae3 8d39
00000020: 76fe 9a3d b1f2 a5bc 819d 763b 4546 ae3c
00000030: e259 2f3d 854a 0dbd f8ad d23c 1113 8d3d
00000040: 8a2f a83c 1ba9 cfbc bce3 91bb 510c f53c
00000050: f57e 283d 5b1c 1d3d feeb 9b3c 5383 02bc
00000060: ec9c 003b 4daa 44bd d551 873c 11eb b03d
00000070: b89b f73c e6ca e7bc 0d79 0cbd b223 54bd
00000080: cc3f 4bbd 221c b83c f598 2dbd a9e6 66bd
00000090: 32a6 4bbc df71 05bc 1c87 78bc fd30 ce3d
000000a0: 7b8f 9fbc f8f1 ac3c 1ed2 ffbb eb33 02bb
000000b0: 6553 a9ba 5941 16bd 74bf a83c aa6e aebc
000000c0: f7c4 e1bb a3a7 a13d 713f 56bd dee6 da3c
000000d0: 3b55 a63d a2d9 713d 2a80 923d b8ff 643c
000000e0: ede1 75bd 1b2d a9bc 70a4 5e3c 7fb2 bd3c
000000f0: 66f7 ca3c daf6 18bd 766c 173c a655 033c
00000100: 19e4 54bc 19aa b53c 8917 9e3d ccff aebd
00000110: 84e8 513c 5658 2abd 2f05 8fbd 95f4 26bd
00000120: dbc1 2abc b1fa 8f3c 049f e0bc 6f82 bebc
00000130: 3f88 e639 9643 a23c ec39 adbd 9238 473b
00000140: 607d a73d c99d 043d 116d 703c dc3e 2cbd
00000150: 9f95 e5bc 957f 08bd 7b8e d53d 8264 6dbd
00000160: de21 8abc c12d 18bc 1e92 d0bc ecba 743c
00000170: 2108 8b3d f48f 6b3c ccf6 9fbc 6315 76bd
00000180: fd4b 833d 3864 0cbd aa2a 0b3d 50a3 313d
00000190: 6de1 aabc 175a 49bd 6460 0fbd a0dc 753d
000001a0: 106c 69bd 96fa 9dbd 4ce4 2ebc 4b2e 543d
000001b0: 270b 2e3d 412d aebc 1958 fb3d 07ff aa3c
000001c0: 7d64 aa3d ccd7 a7bb d976 0e3d 606c de3b
000001d0: c7e5 eb3c 25e7 84bc e3bb bdbd e1ee 1d3d
000001e0: 7f1e 29bd 1f26 cbbc 9d27 27bc a735 ffbb
000001f0: f673 ea39 d0f5 42bd 434e 343d 1a68 5f3d
00000200: 0c1c 41bd 9ef7 53bc ae82 913d aee0 21bd
00000210: 70f3 dd3c 5b28 c13d e6b9 b7bd 0e0d b1bb
00000220: ae10 f5bc ffcc 98bd d0c3 9cbc 1fbd 6abc
00000230: 2a1a f53c 3b3a d5bb 0175 a0bd 48a0 523c
00000240: dff0 2c3c 462f 10bc a961 7e3d 673b 0b3c
00000250: 451b 02bd 16f1 14bd 4a73 083d 1f8f b43c
00000260: 6858 1a3d f38a 943c 8d44 76bd a52b 91bd
00000270: 7e6c 8d3b 7dca b6bc a5af fdbc ab77 08bd
00000280: f70a 553c d03b 22bd 11ca 1a3d 3177 80bd
00000290: d4cf 5c3d bbe6 5b3d 8e24 c43a b492 dc3c
000002a0: 048d 0e3b fdc0 aabc 819a 083c d821 84bc
000002b0: 6b88 5cbd 6c4d 2a3b 79e7 423d c8c4 343d
000002c0: bd71 84bc 8c55 a73a ce25 3abd 07d2 cfbc
000002d0: 3e25 ae3c 41a2 cebc 9629 c03c e678 39bd
000002e0: b2e9 97bb c187 383d ce85 743c 5670 b73c
000002f0: f3e8 a7bd c50f 84bd 93f0 c1bc 717b e23d
00000300: f27a 05be a187 cbbd c651 c93d 9b00 8c3c
00000310: 02a3 12bd 0c74 f2bd 6434 eb3c ac1e 2ebd
00000320: 16dd 223d a718 9fbb 67a2 ee3b 548d d23c
00000330: 6795 593d 4cad 353d 4d58 26bd f85f 123c
00000340: b841 79bd 7239 bebd a22c 26bc 730b d8bd
00000350: 5bc2 4e3b ea71 fbbd 5f10 743d ef88 cf3b
00000360: f53d 9ebd 0515 2b3d 53e8 5c3c 9733 213c
00000370: be1d fdbc 3679 863c 70e6 fa3b b643 07bc
00000380: e42d 92bd 1395 253d bdb2 cfbc 582a 963d
00000390: fbbc 573d 5924 15bc 2b76 7f3d dd9c 973d
000003a0: 8d42 48bc 96e2 193d c833 1c3d 155e dfbd
000003b0: 4d1c 823d 1acb 46bc f8e0 34bd 728b 28bd
000003c0: 9eb6 a1bd 7788 14bb 4121 96bc 9598 a5bc
000003d0: 206a 82bd 4fcb 3ebd 1867 d3bc ff48 003d
000003e0: 3b19 093d d4f6 6f3d 6246 333d 8622 ddbc
000003f0: 4aaf 21bd ee3a 673d c209 85bd c0c4 883b

encoder.0.bias f4 [6]
-0.0155359 0.001341546 -0.012633499 -0.0042504403 -0.004201599 -0.007925482
00000000: 4a8a 7ebc d0d6 af3a bcfc 4ebc 4747 8bbb
00000010: 91ad 89bb e1d9 01bc
