models/siamese_768x2.pt (torch, 7207 bytes, 2 tensors)

encoder.0.weight f4 [2, 768]
000000 a7 80 55 3d 32 89 a2 bd fc 56 09 bd 6c 66 ab bd
       0.052124646 -0.07936324 -0.03353022 -0.08369145
000010 89 ef 9d 3c c0 a4 20 3c 9b c3 10 bd 4a c2 07 3d
       0.019279258 0.009804904 -0.035342794 0.033144273
000020 05 7b 16 3d ae 89 80 bc e7 7b bb bc 6f 33 18 3c
       0.036738414 -0.01569065 -0.02288623 0.0092896065
000030 25 d8 1a bd fc 50 0a 3d 21 9a b6 3d 76 83 a7 bc
       -0.037803788 0.03376864 0.089161165 -0.020448428
000040 25 71 57 3d e7 8d 4b bd 11 dd 55 bd 7b cb 7a 3b
       0.052598137 -0.049695875 -0.05221278 0.0038268256
000050 7e 2f 12 bd 7b b7 85 bc 62 79 9a 3d fe 91 97 bc
       -0.035689823 -0.016322842 0.07542683 -0.018502232
000060 7d 49 56 3d 34 3b 7b bc 28 48 c0 bb 49 40 ce bc
       0.052316178 -0.015333939 -0.0058679767 -0.025177138
000070 78 23 e0 bc 8a b9 d0 3c 10 31 2b 3c 11 82 28 bd
       -0.027360663 0.025479097 0.010448709 -0.041139666
000080 e7 db f9 3c ab 00 af bd 05 2a 01 bd f9 4b 85 bd
       0.030500365 -0.08545049 -0.031534214 -0.06508631
000090 61 3d 30 3d fc 20 a8 bc 63 15 b7 3d 7d e7 e2 3c
       0.043027285 -0.02052354 0.08939626 0.027698273
0000a0 17 c2 67 3c 5a c9 8b bd 47 a9 cf 3c 4d 8a e8 bb
       0.014145396 -0.06825514 0.025349272 -0.007096565
0000b0 3e 40 04 bd 43 53 ab 3b 39 c4 18 3d a1 01 42 bd
       -0.03228783 0.0052284314 0.037296508 -0.047364835
0000c0 56 df 1a 3c a8 a4 53 bd 44 66 ce 3b d8 11 25 bc
       0.0094526615 -0.0516707 0.006298812 -0.010075055
0000d0 ef e5 0b 3c da 5d 10 3c a6 d2 d1 3d 98 16 dc bb
       0.008538707 0.008811438 0.10245256 -0.0067165606
0000e0 68 58 83 3d 8a d3 91 bc b7 55 3c bc a6 e0 81 3d
       0.064133465 -0.017801065 -0.011495045 0.063416764
0000f0 e1 26 bb bc af e7 23 bd a9 81 6c 3c 62 71 ee 3b
       -0.022845687 -0.040015873 0.01443521 0.0072767
000100 85 27 75 bc ed f5 87 bb 83 ed c1 bb e0 cc 99 bd
       -0.0149630355 -0.0041491897 -0.005918206 -0.0750978
000110 c3 6d 03 bd 06 ac fd 3c 03 78 a5 3c da fa 1a 3d
       -0.0320871 0.030965816 0.020198828 0.037836887
000120 93 45 48 bc 1e ab 8b 3b dd fa a9 bc 0d 76 27 bc
       -0.012223619 0.004262342 -0.020749504 -0.010221017
000130 7d a1 af bc 83 84 27 3d 5f 9f 82 3d 17 c3 20 3d
       -0.021439308 0.040897857 0.06378054 0.039248552
000140 6a 36 d1 3d df f3 ff 3b 85 80 94 bc 58 dd 83 bc
       0.10215457 0.007811054 -0.01812769 -0.016096756
000150 22 3e 84 3c d6 56 9a bd cc 50 c6 3c e0 c5 1c 3d
       0.016142908 -0.07536094 0.024208449 0.038274646
000160 21 bb ee 3c 64 5f 1a bd 59 5d df bc da 18 8a bc
       0.029141964 -0.037688628 -0.027266191 -0.016857553
000170 70 52 92 3d 81 67 e6 3b cf 77 00 3d 3d 5a a5 3c
       0.0714463 0.0070313816 0.03136426 0.02018463
000180 1b c2 0a 3c 98 d1 19 3b d2 49 ab 3d 0c 1f 06 bd
       0.00846913 0.0023470875 0.083636895 -0.032744452
000190 35 a9 95 3a 67 3c 61 bc 8c 52 3f 3a 37 8f 70 3c
       0.0011418225 -0.013747311 0.0007298372 0.014682583
0001a0 d0 95 31 bc 3d 7c fd bc ac 04 1b 3d 19 86 09 3d
       -0.010838941 -0.03094303 0.037846252 0.03357515
0001b0 60 58 00 3d 9d e1 96 bd 6a 76 f6 3c bf 1e 3d 3d
       0.03133428 -0.07367251 0.030085761 0.0461719
0001c0 77 90 b1 bc 50 81 59 bd d1 58 07 3d 27 e3 fb bc
       -0.021675332 -0.053101838 0.033043686 -0.030747963
0001d0 fe ca c3 3b 99 0f 34 bd e8 64 92 bd 3c ce a2 bc
       0.0059751263 -0.043960188 -0.071481526 -0.01987373
0001e0 de 4a cd bd 3a aa 1e bd c8 2f 82 bd 64 28 39 bc
       -0.100240454 -0.03873656 -0.0635677 -0.011301134
0001f0 51 41 c9 3c 97 6c 38 3b af e4 99 3c 3c 44 04 bd
       0.024567278 0.0028140896 0.018785803 -0.032291636
000200 aa 60 98 bc 5c 27 7a bd 70 57 ee 3c ef 2d 6a bc
       -0.01860078 -0.061072692 0.029094428 -0.014293178
000210 2b a8 be bd c7 ab 0d 3d 7b 81 f7 bb 5d f8 25 3c
       -0.09309419 0.034587648 -0.007553277 0.010130015
000220 fd cb f0 3c 0e 5d ab bd fe c7 55 bb 00 02 0b 3a
       0.029394144 -0.08367358 -0.0032620425 0.0005302727
000230 43 07 55 bd 9b ac b2 3c 28 03 5c bc cb 45 5c 3d
       -0.05200888 0.02181082 -0.013428487 0.053777497
000240 4b a5 98 3c d7 95 42 bd 04 e1 6b bb 3f 97 05 bd
       0.018633505 -0.04750618 -0.0035992274 -0.032614943
000250 f1 39 d9 bc ce 21 85 bc 9c db e7 bc 65 ee 99 3d
       -0.026516886 -0.01625147 -0.02830296 0.07516173
000260 e8 49 73 bd ac b2 8e 3c b4 79 77 bd 5a ce e5 3d
       -0.059396654 0.017419182 -0.0604188 0.11220999
000270 0f 6d f4 bc 2b 7d cd bc 3f 3e ae 3c 7c 95 c2 3b
       -0.02983716 -0.025084099 0.021269916 0.00593823
000280 87 35 c9 3d 72 c3 a1 3d 1f ba 21 3d 3f cd bd bd
       0.09824663 0.07898606 0.03948414 -0.09267663
000290 98 8a 40 bd 69 8a a7 3b f9 5c 19 3d 2f d5 c7 bc
       -0.047007173 0.0051129353 0.03744218 -0.024393646
0002a0 0e a6 fb bb 66 6b 4d bd db aa 23 bd c3 21 e0 bc
       -0.0076797074 -0.05015125 -0.039957862 -0.027359849
0002b0 81 3c 93 3c 6a 77 d7 3c d9 c1 06 bc d1 f7 92 3b
       0.017973186 0.026302058 -0.008224928 0.0044851084
0002c0 74 6c 53 3c 10 cf 4b 3d 3f f9 cd bd b7 1e 46 bd
       0.012904275 0.049758017 -0.100573055 -0.048369136
0002d0 20 a7 11 3d a8 ab 8f 3d 0d 08 a7 3d 5d 0f 34 3c
       0.035559773 0.07015163 0.081558324 0.010989991
0002e0 00 f6 80 3d 53 4d c1 bd 3e 16 fb ba a3 4e f4 3c
       0.06296921 -0.094385765 -0.0019156409 0.029822653
0002f0 aa 35 00 3c d4 e1 9c bc 79 1f bf 3c d6 bf 58 3d
       0.0078252945 -0.019150652 0.023330437 0.052917324
000300 f2 d9 77 bd 21 b7 a8 3a 54 bf 1a 3c 23 3f 29 3d
       -0.060510583 0.001287196 0.00944503 0.041319977
000310 9a a7 16 bc 7b 9b 27 bc 2a 12 88 bc 49 bf 51 bd
       -0.009195233 -0.0102299405 -0.016610224 -0.051207814
000320 ab fe d9 bb d6 b3 1a 3d 90 fe 96 3d 55 71 1d 3c
       -0.0066526732 0.03776916 0.07372773 0.00960954
000330 36 56 b7 bd bf 43 e8 3c ad f0 79 bd ae f8 ac 3d
       -0.0895199 0.028352616 -0.061020542 0.084458694
000340 a6 25 45 3b 37 72 bc 3d 29 1f 5d bc 95 f1 a2 bd
       0.0030082255 0.09201472 -0.013496199 -0.07956234
000350 e5 7f 9d 3c f3 96 1a bd c5 ba e1 3b f1 04 09 bc
       0.019226024 -0.037741613 0.0068887197 -0.0083629945
000360 02 14 5b bd 56 88 3e 3d 48 08 82 bd 9d fc 32 3d
       -0.053485878 0.04651674 -0.06349236 0.043697942
000370 86 67 8b bc 93 6d 99 3d 71 a7 75 bc 56 6b 81 3d
       -0.017017137 0.07491603 -0.014993534 0.06319301
000380 40 e9 b7 bd cf e8 9d 3d 5b 56 11 bd 2c a5 cb 3c
       -0.08980036 0.0771042 -0.035482746 0.024859034
000390 5c 96 12 bd 09 28 ad bd 04 e1 15 bd eb 5c 9b 3d
       -0.035787925 -0.08454902 -0.036591545 0.07586082
0003a0 85 7b 15 3d 52 c2 ba bc cf 18 d6 bd d1 2c 7a bd
       0.03649475 -0.022797737 -0.104539506 -0.061077897
0003b0 21 d7 de 3c b1 36 c8 3d b6 5a b7 3c e9 2a 96 bc
       0.02720219 0.097760566 0.022382122 -0.018331008
0003c0 8d ea 54 bd 97 4b dc bb 6b 0e f1 bc bc 72 1a bc
       -0.051981498 -0.006722878 -0.02942582 -0.009426769
0003d0 e1 e0 e8 3b f5 b4 97 3c df 37 12 bd bf 79 d1 3c
       0.007106886 0.018518904 -0.035697814 0.025570748
0003e0 88 16 ca bd 55 f1 43 3c 41 36 bf 3d d0 45 6c ba
       -0.09867579 0.0119593935 0.0933652 -0.00090130884
0003f0 fd f1 32 bd 17 b6 9e 3d 48 84 a3 bb 86 c3 85 3d
       -0.04368781 0.07749575 -0.0049901344 0.06531434

encoder.0.bias f4 [2]
000000 e7 da 62 bc 40 19 d3 3b
       -0.013846136 0.006442219
