models/siamese_768x16.pt (torch, 50279 bytes, 2 tensors)

encoder.0.weight f4 [16, 768]
0.040545464 -0.05032984 -0.0063570905 -0.037431747 -0.05827639 0.045549333 0.011065492 0.042750046
0.038148683 -0.03110158 0.020057634 -0.027579533 -0.04698201 0.035983954 0.06339023 -0.014117597
-0.092608966 -0.007605077 -0.041148942 -0.053520396 0.04442543 -0.07633364 -0.047283363 -0.028163204
-0.012226561 -0.041906554 -0.046321265 0.017207736 0.01723053 0.032856848 -0.00019435669 -0.013802249
0.011294955 -0.047117796 -0.024652652 0.0065107737 -0.022655757 -0.011446885 0.020140873 -0.015562113
-0.021936284 0.045931812 0.0018061075 -0.004960878 -0.0070287976 0.016433135 0.04422413 -0.04713316
0.04494013 -0.028364949 0.016022675 0.020559322 0.010065076 0.010300403 0.018665805 -0.03248067
-0.012104187 0.060053755 0.039706882 0.018623954 -0.07799783 0.0035609563 -0.058141127 -0.02798357
-0.066305704 0.0368752 -0.051296175 -0.043911688 -0.035651367 0.042703785 0.040146694 -0.034800347
0.061352994 0.005488558 -0.05211676 0.025857493 -0.024131326 0.09675484 -0.09404907 -0.09267297
0.06839197 -0.025152078 -0.10229833 0.033902217 0.038600065 0.06603377 0.08842884 0.010235056
-0.027326567 -0.032943573 -0.017333431 -0.061816495 -0.06465905 0.07209713 0.018270126 0.0050666444
-0.07594842 -0.0054861056 -0.012951089 -0.057560347 -0.08735359 0.0370228 -0.060683217 0.008191175
0.09053442 0.0703336 0.010781201 0.01921557 -0.07586523 -0.057767462 0.040268976 0.011929621
0.0063064867 -0.020824889 0.024940277 0.030699637 0.004683664 0.01922014 0.049769323 -0.09189107
-0.050106205 -0.017970102 -0.022666818 0.0780454 0.0663976 -0.109600626 -0.033016633 0.01207155
-0.057908 -0.044451423 -0.025157005 0.026158478 0.009599733 0.010296947 -0.0033931984 0.008994505
-0.03203249 0.007291736 0.0005618987 0.057990264 -0.056622062 0.03865442 -0.0065027555 -0.03367632
0.04492795 -0.10322185 0.060453407 0.10155566 0.033020146 -0.11903321 -0.009393096 0.042214382
0.010059154 0.053540118 0.030462328 0.04570674 0.03918841 0.08924924 0.049179785 -0.03830071
0.012905418 0.07845959 -0.010676571 -0.010760386 -0.042807702 -0.016283955 -0.028998207 0.05521309
0.032206424 -0.13372721 0.082556844 -0.009951427 0.026986333 -0.0471452 0.002111439 -0.010805615
0.038326714 -0.0062629418 0.0020651247 0.038125325 -0.00654462 -0.053564355 0.010484075 0.021497207
0.007453784 -0.07632331 0.007859995 -0.050447967 0.014122056 -0.10543413 -0.050340887 0.009503021
0.08161974 0.0078442935 0.059172336 -0.0047269114 -0.015439562 -0.029346623 0.09178869 0.089028
0.037526574 0.060679227 -0.061672434 0.0838679 -0.040825732 -0.056398496 0.030179424 0.12463656
0.067239 -0.08799702 0.05052169 -0.031399876 -0.07601227 0.0025344882 0.0067816125 -0.08734058
0.0723966 -0.037386637 0.08145957 9.748997e-06 -0.004624299 -0.050895263 0.02218581 0.0040884153
-0.06390235 -0.048905626 -0.038308695 0.005771528 -0.05685932 -0.009995312 0.0038485464 0.022012971
-0.042372677 0.029576784 -0.011599049 -0.06240293 -0.09821883 0.017262492 -0.025752677 0.040845316
0.050410736 0.020481978 0.0013479843 -0.020593591 0.006814943 -0.065782525 -0.024909932 0.07740171
0.04216129 0.0715377 -0.052019097 0.0020875337 0.034073528 0.024811652 -0.032284394 -0.07877675
00000000: 0013 263d aa26 4ebd 244f d0bb 0852 19bd
00000010: 39b3 6ebd f091 3a3d 0a4c 353c ac1a 2f3d
00000020: cb41 1c3d bec8 febc e84f a43c 79ee e1bc
00000030: 3570 40bd e963 133d bdd2 813d 7e4d 67bc
00000040: c5a9 bdbd 0234 f9bb cb8b 28bd 3438 5bbd
00000050: 71f7 353d d054 9cbd 33ac 41bd 85b6 e6bc
00000060: ea51 48bc 35a6 2bbd 5ebb 3dbd 3df7 8c3c
00000070: 0a27 8d3c e794 063d 3acc 4bb9 d422 62bc
00000080: 7a0e 393c 97fe 40bd 5cf4 c9bc 5458 d53b
00000090: 9198 b9bc b78b 3bbc 79fe a43c 3cf8 7ebc
000000a0: b9b3 b3bc ff22 3c3d e9ba ec3a dc8e a2bb
000000b0: d451 e6bb c89e 863c 5d24 353d b30e 41bd
000000c0: 2413 383d 9c5d e8bc fc41 833c 066c a83c
000000d0: fde7 243c 06c3 283c 08e9 983c 730a 05bd
000000e0: a450 46bc edfa 753d afa3 223d 4391 983c
000000f0: 54bd 9fbd ef5e 693b 6425 6ebd cd3d e5bc
00000100: 49cb 87bd 730a 173d f01b 52bd bedc 33bd
00000110: 2b07 12bd 2aea 2e3d dc70 243d cf8a 0ebd
00000120: 474d 7b3d 5dd9 b33b 6278 55bd 18d3 d33c
00000130: 0faf c5bc 6727 c63d cc9c c0bd 53cb bdbd
00000140: 1711 8c3d bb0b cebc c981 d1bd 0ddd 0a3d
00000150: 1a1b 1e3d b73c 873d 2e1a b53d f0b0 273c
00000160: f7db dfbc d7ef 06bd d7fe 8dbc 4b33 7dbd
00000170: f76b 84bd a9a7 933d 3bab 953c 1806 a63b
00000180: d88a 9bbd cac4 b3bb ce30 54bc 66c4 6bbd
00000190: 70e6 b2bd 38a5 173d f78e 78bd 4734 063c
000001a0: 1c6a b93d 100b 903d a2a3 303c f969 9d3c
000001b0: 3b5f 9bbd 939d 6cbd 15f1 243d 7574 433c
000001c0: a5a6 ce3b f598 aabc 8d4f cc3c ce7d fb3c
000001d0: 6c79 993b 8e73 9d3c ebda 4b3d 6331 bcbd
000001e0: 2a3c 4dbd 0936 93bc c3af b9bc 44d6 9f3d
000001f0: 77fb 873d 4b76 e0bd 733c 07bd c0c7 453c
00000200: f030 6dbd b212 36bd 1016 cebc 4e4a d63c
00000210: 3348 1d3c 87b4 283c 6c60 5ebb b05d 133c
00000220: 8034 03bd 84ef ee3b 624c 133a 3387 6d3d
00000230: 89ec 67bd 1954 1e3d 1115 d5bb 2ef0 09bd
00000240: 5f06 383d fa65 d3bd fe9d 773d 6afc cf3d
00000250: 2240 073d afc7 f3bd 80e5 19bc fde8 2c3d
00000260: 26cf 243c e24c 5b3d 228c f93c fe36 3b3d
00000270: 0784 203d 4ec8 b63d be70 493d 35e1 1cbd
00000280: 3f71 533c 6caf a03d c9ec 2ebc 544c 30bc
00000290: 2157 2fbd ee65 85bc a68d edbc 1f27 623d
000002a0: e2ea 033d c9ef 08be 9013 a93d 4f0b 23bc
000002b0: 7112 dd3c 531b 41bd 1160 0a3b 090a 31bc
000002c0: 79fc 1c3d 5d39 cdbb 0b57 073b 4d29 1c3d
000002d0: 4074 d6bb 4c66 5bbd 66c5 2b3c e91a b03c
000002e0: df3e f43b 654f 9cbd 35c7 003c 87a2 4ebd
000002f0: 3260 673c d9ed d7bd 3f32 4ebd 8fb2 1b3c
00000300: 4028 a73d 5a85 003c b15e 723d 35e4 9abb
00000310: 37f6 7cbc 5468 f0bc b5fb bb3d 5054 b63d
00000320: 77b5 193d c88a 783d 3c9c 7cbd efc2 ab3d
00000330: e238 27bd 1c02 67bd d73a f73c 7441 ff3d
00000340: 9ab4 893d c837 b4bd d5ef 4e3d 289d 00bd
00000350: 52ac 9bbd a819 263b 4a38 de3b 9edf b2bd
00000360: ab44 943d bb22 19bd 46d4 a63d a08f 2337
00000370: 6e87 97bb 8d77 50bd 04bf b53c 1df8 853b
00000380: 3cdf 82bd 4451 48bd 94e9 1cbd 161f bd3b
00000390: 51e5 68bd 61c3 23bc e537 7c3b 8c54 b43c
000003a0: f98e 2dbd 034b f23c f009 3ebc 379a 7fbd
000003b0: f426 c9bd 126a 8d3c 47f7 d2bc 6b4d 273d
000003c0: 7d7b 4e3d d2c9 a73c d9ae b03a e4b3 a8bc
000003d0: e34f df3b fdb8 86bd ea0f ccbc ca84 9e3d
000003e0: 51b1 2c3d 5c82 923d fa11 55bd 01cf 083b
000003f0: af90 0b3d ce41 cb3c a43c 04bd b455 a1bd

encoder.0.bias f4 [16]
-0.011117054 0.0032236273 0.0028021846 -0.016223563 -0.010747915 -0.006723475 -0.0028501698 0.0010783473
0.001969989 0.012579042 -0.010423301 0.0031522415 0.008076604 -0.009264634 -0.021507459 -0.005585547
00000000: 4e24 36bc 7e43 533b dba4 373b 47e7 84bc
00000010: 0618 30bc 9950 dcbb eac9 3abb 5557 8d3a
00000020: ee1a 013b 5418 4e3c 7ec6 2abc d695 4e3b
00000030: bc53 043c b1ca 17bc 6930 b0bc f706 b7bb
