models/siamese_128x8.pt (torch, 5159 bytes, 2 tensors)

encoder.0.weight f4 [8, 128]
00000000: 36fc 003d 5f92 03be c77c c3be e088 2bbe
00000010: b84e a4be af50 013e 3c4e abbd 3fcf bb3d
00000020: 25f0 623d 5bcc 233e 06b0 cd3d 98f7 b53d
00000030: ad3e cb3d 526f 2ebd e374 dd3d e4fc d0bd
00000040: 6bcc de3e f695 be3d e271 d0bb 3bea f33d
00000050: 5682 e8bb 80f5 653d d962 e83d aa0a 5abe
00000060: 5b5a fabd 4b90 e7bc 062a 773e 0c78 ca3d
00000070: 6938 a6bd fe80 b53c caee 7f3e bd99 8bbe
00000080: 6c81 6a3e 9882 283c 5060 2dbd fd66 15be
00000090: 068a 66bc c595 873a 89f8 4b3e 1aad 203e
000000a0: 3de0 813c be31 24be f412 4e3d cd33 67bd
000000b0: f52c 14b8 302e e0bc c009 b63d 1b58 1f3a
000000c0: 658e 57bc 284b 4b3d 2d8b eabd 68b4 c13c
000000d0: db45 f5bd ff13 9a3d f844 b43d def9 ba3d
000000e0: 1950 263e a71d 0bbe 56cb f83b 6b1c 8f3c
000000f0: 74c3 123e 5fd0 b2bc be09 0a3e 3ca6 ccbe
00000100: 3f60 243e d0c8 b93d fe7a 15bc f5b6 f0bd
00000110: 3bf6 0abd 0819 9e3d 0392 453e fc57 e6bd
00000120: f701 e03d b842 963d f9dd 063e 5909 85bd
00000130: d60e 14be 917c 2cbe 07f9 49bd 220a 3e3e
00000140: 5a6a 373e 4bc4 b53d 2d66 113e 5cb9 12bb
00000150: 0f2a 9cbe 9b8b 443c 08d6 f73d b505 e73d
00000160: fda6 d6bd 6ab0 b93d 34ac 80bd 133d 9dbc
00000170: b6e4 b33d ca95 b9bc 799e f73d 941a e5bd
00000180: 021d 84ba b770 593d 2c7c 853e d8f2 b63b
00000190: 5711 f1bc 9adf babc ea08 b3bd c7cc fb3d
000001a0: a79f 753d 4738 06bd 13d9 5d3d 5eab bf3c
000001b0: 57f9 c9bd 13d7 263e a63f d13d 5711 81bc
000001c0: 4935 ff3c 839b 74bc 6dd7 093e 4527 353d
000001d0: d381 e5bd 043c 8bbb a128 99bc 5165 97bd
000001e0: 7962 6dbc c72f d7bd 27b6 10bb d44b 21be
000001f0: 452c cb3d 0209 30bd ffaf 80be 83c4 d63d
00000200: edb6 74bd f6e9 d33d 31e1 95be bb58 bfbd
00000210: c7c9 3a3d da3e 453b b670 1f3e b8cd 2abe
00000220: 9543 07be 2d58 e6bd 835c d6bc 1455 4e3d
00000230: 0c87 943d 53d2 463e 23dd 35be bf1b 033e
00000240: 9494 cf3d 1785 06be 794d efbd f9e1 af3c
00000250: 3785 69bc 8c74 5d3c a4cc 18ba 8b1e e83d
00000260: da44 b73d c4e2 b93d af5a 80be c328 9bbc
00000270: 7eb5 00be 0337 0f3d ede0 0abd 0315 35be
00000280: f9b3 843e ca56 35bd 7875 5abe 23f8 393e
00000290: 1173 7dbd 8e09 8bbd 8d6d 773b 58bc f83d
000002a0: 558d f7bd 243e 803d 0040 04bd fe3e 7fbd
000002b0: 5b6c 803d c396 80bd 78eb 483e 03fb 23be
000002c0: 6c82 81be 4535 55be f733 4bbd e1db 0c3e
000002d0: e58a 1bbe d711 2fbd b8ab aebd 57d4 adbd
000002e0: e25b 33bc 063d d6bc bab3 91bd d54c 4b3c
000002f0: 3671 023e da9e bbbd d483 f43d 003d 18be
00000300: 831c ef3c 3947 f53d f503 8f3d 1e01 d7bc
00000310: c2e4 7abd 0a40 063d 79d4 033e d035 82bd
00000320: 72a2 4dbd dfce 50be 2e14 c33c 54af 3a3e
00000330: 3b62 593e 7654 0ebd 0c8e e0bd 24a6 0e3d
00000340: 1a90 3abe 82cf 30be 4f6c bbbd 5c1b a63c
00000350: db60 37bc 8674 c53d 2104 5bbe 0862 5ebe
00000360: e3c7 64be fe31 983e 6b19 183d 0c77 2a3d
00000370: 4aea 90bd b9b4 ecbd 1eda e2bb e888 0ebe
00000380: 19a7 7a3d 666c 163e c88c 1fbe 47a9 0bba
00000390: 38f0 4e3e 0e7f f1bd 9e07 7b3c f21a 0c3e
000003a0: 08f5 5c3e ca20 28bc 20ed ec3d bca9 893c
000003b0: 59ad 4ebe f6da 153d e37a 59bd 3b3c 823d
000003c0: eab4 353c 26f1 d23d cc3a 06be 67d3 743d
000003d0: 942d 6a3e 8fb1 db3d 8667 5bbe 864c 453d
000003e0: 302f 8c3e 19d2 4d3d c7c0 0d3e 7c61 093d
000003f0: be84 263d 48f0 06be 7790 62bd b22b bbbe
0.031490527 -0.12848805 -0.38181135 -0.16751432 -0.32091308 0.12628435 -0.083645314 0.091703884
0.0554048 0.15995924 0.100433394 0.088851154 0.09924064 -0.042586632 0.1081331 -0.10204485
0.43515334 0.093059465 -0.006361232 0.1190991 -0.0070956154 0.05614233 0.11346979 -0.2129313
-0.12224265 -0.028267046 0.24137124 0.098861784 -0.08116228 0.022156235 0.24993435 -0.2726573
0.22900933 0.010285042 -0.04232818 -0.14590068 -0.014070993 0.0010344317 0.19919027 0.15691033
0.015853995 -0.160346 0.050311044 -0.056445885 -3.532782e-05 -0.027365774 0.088885784 0.00060784974
-0.013156508 0.04963222 -0.11452327 0.023645595 -0.119762145 0.07523345 0.08802217 0.0912969
0.16241492 -0.1358553 0.007592599 0.017469605 0.14332372 -0.021827875 0.13480279 -0.39970577
0.1605234 0.09071505 -0.009123562 -0.11753646 -0.03392623 0.07719618 0.1929398 -0.112472504
0.10937875 0.07336944 0.13170613 -0.064959235 -0.14458784 -0.16844393 -0.049309757 0.18558553
0.17911664 0.088753305 0.14199133 -0.0022388315 -0.30500838 0.011996175 0.1210137 0.112803854
-0.10481069 0.090668514 -0.06282845 -0.019194162 0.087838575 -0.022654433 0.12090773 -0.1118671
-0.0010079446 0.05308601 0.26071298 0.0055831484 -0.029427214 -0.0228117 -0.087419346 0.122949176
0.05996671 -0.032768514 0.054162096 0.023397144 -0.09862011 0.16292982 0.10217218 -0.015755339
0.031153338 -0.014929655 0.13461085 0.044226903 -0.11206403 -0.004249098 -0.018696131 -0.073923714
-0.01448881 -0.1050716 -0.0022081228 -0.15751582 0.09920553 -0.04297734 -0.25134274 0.104867004
-0.059744764 0.10347359 -0.2927337 -0.09343096 0.045602586 0.0030097277 0.1557034 -0.16680038
-0.13209374 -0.11247287 -0.02616716 0.050374106 0.07252321 0.1941617 -0.17760138 0.12803553
0.10135761 -0.13136707 -0.116846986 0.021470057 -0.014252952 0.0135165565 -0.00058288337 0.113339506
0.08948679 0.09076455 -0.25069186 -0.018940335 -0.12569234 0.034964573 -0.033905912 -0.17683797
0.25918558 -0.04427222 -0.21333873 0.18161063 -0.061877314 -0.06788932 0.0037754506 0.12145299
-0.12087504 0.062618524 -0.032287598 -0.062315933 0.06270667 -0.062787555 0.19621074 -0.16013722
-0.25294816 -0.20821102 -0.049610104 0.13755752 -0.15189703 -0.042741623 -0.085288465 -0.08487766
-0.0109472 -0.026152145 -0.07114358 0.012408455 0.12738499 -0.09161158 0.11939207 -0.1486702
0.0291884 0.11976475 0.069831766 -0.02624565 -0.061253317 0.032775916 0.1287402 -0.0635792
-0.050203748 -0.20391415 0.023813333 0.18230945 0.21228878 -0.034748517 -0.10964593 0.034826413
-0.18219033 -0.17266658 -0.091515176 0.020276718 -0.011192526 0.09641366 -0.21388294 -0.21717083
-0.22341876 0.2972564 0.037133615 0.04161744 -0.07075937 -0.115579076 -0.0069229743 -0.13919413
0.061194513 0.14689788 -0.15581048 -0.00053276535 0.20208824 -0.11791812 0.01532164 0.13682154
0.21577847 -0.010261724 0.115686655 0.016804568 -0.20183314 0.03658577 -0.05309571 0.06359144
0.011090497 0.10299902 -0.13108367 0.05977192 0.22868949 0.10727226 -0.2142621 0.04816868
0.2737975 0.050249193 0.1384307 0.033540234 0.040653937 -0.13177598 -0.055313554 -0.36556774

encoder.0.bias f4 [8]
00000000: 1068 2939 48ff 0e3b c214 933b ee03 dc38
00000010: 045b 363a 0c53 033a cbb2 c1bb 4e19 8e3b
0.00016155862 0.002181964 0.0044885585 0.000104911494 0.00069563114 0.00050096284 -0.0059112064 0.0043365126
