models/siamese_768x96.pt (torch, 296359 bytes, 2 tensors)

encoder.0.weight f4 [96, 768]
00000000: 68d0 8fbc 5929 683d 0985 203d f9db 073d
00000010: 18a9 793d 14b4 62bc 7509 8e3d 175b 40bd
00000020: c1b7 033d fb27 70bd d1f2 a4bc 72e0 7b3d
00000030: 0a3a 563d ac28 603d 0b03 8fbc 8de1 7a3c
00000040: 41e4 9bbd d871 b4bc ea88 92bd 7cbe 9b3d
00000050: 3366 90bc 3cf0 8fbb 7663 0f3d 941c cf3d
00000060: 4486 3ebd d796 acbb aacd 97bd e1ea 253d
00000070: 08ba 263c 747a a3bd d73a dbbd e480 ff3c
00000080: 6930 46bc a725 7d3c 77cc c4bc 7cdd 30bd
00000090: 4f4d b8bd db93 8f3d 3d96 f0bc 974b ab3c
000000a0: c400 033d 22fc 05bd 5f15 72bc 5098 543c
000000b0: 1b4b a93d 7499 9c3d bc55 be3d 21e5 8dbc
000000c0: 9cbf 1c3d c423 57bb 2ecd 5bbc 0967 dabc
000000d0: a277 0bbd c7f2 5bbc 8a6d 9e3c 26bd 083d
000000e0: fa67 143d 5d20 0a3d 697e 9fbc 33de 95bd
000000f0: f313 7cbc c178 30bd 1e38 233e 4573 b7bd
00000100: 6834 6e3c 7460 bc3b 3c59 d5bc fd77 89bd
00000110: 43fb 6d3d 7637 14bd a86e 8dbc f490 563d
00000120: 1303 00bd 012f 10bd de16 403d eccb e5bd
00000130: 27fb 963d aec2 ac3c 023b bf3d f00c 963d
00000140: 002f 6c3d 9bed a23d 5677 15be 0912 16bd
00000150: 01da 7e3d 50b9 f6bc 1720 88bc d3e5 54ba
00000160: 6018 f43a 5bd4 3abb 9694 c83b 054b 173d
00000170: 3047 273d 62fc 8abd 02bd 983d e35d 5dbb
00000180: a78b aa3c 9853 a93d 9027 8f3b 4854 bf3c
00000190: b96a 233c 1057 7b3c 36a9 73bd 802f 0f3d
000001a0: 6bcd a63a 8e48 9abd b611 c5bc 8d75 35bc
000001b0: d95f 3ebd 8df8 66bc 4c0a 66bc ab76 b7bc
000001c0: e006 633b 8018 a63d b8f0 143b 9d59 a6bd
000001d0: d124 14bd 7fd0 04bc d830 923d 6657 eabd
000001e0: 780b 87bd f1ba 29bd 22df 53bd 3388 1cba
000001f0: 36de 053d 2a55 86bc df1f 11bd a688 9abb
00000200: 0c65 173c 78c4 b93c 779d cfbc 1dbe 123d
00000210: b9e9 77bc 622d 95bd 50a2 c43b c4fb 9cbb
00000220: 858b 043c a1ca fdbc 3f4a 1a3b f724 7fbd
00000230: 0ca1 d0bc 60c5 fe3c c8d7 8c3d 3273 6ebd
00000240: 2253 b5bc 5932 383c 562c acbb 4499 063c
00000250: 592e b93c 0988 45bd 6f53 91bd bbd0 8a3d
00000260: 05cd 6dbb 21bf ccbc 514f 2f3d 2f0c 063c
00000270: ea59 673c 8358 673d c2ea 8abd 1353 b9bc
00000280: 92c8 443d e959 733c c137 803d 2a5f 2ebc
00000290: 0818 77bd b2c1 ba3b 15b7 5dbc 64d2 613c
000002a0: 550b 523c 70f2 6dbd 3014 24bb 3f1e ac3c
000002b0: 2455 073c 3bab e3bc 59c7 063e 891d 55bc
000002c0: 14e7 79bd a36d 29bc f466 5fbd 20f6 123b
000002d0: 79b2 4f3a 7016 5d3c 7375 9ebd 0166 4d3d
000002e0: 9ec8 24bd ab2e d0bd 0137 6bbb 11aa 8dbc
000002f0: dcf1 3fbd 2d38 a03d 5ed1 793c 1d42 883c
00000300: b759 4dbc 67a5 a43c fe14 803d cdc6 47bd
00000310: cd1b 463d 56b6 2e3d c05b 8f3d 92e5 70bd
00000320: c671 0cbd 665d 273d dd32 63bc de35 2f3c
00000330: 8da8 4e3d d4de 333c 08a9 5d3d ac1d 72bd
00000340: 29a2 2ebd d2c8 b73b 1306 733d d87c a0bd
00000350: 1239 11bd 0171 94bd 11ad 5c3c 9fc4 45bc
00000360: 23aa fdbd 30d1 edbc 249c 30bc 5016 9cbc
00000370: d6a7 003c b34f 853c 08f6 8a3d 6524 09bd
00000380: 4b07 993c 3f01 88bc 6363 07bd 8548 123b
00000390: 3050 afbc 8818 93bc 6be3 3b3c b03e c83c
000003a0: b122 41bd 92d8 d4bc 8a46 873d cdda 363d
000003b0: 9a81 40bc 307e ebbb 2339 c9bc 05e7 133d
000003c0: 736e e7bb 247a 483c 9678 a03d 8dc7 e73c
000003d0: 353c 313d 41b3 5bbd 06d6 c7bc af34 cdbd
000003e0: 4dd0 04bc 5aab ed3c 0602 40bd 4a4a c53c
000003f0: 7c28 18bd 93ec 0a3d 9c64 abbd a0d6 273b
-0.01755543 0.056680057 0.039189372 0.033168767 0.060952276 -0.013836879 0.069353975 -0.04696187
0.032157663 -0.05863188 -0.020135315 0.061493345 0.052301444 0.054726288 -0.017457506 0.015312565
-0.07611895 -0.022026941 -0.071550205 0.076046914 -0.017626857 -0.004392652 0.035006963 0.10112873
-0.046514764 -0.005267005 -0.07412274 0.0405072 0.010176189 -0.079823405 -0.10704582 0.03118939
-0.012096503 0.015450872 -0.024023278 -0.043179974 -0.089991204 0.07010623 -0.029368514 0.020910067
0.031983152 -0.032711156 -0.014775603 0.012975767 0.08266278 0.07646456 0.09293696 -0.017321171
0.03826867 -0.0032827714 -0.013415618 -0.02666046 -0.034049638 -0.013424582 0.019339342 0.03338351
0.036231972 0.03372227 -0.019469457 -0.07317772 -0.015385616 -0.04308391 0.15939376 -0.08957533
0.014538862 0.005748803 -0.026043527 -0.06712339 0.05810095 -0.036185704 -0.01726468 0.05238433
-0.03125293 -0.035201076 0.046896808 -0.11220536 0.07372122 0.021088924 0.09337427 0.073266864
0.05766201 0.07955476 -0.14596304 -0.036638293 0.062219623 -0.03011766 -0.016616864 -0.00081214047
0.0018622987 -0.0028507921 0.0061212284 0.03693678 0.040839374 -0.067864195 0.074579254 -0.0033777885
0.020818545 0.08267897 0.00436873 0.023355618 0.009974175 0.015340582 -0.059487544 0.03495741
0.0012726014 -0.0753337 -0.024056297 -0.01107539 -0.046478126 -0.014097345 -0.014040541 -0.022395452
0.003464155 0.08110142 0.0022726487 -0.08122561 -0.036167923 -0.00810635 0.071382225 -0.11442451
-0.06593984 -0.041438047 -0.051726468 -0.0005971223 0.03268262 -0.016398031 -0.035430785 -0.004715997
0.0092404 0.022676691 -0.02534364 0.035825837 -0.015131407 -0.07284047 0.0060007945 -0.004790755
0.008089905 -0.03098041 0.002354279 -0.06229111 -0.025467418 0.031099975 0.068770945 -0.058215328
-0.022134367 0.011242473 -0.0052543087 0.008215252 0.022605108 -0.048225436 -0.07095992 0.067780934
-0.0036285531 -0.024993481 0.04280025 0.008181616 0.014120558 0.056480896 -0.06783058 -0.02262262
0.04804284 0.014852979 0.06260634 -0.010642806 -0.060325652 0.00569936 -0.01353242 0.013783071
0.012820085 -0.058092535 -0.0025036447 0.021010516 0.008260045 -0.02779161 0.13161983 -0.01300753
-0.06101139 -0.010341081 -0.054541543 0.0022424534 0.0007923018 0.013494119 -0.077372454 0.050146107
-0.040230386 -0.10165151 -0.003589094 -0.017293008 -0.046861514 0.07823215 0.015247671 0.016633088
-0.012533597 0.020098401 0.06254004 -0.048773576 0.048366357 0.042654358 0.06999922 -0.058812685
-0.03428819 0.040860556 -0.013867107 0.010693995 0.05045371 0.010978419 0.05411628 -0.05911033
-0.042635117 0.0056086564 0.059331965 -0.07836312 -0.035454817 -0.07248116 0.013468997 -0.012070804
-0.12385967 -0.029030412 -0.010779414 -0.019053608 0.007852515 0.016273355 0.06785208 -0.033481974
0.018680235 -0.016602157 -0.033053767 0.0022321057 -0.021400541 -0.017956033 0.011467795 0.024443954
-0.047152225 -0.025982175 0.06605251 0.04464226 -0.011749649 -0.0071866736 -0.024563378 0.03610899
-0.007062727 0.012236152 0.078355 0.028293395 0.04327031 -0.053637747 -0.024394047 -0.10019814
-0.008106303 0.02901237 -0.04687693 0.024083275 -0.037147984 0.03391702 -0.08368799 0.0025610104

encoder.0.bias f4 [96]
00000000: be69 853c cd61 90bc d5fe 3f3a 50db 7abb
00000010: 6f70 69bb 53d2 52bc b7f8 0cbb cc41 0c3c
00000020: 043f ffb9 5554 07bc d10f abb9 db6f 133c
00000030: 0698 c73b 67de 81bb e7ed 283b 6588 263c
00000040: 4a4d 14bc e950 7c3b b5bb 8c3b 1488 3b3a
00000050: 576e 20bb d840 0cbc 9067 2cbc 826c 11bb
00000060: 2444 89ba 244e 40bc 2394 133c fedf 043c
00000070: efb9 7f3c 9183 793b 5137 f5ba 520c 81bc
00000080: 8453 e2bb 01c8 e93b 3f47 d2bb d7a9 bebb
00000090: e583 67bc f8ec 1c3c 1a97 24bb 23a1 f63b
000000a0: c9d3 d13c 76d1 e43a dc63 91bc 3871 4cba
000000b0: db70 473c d2df 613a 4343 26bc 9ee0 1dbc
000000c0: a22d 2fbc c9ed ca3a 6fac 0a3c 176a 963b
000000d0: 8eb9 863b 09ff 7cbc b20b 82bc 4bec 953b
000000e0: 25f6 b0ba 78ca 12ba 7b8a c639 8e4f 00ba
000000f0: 9541 cbbc b2d9 0e3c 32d8 82bb 72e7 c83b
00000100: 9a95 7fbb ffc1 fc3b 7a5f ea3a c801 19bc
00000110: 5274 a23b fee2 803b a744 d2ba c674 ee3b
00000120: 54f6 19bc 44b3 b2bb 174b 633b b60d 1dbc
00000130: daa9 213a ccbd 80bc 3a46 903c a11d 183b
00000140: 0ca7 c83b b4bc d73b 10df a63b af0d 5f3b
00000150: bf5d 583b b94d e5bb b57d dcbb 9666 feba
00000160: 5cd4 c7b9 ec14 a63a f746 42bc b75c 613c
00000170: 2097 043b 24b8 83bb dae1 a23b 513f 15bb
0.016285773 -0.01762476 0.0007324045 -0.0038277693 -0.0035619994 -0.012867528 -0.002151055 0.008560609
-0.0004868434 -0.008259852 -0.00032627446 0.008998836 0.0060911207 -0.00396328 0.0025776566 0.010164355
-0.00905163 0.0038500375 0.0042948374 0.0007153761 -0.002447983 -0.008560382 -0.010522738 -0.002218992
-0.0010472578 -0.01173738 0.0090074865 0.0081100445 0.015608295 0.0038072804 -0.0018708502 -0.015752945
-0.0069069285 0.007134438 -0.0064171846 -0.0058185863 -0.014130567 0.009577982 -0.0025114478 0.007526533
0.025613682 0.0017457444 -0.017747812 -0.00077988533 0.012172903 0.00086164207 -0.010147872 -0.009636072
-0.010692032 0.0015482242 0.008463963 0.0045902836 0.0041114753 -0.0154416645 -0.015874717 0.0045752875
-0.0013501091 -0.0005599628 0.0003786868 -0.0004894667 -0.024811545 0.008718895 -0.0039930576 0.006131106
-0.0038999082 0.007713556 0.0017881237 -0.009338804 0.004957714 0.0039333096 -0.0016042189 0.007277104
-0.009397108 -0.005453499 0.0034682208 -0.0095857885 0.00061669725 -0.015715502 0.017611612 0.002321102
0.006123429 0.0065837745 0.005092509 0.0034035256 0.0033014861 -0.0069977907 -0.0067288526 -0.0019409235
-0.00038114458 0.001267103 -0.01185774 0.013755015 0.002023168 -0.004019754 0.0049707713 -0.0022773335
