models/siamese_768x32.pt (torch, 99495 bytes, 2 tensors)

encoder.0.weight f4 [32, 768]
0.097905345 -0.031037774 -0.006627501 -0.031178385 0.05549708 0.043891322 0.012071207 0.07563284
-0.0033462788 -0.013215228 -0.014411775 0.04147458 0.052951515 0.06729288 0.010256392 0.0006000068
0.02434583 -0.04546259 0.055901416 -0.007976326 0.09171929 -0.010837799 -0.00759073 -0.030172413
0.083856694 -0.0580584 -0.044387348 -0.017110229 0.0019917155 -0.0035906937 -0.039014682 -0.044798274
-0.027795495 -0.064434096 -0.0042802664 0.04995748 0.013824406 -0.04960076 0.08285709 0.011295133
-0.022579689 0.046768863 0.04623854 0.0016320327 -0.039653532 0.014575281 -0.069884256 0.0019128106
-0.09289301 0.02074517 0.030050233 -0.06755949 0.04149841 0.04864608 -0.004338136 0.07092768
-0.054901052 -0.041052315 0.0030740718 -0.0104308715 -0.00015872059 -0.016288802 -0.12856866 0.03581594
0.020787822 -0.0549039 0.0077513657 0.032378674 -0.02202773 -0.0651243 -0.10286903 -0.014549676
0.022165755 0.0479942 0.1055836 -0.053668886 -0.029161742 -0.018144982 -0.045288626 0.021884542
0.014839162 0.03673535 -0.024655605 -0.0028845018 -0.10888999 -0.011981155 0.040025722 -0.093334794
-0.052381683 -0.018957146 -0.072546735 0.081956826 0.08999517 0.008720917 0.019647576 0.018835815
-0.017211387 -0.040849965 -0.043320544 0.0032395625 0.03980923 0.04172778 -0.03962294 0.06875155
-0.01830346 0.026517268 0.018055124 -0.016308652 -0.031150945 -0.0076476834 -0.032840714 0.028257756
0.09774592 -0.03075286 0.016147291 0.005172975 0.008375737 0.0084246555 -0.055821672 0.04849335
-0.08797642 -0.01053834 0.08175079 0.074291736 -0.017288053 -0.009618187 0.014871345 0.060175296
0.008559458 -0.02939578 0.009628182 -0.010994272 -0.06679414 -0.048451252 -0.08186372 -0.015520918
0.047282677 0.026380723 -0.024186516 0.040372185 0.0037753272 0.022233954 -0.029272653 0.008727348
0.0388463 -0.023189224 -0.07797159 -0.00018657312 -0.0064687934 -0.05519991 0.0017151671 -0.017478142
0.026021503 0.04870956 -0.0045735687 -0.07454574 -0.018345423 -0.033323057 0.039783984 0.053957652
0.019778436 0.025022792 0.06965942 0.002358614 0.04491846 -0.0023307996 0.028287249 -0.015538207
-0.05242807 -0.0032628276 0.033686537 -0.025966449 -0.006625105 0.054500423 0.064283095 -0.036701545
0.03145411 0.092617005 -0.04201601 0.030659378 -0.0117630055 0.06426713 0.00044778263 0.046166297
-0.088924274 -0.026070438 0.014227567 0.0007838787 -0.0069678696 -0.053122584 0.122687444 0.03480076
-0.008545491 -0.114273794 -0.01131274 -0.09702916 0.016118575 0.006439933 0.07943999 0.044548072
0.05419468 0.015750613 0.03294985 -0.03034438 -0.046450928 -0.09289885 0.012587022 -0.0036160625
-0.018551925 0.030398967 -0.059222627 0.016830152 -0.06517044 0.025918385 0.05212544 -0.0032631266
0.113099106 -0.039841115 -0.10771476 -0.022803526 -0.04219492 0.08351513 -0.002975604 -0.06591187
0.01349508 0.06585364 0.04942987 0.060106788 0.063186035 0.06681369 -0.04500684 -0.0034103119
0.015061421 -0.03803656 -0.025739579 0.08323752 -0.015095791 -0.029124655 -0.05325233 -0.0479525
-0.046077605 -0.06787607 -0.07925628 0.019993592 0.022685112 -0.041602585 -0.08467563 -0.050178777
0.011801146 -0.07738026 -0.024728945 0.06492055 0.04239668 -0.05475678 -0.0060385545 0.0072053294
00000000: 9982 c83d ee42 febc 822b d9bb d069 ffbc
00000010: e850 633d 63c7 333d 50c6 453c 64e5 9a3d
00000020: 3e4d 5bbb af84 58bc 5e1f 6cbc 40e1 293d
00000030: b0e3 583d d9d0 893d 6d0a 283c c649 1d3a
00000040: e870 c73c fb36 3abd e2f8 643d 23af 02bc
00000050: 53d7 bb3d 0691 31bc a9bb f8bb 232c f7bc
00000060: 0fbd ab3d a5ce 6dbd 82cf 35bd c02a 8cbc
00000070: 7187 023b d851 6bbb dccd 1fbd 657e 37bd
00000080: 61b3 e3bc 06f6 83bd 7a41 8cbb 37a0 4c3d
00000090: c37f 623c 2b2a 4bbd fab0 a93d 390f 393c
000000a0: 0af9 b8bc b590 3f3d a064 3d3d eee9 d53a
000000b0: be6b 22bd 29cd 6e3c 7a1f 8fbd 46b7 fa3a
000000c0: b13e bebd c6f1 a93c e82b f63c a15c 8abd
000000d0: 3dfa 293d 1d41 473d ec26 8ebb 8842 913d
000000e0: eddf 60bd 7926 28bd 5e76 493b 3fe6 2abc
000000f0: 3c6e 26b9 1870 85bc 81a7 03be bcb3 123d
00000100: 394b aa3c e9e2 60bd 2bff fd3b 809f 043d
00000110: 7f73 b4bc e45f 85bd ffac d2bd c461 6ebc
00000120: f594 b53c 9195 443d 373c d83d e8d3 5bbd
00000130: 9be4 eebc c9a4 94bc 9180 39bd 3647 b33c
00000140: f51f 733c ce77 163d 8dfa c9bc e909 3dbb
00000150: b701 dfbd 9b4c 44bc 03f2 233d 5026 bfbd
00000160: 2d8e 56bd 044c 9bbc 6293 94bd fbd8 a73d
00000170: 634f b83d 2de2 0e3c f4f3 a03c 914d 9a3c
00000180: e5fe 8cbc 4b52 27bd e270 31bd d74e 543b
00000190: 010f 233d c0ea 2a3d aa4b 22bd 9dcd 8c3d
000001a0: 23f1 95bc be3a d93c 57e8 933c b999 85bc
000001b0: 4430 ffbc 6b99 fabb fc83 06bd cf7c e73c
000001c0: 032f c83d 6ced fbbc 5347 843c 0f82 a93b
000001d0: 633a 093c 9107 0a3c 44a5 64bd f7a0 463d
000001e0: fb2c b4bd 00a9 2cbc f56c a73d 4426 983d
000001f0: ad9f 8dbc 9a95 1dbc f1a6 733c 5f7a 763d
00000200: f83c 0c3c 6bcf f0bc 86bf 1d3c 5221 34bc
00000210: 5ecb 88bd d274 46bd 2ba8 a7bd 734b 7ebc
00000220: 7bab 413d 631c d83c cd22 c6bc 4e5d 253d
00000230: 7b6b 773b fb23 b63c 34cd efbc 27fd 0e3c
00000240: 4c1d 1f3d 54f7 bdbc 92af 9fbd d7a2 43b9
00000250: 2cf8 d3bb 4d19 62bd 75cf e03a 522e 8fbc
00000260: 0c2b d53c ad83 473d e0dd 95bb 70ab 98bd
00000270: 2449 96bc c27d 08bd 88f4 223d b302 5d3d
00000280: 6306 a23c 99fc cc3c 99a9 8e3d fa92 1a3b
00000290: 6bfc 373d 54c0 18bb a9ba e73c f793 7ebc
000002a0: d1be 56bd 2ad5 55bb e5fa 093d 97b7 d4bc
000002b0: 6917 d9bb d63b 5f3d dba6 833d 5c54 16bd
000002c0: 06d6 003d fcad bd3d fb18 2cbd 6029 fb3c
000002d0: 9fb9 40bc 7c9e 833d 5ec4 ea39 df18 3d3d
000002e0: ee1d b6bd ac91 d5bc be1a 693c 367d 4d3a
000002f0: ba52 e4bb 1197 59bd 8e43 fb3d 3e8b 0e3d
00000300: 6302 0cbc 6108 eabd 1259 39bc 39b7 c6bd
00000310: 1a0b 843c 1306 d33b 6fb1 a23d 0a78 363d
00000320: 3efb 5d3d 6e07 813c 6cf6 063d c794 f8bc
00000330: 5443 3ebd c141 bebd cc39 4e3c 76fb 6cbb
00000340: 35fa 97bc 4107 f93c 6d93 72bd 63df 893c
00000350: 1478 85bd cb52 d43c 7c81 553d 2eda 55bb
00000360: 81a0 e73d 7030 23bd 8e99 dcbd 76ce babc
00000370: 95d4 2cbd fb09 ab3d 5a02 43bb cdfc 86bd
00000380: 781a 5d3c 46de 863d fa76 4a3d 8932 763d
00000390: ae67 813d 9ed5 883d 1859 38bd 8a7f 5fbb
000003a0: 2ec4 763c 39cc 1bbd cfdb d2bc 6f78 aa3d
000003b0: 5654 77bc d496 eebc 1d1f 5abd d769 44bd
000003c0: dfbb 3cbd 9c02 8bbd 1e51 a2bd 9ac9 a33c
000003d0: 21d6 b93c 7967 2abd 6b6a adbd 4388 4dbd
000003e0: 9859 413c 8b79 9ebd 5b94 cabc 11f5 843d
000003f0: 24a8 2d3d a548 60bd 11df c5bb af1a ec3b

encoder.0.bias f4 [32]
-0.0042037466 0.0027893255 -0.012770724 -0.008109227 -0.013524109 -0.010164076 0.00040695717 0.0008695469
0.010166636 0.008394481 -0.007459913 -0.0050878767 -0.003062375 -0.0068319 0.007434019 -0.0058570686
0.0055798045 0.0139549365 -0.010021525 0.008292469 0.013566802 -0.008049921 0.005144053 -0.020090526
0.0055890474 -0.010224033 0.004166616 -0.0070044464 0.012649337 -0.0023738462 0.0008060743 0.0037326498
00000000: 95bf 89bb 1ecd 363b 4c3c 51bc 90dc 04bc
00000010: 3994 5dbc 3a87 26bc de5c d539 4ef2 633a
00000020: f691 263c 0189 093c 4972 f4bb 34b8 a6bb
00000030: 20b2 48bb 22de dfbb 1299 f33b a7ec bfbb
00000040: cbd6 b63b 3fa3 643c 5331 24bc 23dd 073c
00000050: 4b47 5e3c d1e3 03bc 728f a83b e394 a4bc
00000060: 5424 b73b b482 27bc 1c88 883b 8e85 e5bb
00000070: 2a3f 4f3c 8892 1bbb bb4e 533a 799f 743b
