models/siamese_768x4.pt (torch, 13351 bytes, 2 tensors)

encoder.0.weight f4 [4, 768]
0	0xbca10436	-0.019655328
1	0xbdc9cffe	-0.098541245
2	0xbdfcbed8	-0.12341088
3	0x3cba12a8	0.022713974
4	0x3d55d3f2	0.05220408
5	0x3d1e5f5d	0.038665164
6	0x3d5c4a46	0.05378177
7	0x3d1b0c5c	0.037853584
8	0x3d1653fa	0.03670118
9	0x3d7480e6	0.05969324
10	0xbdab4828	-0.08363372
11	0x3d88b0a1	0.06674314
12	0xbb497ca3	-0.0030744455
13	0x3caab1a1	0.020836653
14	0x3da831fc	0.08212659
15	0x3caee085	0.021347294
16	0x3ddf4eb8	0.10903686
17	0xb960e161	-0.00021446265
18	0xbe09820c	-0.13428515
19	0xbc0e51d6	-0.008686503
20	0xba5163b7	-0.0007987576
21	0x3d0dea56	0.03464731
22	0x3dd37a32	0.10326041
23	0x3d4189fb	0.04725073
24	0xbbc837b9	-0.0061101583
25	0x3d22c078	0.039734334
26	0xbc37bf8e	-0.011215104
27	0xbcf060fd	-0.029343123
28	0x3daa6545	0.08320097
29	0xbe065669	-0.131189
30	0xbbf7c1b3	-0.0075609325
31	0xbc098c01	-0.008395196
32	0x3d0ece31	0.03486461
33	0x3d21d675	0.039511163
34	0xbd6d43d0	-0.057926
35	0xbd92d91f	-0.07170319
36	0x3be4a979	0.0069782105
37	0xbd8b00ce	-0.06787263
38	0x3da0cb34	0.07851258
39	0x3b9d801e	0.0048065325
40	0x3cdb4c44	0.026769765
41	0xbc90a23f	-0.01765549
42	0x3ca3c0d0	0.019989401
43	0xbc061254	-0.008183081
44	0x3da9daa4	0.082936555
45	0xbc8d2469	-0.017229276
46	0xbc126371	-0.0089348415
47	0xbdf19281	-0.117955215
48	0x3ca03cbd	0.019560212
49	0xbd3400b7	-0.043945994
50	0x3d4bb91b	0.049737077
51	0x3d4e3066	0.050339125
52	0xbcba0944	-0.022709496
53	0xbc251b9a	-0.0100773815
54	0x3c4914d3	0.012273031
55	0x3d100683	0.03516246
56	0xbb64a20d	-0.003488663
57	0xbccff4af	-0.025385229
58	0x3ba7c8d2	0.005120375
59	0xbd6a8cb6	-0.0572631
60	0xbd336dc3	-0.04380585
61	0xbd0e7a68	-0.034784704
62	0x3ccfa845	0.025348792
63	0x39c83e51	0.00038193402
64	0x3d838449	0.06421716
65	0x3d227cba	0.03966973
66	0xbd6eadf9	-0.058271382
67	0xbd4311ba	-0.047624327
68	0xbcb7a500	-0.022417545
69	0x3c1df6bb	0.009641345
70	0x3cd91d51	0.026503237
71	0xbcc57f03	-0.024108415
72	0x3d0b9947	0.034081724
73	0xbc9c11a8	-0.019051388
74	0x3d3e5f36	0.04647752
75	0x3d738b2c	0.059458897
76	0x3a633871	0.0008667773
77	0xbbf122ae	-0.0073588705
78	0x3d4861ab	0.04892127
79	0xbd43b93f	-0.047784086
80	0x3cc8c684	0.024508722
81	0xbcc8a240	-0.02449143
82	0xbabadd0b	-0.001425655
83	0x3c57fad8	0.013182364
84	0x3d3c0c1d	0.04590999
85	0x3cfe27fd	0.031024927
86	0x3cc193e7	0.023630096
87	0x3c443226	0.011974847
88	0x3d418c21	0.047252778
89	0x3b6eca3c	0.003643646
90	0x3d1d8ec1	0.03846622
91	0xbd96d6f6	-0.07365219
92	0x3c990c93	0.018682754
93	0x3d8df439	0.069313474
94	0x3d340751	0.04395229
95	0x3c3617a9	0.011114039
96	0xbb6bc318	-0.003597444
97	0xbd44e40f	-0.048069056
98	0x3cba8b7f	0.022771595
99	0x3c6e0d33	0.014529514
100	0x3dc3038c	0.09522161
101	0x3b3271af	0.0027228405
102	0xbd955eb2	-0.07293452
103	0x3c642b13	0.013926285
104	0xbd11069b	-0.03540669
105	0xbdde2bd2	-0.10848202
106	0x3d1d23aa	0.03836409
107	0xbbab51e4	-0.005228268
108	0x3cc2c4ba	0.023775447
109	0x3d653cf8	0.055966347
110	0xbd0a9d95	-0.03384169
111	0xbda25431	-0.079262145
112	0xbd5902b6	-0.0529811
113	0x3c9b0a70	0.018925875
114	0x3dc5c5e8	0.09656888
115	0xbd08e4ae	-0.03342121
116	0xbd945a5b	-0.072437964
117	0x3d77935f	0.06044328
118	0xbd186f2a	-0.03721539
119	0xbd7444cb	-0.05963592
120	0x3b4fcdb0	0.0031708293
121	0xbd1c8907	-0.038216617
122	0x3a53e59e	0.0008083227
123	0x3ca61de5	0.020277927
124	0x394e5daf	0.00019680591
125	0xbd92e377	-0.07172292
126	0xbc51498a	-0.012773881
127	0x3d1e2b00	0.038615227
128	0x3aa04c41	0.0012229757
129	0xbcc55e8a	-0.024092931
130	0x3d353cdb	0.04424749
131	0x3c4f7db4	0.012664247
132	0xbc0a4d0d	-0.008441222
133	0xbc065325	-0.008198534
134	0x3d1d1c74	0.038357213
135	0xbd02c94d	-0.031930257
136	0x3cbcd1b0	0.023049206
137	0xbbf5fddd	-0.0075070695
138	0xbbf274d7	-0.0073991823
139	0x3d352416	0.044223867
140	0x3cc02daa	0.023459274
141	0x3d50b943	0.05095793
142	0xbd9352a8	-0.071935
143	0xbd33ab5a	-0.043864585
144	0x3d36c481	0.044620994
145	0x3c7fe75a	0.015619123
146	0x3d4cec1e	0.050029866
147	0x3b4b87c7	0.0031056271
148	0xbd8262d2	-0.06366505
149	0x3d96c54b	0.073618494
150	0xbd50e8fd	-0.051003445
151	0xbd1c5972	-0.03817124
152	0xbd4de545	-0.050267477
153	0x3c5e4265	0.013565634
154	0xbca6a837	-0.020343883
155	0xbcc0f884	-0.023556001
156	0xbcce22b8	-0.02516304
157	0xbd833ddb	-0.06408282
158	0x3c8a87cc	0.016910456
159	0x3c9ddaa8	0.019269302
160	0x3d356f75	0.044295747
161	0x3cd9da68	0.026593402
162	0x3d304c51	0.04304153
163	0xbd653195	-0.05595549
164	0x3d0c14f9	0.03419969
165	0x3d112b65	0.035441775
166	0x3c8786a1	0.016543688
167	0xbd46d8c4	-0.048546568
168	0xbbada9c5	-0.005299779
169	0xbdb8e876	-0.090287134
170	0xbd0563cf	-0.032565888
171	0x3d4ee7a5	0.050513882
172	0xbca88aa4	-0.020573922
173	0x3d013f30	0.0315544
174	0xbd07021b	-0.032960992
175	0xbc7692b3	-0.015049624
176	0x3cd8bb19	0.026456403
177	0x3c5bfd69	0.013427117
178	0xbce883a4	-0.028383084
179	0xbc88fb77	-0.01672147
180	0xbc85de19	-0.016341256
181	0xbc755d73	-0.014975893
182	0x3cb92dcc	0.022604845
183	0xbd2b2a7a	-0.041788556
184	0xbcfd6bea	-0.030935246
185	0xbd6976a7	-0.05699792
186	0x3cebca23	0.02878291
187	0x3cad2e74	0.021140315
188	0x3d31ae2d	0.043378998
189	0xbd65ba64	-0.05608596
190	0x3b8fefa5	0.0043925815
191	0xbba52d75	-0.0050408193
192	0xbd0b85d0	-0.03406316
193	0xba203538	-0.0006111446
194	0x3c760016	0.015014669
195	0x3d2f57e1	0.042808417
196	0x3be0f9ef	0.006865732
197	0xbcae456e	-0.021273341
198	0x3ad3c300	0.0016156137
199	0xbd51ce95	-0.051222403
200	0x3d023f77	0.031798806
201	0xbcd8f5df	-0.026484428
202	0x3d59a2cf	0.053133782
203	0x3d4b2655	0.049597103
204	0xba683986	-0.00088586693
205	0x3b088792	0.002083276
206	0x3bb6b302	0.0055755386
207	0xbc44fdb0	-0.012023374
208	0xbcdb0863	-0.026737398
209	0xba9df20c	-0.0012050285
210	0xbcea74ab	-0.028620085
211	0xbdfb3d1b	-0.12267514
212	0xbcb6cc24	-0.022314139
213	0xbd56915d	-0.052384723
214	0x3d189741	0.037253622
215	0xbc911176	-0.017708521
216	0x3d5b1328	0.053485066
217	0x3aa08931	0.0012247917
218	0x3c22ac23	0.009928736
219	0x3d29f49b	0.04149304
220	0x3cfa2572	0.030535433
221	0x3cfd812d	0.030945385
222	0xbdfdc73f	-0.12391519
223	0x3bb51c93	0.005527088
224	0x3d523423	0.051319253
225	0xbb28c32d	-0.00257511
226	0xbca1de4f	-0.019759325
227	0x3ddd0d88	0.107935965
228	0x3c6a6ed9	0.014308655
229	0xbd1e188c	-0.03859763
230	0xbc2be37a	-0.010491246
231	0x3cd51044	0.026008733
232	0x3cdc275e	0.02687424
233	0xbd0ad4ed	-0.033894468
234	0xbdafcc60	-0.08583903
235	0x3c52e2b9	0.012871438
236	0x3d343ed2	0.044005223
237	0x3cf34fa9	0.02970107
238	0x3d55ac75	0.05216642
239	0x3c5678c8	0.01309032
240	0x3d1b4a9b	0.037912946
241	0xbd0666cd	-0.032812882
242	0x3ccbf5c4	0.024897464
243	0x3d17da30	0.037073314
244	0x3cfbb1a7	0.03072436
245	0xbbd88f1a	-0.006608856
246	0xbe14a5b5	-0.14516337
247	0x3b5b927a	0.0033504055
248	0xbd462462	-0.04837454
249	0x3cbe9120	0.02326256
250	0x3c8dd7fe	0.017314907
251	0xbd882e50	-0.066494584
252	0x3cfecb01	0.03110266
253	0x3dcebdb2	0.10094775
254	0xbcfa767b	-0.030574074
255	0x3ce334a9	0.027735071

encoder.0.bias f4 [4]
0	0xb856a083	-5.1171064e-05
1	0xbc1250ac	-0.0089303665
2	0x3c380c55	0.011233409
3	0x3bec1544	0.0072046835
