models/siamese_96x32.pt (torch, 13479 bytes, 2 tensors)

encoder.0.weight f4 [32, 96]
00000000: d787 4ebd e964 d8bc 99a3 293e 58cc 95bd
00000010: 3212 62bc 93cc 06be a04f 2fbd 0b2f 3d3e
00000020: 0b4f 9dbd a173 e93d 8fbe 763e 0fe3 81bd
00000030: aba7 18bd f4e8 27be 6535 553e b5e2 093e
00000040: 7c62 993d 8606 0f3d a8bc 0fbd 358a 9ebe
00000050: 9416 18be e9ac 9abe a3e8 473d eb28 8f3c
00000060: 4a26 603e a87f 5f3d afde 49bc 357b cc3c
00000070: 358c dabc 4454 483e 4500 4dbe 78f1 1bbc
00000080: c41c c9bd cb83 043e 6fbf ab3e 4639 51be
00000090: 2fbe c4bc e822 25bd 632f b93d 27df cabe
000000a0: f2fc 21be 56ea 9abd a148 e33d 6a76 443e
000000b0: c960 643e 17f1 9abc 7478 99bd fb95 9bbd
000000c0: 8ad0 e3bc 82e0 76be 5964 0dbd 05bb 0ebe
000000d0: 4cbb 3ebe 2a62 7a3d b249 46bd fa2f 83bb
000000e0: 763d fabd aad9 46bd 3ad5 e23c ebd2 dbbc
000000f0: fd4c 2dbd 2937 173e 5640 8ebe a07c a63d
00000100: ed4c 3ebe cc34 123c 6194 663e 9d4e c53b
00000110: b44a c63d 10d5 85be f8a5 0abe 7f07 64be
00000120: 1c92 203e bfb7 523d d0cb 0cbd c1c2 1abe
00000130: 8fdd 0b3e 4391 9f3d 3a60 96bd b299 863d
00000140: 563f 1ebe c7d5 b1bc cb97 6fbd 06f1 b1bd
00000150: 3b87 be3c 8fe1 bbbe 9bbe 003e e279 6bbe
00000160: a395 333e 7346 7bbe 2635 fcbd 89ef a2be
00000170: f405 ca3a 683a 92be f02b 8cbd 7ff5 aa3d
00000180: a74b 853e 6010 44be f33b 4ebc bb98 02be
00000190: 4826 aa3d 7c96 1d3e 4db0 a13d fd4d 003e
000001a0: ac30 85be 5079 81bd 1504 84be 522c f5bd
000001b0: ee58 183e 8098 923c aa59 76bd 51fd df3d
000001c0: d2d5 c2bd d12d a2bd 7a46 f9bd 29f7 3bbe
000001d0: 3928 283e f98c b63d 49f2 913c 18c0 043d
000001e0: 13a9 b039 24ed 333d 9599 2abc 5ab9 8bbd
000001f0: 0db0 68be 751d 3bbd 1b04 12bd 2662 8ebd
00000200: d68c 3abe e031 653e 7323 0fbe 1d2d 8ebc
00000210: 2630 d0bd 276f ff3c a371 09be 8f73 bbbe
00000220: c846 9cbe bf09 7fbe fb21 a43d 0386 ab3d
00000230: 7a45 3abe bb55 603c 7537 9a3e 5cb1 fabc
00000240: 7828 9b3d 7a82 aa3b 074c 30be a5e3 cabd
00000250: 5972 163d b19d edbd 48f1 10bc 6bf9 47be
00000260: 0442 6f3d 8f3b 313e 703c 8abe 029f 153e
00000270: a53f 01be 7a36 93be 865b bb3d 10be e53c
00000280: 02fe 00be 7874 f33a 3100 3dbe 5b0a 393e
00000290: eb81 673c 7e74 93bd 2f16 4abe a9d2 64be
000002a0: bb7d cc3d d259 88be 8e2e e5bd e4b5 a53d
000002b0: d1a7 12bd 43f2 f5be 3ef8 ce3c ab22 b3ba
000002c0: cf85 68bd 4b8f 4dbd 0f64 5c3e a664 78bd
000002d0: 19ed 243d f4ed 3ebd 16c5 c5be ed16 a4bc
000002e0: 50e7 d3bd 3721 a23d fb49 bdbd 5793 ecbd
000002f0: ba3c 7abe 93ba 163e 9e23 6c3d 5eff 453e
00000300: ff0e 40bd 5afc 40be c8e9 3ebe 8aae 0cbe
00000310: cee4 b63d 8253 533e 0604 a73c ab6d 5dbe
00000320: 2101 62bd 254c 51be 922b 45be d518 003e
00000330: 3a5c 91be 7aad d3bc f482 3dbe 0561 86bb
00000340: 0469 8d3d 911a 663e f8bc 363e 4537 513e
00000350: bf49 e13d 74b2 d6bc 2b66 8b3e 21c5 c73e
00000360: 6204 883d f62f 85bd 9d27 d73d 27d1 4f3d
00000370: adac f23e 86b7 8b3b 407d 483e b5db 6b3d
00000380: 6bb1 2ebe 013d 27be f61d 23bd 52f9 1bbe
00000390: 1360 acbc 872b 9dbe 9743 ddbd bd65 f7bd
000003a0: 372a d63c ba87 cc3d 4953 0f3c caae ab3d
000003b0: 291d 6c3e 835d 46be dfe6 32be fbee 8c3e
000003c0: 2e1e 84be 3788 1d3c b2b7 743a c744 1fbe
000003d0: 0325 793e a183 8f3c 8cb5 1ebc 0f37 f93d
000003e0: a902 473c ac11 053c 3565 a1bb bd37 723e
000003f0: bd43 fa3b ff5b 7abb 641f c6bd 14dd e7bd
-0.050422516 -0.026415305 0.16566314 -0.07314366 -0.013798283 -0.13163976 -0.042800546 0.18474977
-0.07681092 0.113990076 0.2409613 -0.06342136 -0.037269276 -0.16397458 0.2082115 0.13465388
0.074894875 0.03491833 -0.035092026 -0.3096482 -0.14852363 -0.30210045 0.048805844 0.017475566
0.21889606 0.0545651 -0.012321158 0.024961093 -0.026678184 0.19563395 -0.20019634 -0.00951802
-0.0981994 0.129409 0.3354449 -0.20432004 -0.024016468 -0.040316492 0.090422414 -0.39623377
-0.15819147 -0.07564227 0.11097837 0.19185796 0.22302546 -0.018913789 -0.07493678 -0.07596966
-0.0278094 -0.2410908 -0.034519527 -0.1393853 -0.18626136 0.061128773 -0.048410125 -0.004003522
-0.12218754 -0.048547424 0.027689565 -0.026833972 -0.04230975 0.14767136 -0.2778346 0.08129239
-0.18584032 0.008923721 0.2251754 0.0060213343 0.09682217 -0.26139116 -0.13539875 -0.22268485
0.15680736 0.051444765 -0.03437406 -0.15113355 0.13658737 0.07791378 -0.073425725 0.06572284
-0.15453848 -0.021708382 -0.05849437 -0.0868855 0.023257842 -0.36695525 0.1257271 -0.22995713
0.1753755 -0.24538593 -0.12314825 -0.31823376 0.0015413151 -0.28560185 -0.06844318 0.08347606
0.2603428 -0.19146872 -0.012587535 -0.12753575 0.08308083 0.15389436 0.07894955 0.1252975
-0.26013696 -0.06321967 -0.25784364 -0.11971344 0.14877674 0.017894983 -0.060144104 0.10936988
-0.09513439 -0.07918895 -0.121716455 -0.18356003 0.16421594 0.08913607 0.017815726 0.032409757
0.00033695306 0.043927327 -0.010412593 -0.068224624 -0.22723408 -0.04568239 -0.035648447 -0.06952314
-0.18217787 0.22382307 -0.13978367 -0.017355496 -0.101654336 0.031180931 -0.13422255 -0.36611602
-0.30522752 -0.24906062 0.08014294 0.0837517 -0.18190566 0.013692315 0.30120435 -0.03060215
0.07576078 0.0052035423 -0.17216502 -0.09906701 0.036730144 -0.11602343 -0.008846588 -0.19528739
0.058412567 0.17307876 -0.26999235 0.14611438 -0.12621935 -0.287525 0.09148316 0.02804473
-0.12596896 0.0018574139 -0.18457104 0.18070357 0.014130096 -0.071999535 -0.19735025 -0.22345985
0.09984919 -0.26631027 -0.1119052 0.080913335 -0.035804573 -0.48036394 0.025264855 -0.0013666948
-0.056768235 -0.050185483 0.21522544 -0.06064286 0.040265176 -0.04661365 -0.38626927 -0.020030463
-0.10346854 0.079164915 -0.09242626 -0.1155154 -0.24437228 0.1471961 0.057651155 0.19335696
-0.0468893 -0.18846264 -0.18643868 -0.13738456 0.0893036 0.20637324 0.02038766 -0.21623866
-0.055176858 -0.20439203 -0.19254902 0.12509473 -0.28390676 -0.025839556 -0.18506986 -0.004100921
0.06904796 0.22471072 0.17845523 0.2043124 0.11000394 -0.02620814 0.27226385 0.39017585
0.06641461 -0.065032884 0.105056025 0.050736573 0.47397366 0.004263821 0.19579029 0.057582576
-0.17059867 -0.16331865 -0.039823495 -0.15231827 -0.021041906 -0.3069727 -0.10803907 -0.12079952
0.026143176 0.09986825 0.008747884 0.08382948 0.23057999 -0.1937161 -0.17470883 0.27526078
-0.25804275 0.009614996 0.0009335234 -0.1555358 0.24330525 0.01751882 -0.009686839 0.12168705
0.01214663 0.008121889 -0.004925395 0.23654075 0.0076374696 -0.0038201807 -0.09673956 -0.11321464

encoder.0.bias f4 [32]
00000000: 7d3d 83bb 1978 d6bb bc9d cdbb 8b63 c5bb
00000010: 29dd 9bbb 61ea 45bc e50a 133a 2fcc 6f3a
00000020: 1984 1fbb cdd0 2bbc 8417 51bc 1adb 48bc
00000030: 2777 223c 65a0 273b f8cc d3b9 85eb 9bbb
00000040: c2c5 6bbb bc29 2b3b 9112 563b 5ad5 a4bb
00000050: 26ca 4d3a 0bff cc3a 08fc bf3b 6231 0f3a
00000060: fe10 333c 833e b83b 9612 cf3b a8d3 37bb
00000070: 3fce a239 084e a23c 6598 94bb 4be4 d03a
-0.0040051327 -0.0065450785 -0.006274907 -0.0060238293 -0.004756589 -0.012079806 0.00056092284 0.0009147552
-0.002434021 -0.010486794 -0.012761954 -0.012259269 0.009916103 0.002557778 -0.0004039777 -0.0047583007
-0.0035976027 0.0026117405 0.0032664875 -0.0050303163 0.0007850252 0.0015639974 0.005858902 0.00054623757
0.010929344 0.0056226864 0.0063193543 -0.002804974 0.00031052713 0.019812599 -0.0045347684 0.0015937177
