models/siamese_128x4.pt (torch, 3111 bytes, 2 tensors)

encoder.0.weight f4 [4, 128]
000000 ac 27 0f 3d c5 da ce 3d f6 cf 39 3e c7 d9 54 3e
       0.034949943 0.10100321 0.18145737 0.207862
000010 de e8 40 be 6f bf ee be b6 ab 17 3e cc 2d 12 3d
       -0.18838832 -0.46630427 0.14811596 0.035688207
000020 4f e1 1f be 18 f9 22 3e f4 02 0d bd be 93 4f be
       -0.15613292 0.15915334 -0.034426644 -0.20271203
000030 df b1 7b 3d 93 88 0e bc 1c 5b 78 be fe 53 82 be
       0.061448928 -0.008699554 -0.24253505 -0.25454706
000040 70 25 8c bd 54 1c a7 bd b7 86 17 3e e3 98 df bd
       -0.06843078 -0.081597 0.14797483 -0.10917833
000050 c4 b1 05 3b c6 35 32 be ad 7e da 3d a9 95 fa 3d
       0.0020400146 -0.17403325 0.10668693 0.12235577
000060 87 ce a9 3c e5 23 7f 3e f7 9a 0c bc 18 4f e1 3d
       0.020728363 0.24916036 -0.008581868 0.11001414
000070 aa 1e c9 be fe 1b 67 3d fe 17 a4 bd a9 ad e4 bd
       -0.39281207 0.05642318 -0.08012389 -0.111659355
000080 1d 04 fb bd 31 44 11 bd 53 92 8a 3c a3 b8 72 3d
       -0.12256644 -0.035465423 0.016915476 0.059258115
000090 49 27 10 3d 00 14 78 bd 54 95 30 3e b8 74 2e bd
       0.035193715 -0.06056595 0.17244464 -0.04259178
0000a0 9c 33 0f bd 61 a3 14 3d 54 8b 44 3e 69 64 f5 3d
       -0.034961328 0.036288623 0.19193774 0.11982042
0000b0 46 48 09 be bd 87 09 be 62 ff 20 3e b2 7c 1e 3e
       -0.13406476 -0.13430686 0.15722421 0.15477255
0000c0 48 03 b6 bc 20 65 48 be 2d 42 c0 3d e2 84 35 3d
       -0.022218361 -0.19569826 0.09387622 0.04431618
0000d0 41 c1 37 3d 4f f7 91 3d 73 94 aa 3d ed 6a a6 3d
       0.044862036 0.071272485 0.08329096 0.08125863
0000e0 98 aa 27 3e 79 1a 52 3d f6 2a 29 bd bb 85 b2 bd
       0.1637367 0.051294778 -0.041300736 -0.08716913
0000f0 e6 11 7c bb 72 44 6f bd 99 79 77 3d f6 04 df bd
       -0.0038462817 -0.058414884 0.0604187 -0.10889618
000100 43 67 a6 3e 4d 0c 17 3e 17 f5 88 3d d7 e1 98 3d
       0.32500657 0.14750786 0.06687372 0.074649505
000110 dc 6d 9b bc 6f f7 3c 3b da eb a6 be c2 b4 f8 bd
       -0.018973283 0.0028834005 -0.32601815 -0.12143852
000120 55 ff 94 bc dd 20 92 be 5f 11 81 bd 0f dd 0d 3c
       -0.018188158 -0.28540698 -0.063021414 0.0086586615
000130 e3 09 34 3e 03 47 d1 3d fa 5a 43 3e 07 cf ac bb
       0.17581896 0.102186225 0.19077674 -0.005273703
000140 7a ed c8 bc e3 c6 57 3d 19 39 85 3d 76 ca ad bd
       -0.0245273 0.052679908 0.06505031 -0.08485882
000150 33 d6 12 3e e7 a8 1c 3e ac 4a 63 3e 93 a8 86 3e
       0.14339523 0.15298806 0.22196454 0.26300487
000160 53 f3 3e 3e 85 83 fe 3c 36 05 4e 3e 3c ab f7 bb
       0.18647508 0.031068573 0.20119175 -0.0075582545
000170 45 fb 64 be 2e bf 09 be ad 09 0e 3e f3 7d 45 3e
       -0.22361477 -0.13451836 0.13870879 0.19286327
000180 e4 f8 a6 3b c8 c3 fc bd 3c 64 3f 3e 4d 0e fd 3c
       0.005095588 -0.1234203 0.1869058 0.030890608
000190 25 88 21 3d fd 9e 85 3d 9b 0e c7 3d 5d a4 92 3d
       0.03943648 0.06524465 0.09719583 0.07160256
0001a0 77 43 16 3d ef 7d c7 3d 65 60 76 be 14 54 8d bd
       0.036685433 0.09740817 -0.24060209 -0.06900802
0001b0 34 30 66 bc 22 a5 8a 3e d7 9d 5a bd 55 9b d0 3c
       -0.014049578 0.2707911 -0.053373184 0.025464693
0001c0 ed 73 ee 3d ef c4 08 be 13 48 cb bd 33 53 6b be
       0.11643205 -0.13356374 -0.099258564 -0.22980957
0001d0 81 e9 27 be 01 f7 18 3e 02 5a 84 3c 1e ef 77 3c
       -0.16397668 0.14937975 0.0161562 0.015132694
0001e0 da 42 04 3e 95 8c 21 be 04 4d 9f bd 0d 09 55 3c
       0.12916127 -0.15776284 -0.077783614 0.013002646
0001f0 32 b3 b1 bd 26 df 54 be 4c bf 1f 3e 72 05 44 3d
       -0.08676757 -0.2078825 0.15600318 0.047856756
000200 c2 de 11 3e 1d 53 e1 bd 2a 9b 87 bd c4 45 89 bc
       0.14245132 -0.11002181 -0.06621392 -0.0167569
000210 d9 6f 84 be b7 50 42 3e 51 c1 24 be a7 35 59 3d
       -0.25866583 0.18976103 -0.1608937 0.053029682
000220 8e ad 4f 3e 82 a6 01 3e 32 9a 56 bd 80 1b d4 3d
       0.2028105 0.12661174 -0.052393146 0.10356808
000230 c3 83 bd 3d 52 a5 53 bd e4 59 9d 3e 73 42 90 be
       0.09253647 -0.051671334 0.30732644 -0.28175697
000240 c9 68 d6 3d 7c 0f e1 bc b1 30 87 bd bc ba 1c be
       0.10469205 -0.027473204 -0.06601084 -0.15305609
000250 0b 03 64 3d db e5 b6 bd 6d f6 2f 3e 98 fd 5d 3d
       0.055666965 -0.0893056 0.17183848 0.054196924
000260 5c 59 69 be 80 43 29 bc bc 92 b7 3d bb 22 ac 3d
       -0.22787994 -0.010331035 0.08963534 0.08405062
000270 6a d3 1d bc 05 fc 5d be 69 ff 1c 3d 5f f3 96 3e
       -0.009632925 -0.21678169 0.038329516 0.29482552
000280 f1 da 52 be 7c 7b c3 bc dc 7e 22 3e 3b 61 0a be
       -0.20591332 -0.023862593 0.15868706 -0.13513653
000290 d0 5d 8c be 76 3c 12 bd e0 09 47 bd 39 8d 88 bd
       -0.27415323 -0.03570219 -0.048593402 -0.06667561
0002a0 44 ba 5a 3d 6a b1 11 be 37 37 81 3d 5a 6b 2c 3e
       0.053400293 -0.14227834 0.063093595 0.16837826
0002b0 ca 8c 1c be 04 20 53 bd 7a 5c 32 3c 96 59 37 3e
       -0.15288082 -0.051544204 0.010886306 0.17905268
0002c0 b1 fa 67 3e d5 9e 85 bd ba 39 e0 3b e2 b5 02 3c
       0.22654225 -0.065244354 0.006842819 0.007977935
0002d0 ff 72 8a 3d db 6d 9d 3e ba 8d e4 3d b4 c6 67 3e
       0.06760215 0.30747876 0.11159845 0.22634393
0002e0 bd 12 c3 3d 71 d8 10 be 46 4c cc bd 08 20 4a be
       0.095250584 -0.14145066 -0.099754855 -0.19738781
0002f0 c6 b3 0d be a0 2b bf 3d ba 22 7b be f6 7e c9 3d
       -0.1383811 0.09334493 -0.24524966 0.09838669
000300 43 db e6 3d 9d 6e 0f be 06 a7 a5 3d 09 f5 fe bc
       0.112722896 -0.1400704 0.08088498 -0.031122701
000310 e6 07 c4 3c 26 b3 0a 3d 9a e4 73 bd e8 c9 07 bd
       0.023929548 0.033862256 -0.059544183 -0.033151537
000320 69 3a 7b 3c 8e 4a aa 3d 4f 96 a8 3c 7b d9 88 3c
       0.01533375 0.083150014 0.020579485 0.016705265
000330 99 3e 54 be c9 7f 8e bd 9f 6f 07 3e b9 4a 1a be
       -0.20727004 -0.06957967 0.13226174 -0.15067567
000340 12 76 c2 3d 16 f5 ab bc 69 bc 04 bc 15 15 10 3d
       0.094951764 -0.02099089 -0.008101561 0.035176355
000350 4b 54 31 3c 27 f4 9c bd 6e 33 7f 3d e8 c7 95 3e
       0.01082332 -0.07663756 0.062304907 0.2925408
000360 9f a9 de 3d 25 1d 5d bd 80 8c f9 bd 07 1f f2 bd
       0.108721964 -0.053982873 -0.121850014 -0.11822324
000370 00 b6 40 3d e8 ca 8e 3d 62 48 81 3d 78 10 98 3d
       0.04704857 0.06972295 0.06312634 0.07425016
000380 23 26 48 3e 8a 1a 65 3d 1a 43 c6 3d e2 6b 31 bd
       0.19545798 0.055933513 0.09680767 -0.043315776
000390 05 2d b4 bd 36 c8 9c bc 25 44 15 be 23 55 da 3d
       -0.08797649 -0.019138437 -0.14576776 0.1066077
0003a0 f9 f4 08 be a3 ee 13 bd 12 46 8b bd 0d aa 2a 3e
       -0.133747 -0.036116254 -0.06800474 0.16666432
0003b0 87 4b fa 3c d2 7e 1e be 21 6e 4b bd 03 58 db bd
       0.030553592 -0.15478066 -0.049665574 -0.10710146
0003c0 54 1c 06 3d e4 22 ba 3d 11 3e 01 3e 37 d5 aa bd
       0.03274186 0.09088686 0.12621333 -0.08341449
0003d0 fb f3 58 3d bf a8 aa bd 2d c6 9c bd bd f9 0c be
       0.052967053 -0.08332967 -0.076549865 -0.13767143
0003e0 8c bf 9c be cf e8 9f bc 5b 7d 2f be 8d 19 ff 3c
       -0.3061489 -0.019520191 -0.17137663 0.031140113
0003f0 64 ea 14 bd 54 26 a9 3d af 54 30 be a0 9a d8 3d
       -0.036356345 0.08259264 -0.17219804 0.105763674

encoder.0.bias f4 [4]
000000 c1 72 af 3b 39 2d 0c bb cb 16 df 3b 25 09 d3 3b
       0.005354256 -0.002138926 0.006808137 0.006440299
