models/siamese_768x64.pt (torch, 197927 bytes, 2 tensors)

encoder.0.weight f4 [64, 768]
000000 1a 08 27 3c 72 00 da bc 5b 31 13 3d 34 a7 a6 3c
       0.010194803 -0.02661154 0.03593574 0.0203434
000010 e8 c7 81 3d f4 c9 fd 3d 37 03 1f bd 31 d2 91 3c
       0.06336957 0.12392035 -0.038821425 0.017800422
000020 c1 74 55 bc c5 cf 6a 3d c7 a4 bc 3b a7 78 b0 bb
       -0.013028325 0.05732705 0.0057569477 -0.0053854766
000030 d3 5f 08 3c a6 de 28 3d 38 7c 0c 3c 97 a0 ae 3d
       0.0083236275 0.04122796 0.008574538 0.08526724
000040 a4 0c 0e bd 8d ed f0 bc dd f8 d8 3c 27 b4 8c 3b
       -0.034680024 -0.029410148 0.026485855 0.004293937
000050 83 b2 46 3d 5f 46 65 bc 28 ba ed bc 6e fd 36 3d
       0.048510086 -0.013993829 -0.02901943 0.044675283
000060 c5 0b 88 bd e4 d4 57 3b cb b0 43 bd d5 fd e0 3c
       -0.0664287 0.003293329 -0.047776025 0.027464787
000070 de 48 5e 3c 00 a2 07 3d 31 7f 7d bd 03 b9 bb 3d
       0.013567178 0.03311348 -0.061888877 0.091661476
000080 0e 16 07 bd 86 ce 57 bb c7 6e 94 bb 87 e5 65 3c
       -0.032980017 -0.0032929494 -0.0045298073 0.014031774
000090 1b cd b3 bc 9a 0a f0 b9 89 df 14 3d df fa f8 ba
       -0.021948388 -0.00045784266 0.036345992 -0.0018995664
0000a0 fb da 52 bd 7f 19 c6 3a bf 16 aa bc a0 83 fb 3c
       -0.051478367 0.00151138 -0.0207628 0.030702412
0000b0 46 4f d0 bb 07 30 b9 3d 91 54 88 bd 22 5b 4a 3c
       -0.0063571064 0.090423636 -0.06656755 0.012350829
0000c0 28 2c 0f 3d fd 40 e1 3c 4f f5 d5 bd 60 b4 c5 3d
       0.03495422 0.02749681 -0.104471795 0.096535444
0000d0 00 11 9f 3d 44 38 90 3c 11 d3 00 3a 00 fb 9f bd
       0.07766914 0.017604955 0.0004914264 -0.07811546
0000e0 f4 ba 40 bc b6 90 15 3c 83 04 9e bd 87 58 2e bd
       -0.011763323 0.00912874 -0.07715704 -0.042564895
0000f0 69 62 c3 bc 18 b9 8f 3c 0f d9 a6 3c 1c 22 9a bd
       -0.023850637 0.017544314 0.020367173 -0.07526037
000100 4d c8 aa bc 59 a0 7a 3d e7 87 f8 3c 5d 8f 41 bd
       -0.020847464 0.061188076 0.03033824 -0.047255863
000110 76 11 5d 3c 78 0a f5 bc b8 15 31 bd 79 93 2b bd
       0.013492933 -0.029912218 -0.043233603 -0.041888688
000120 3c c0 18 bc 44 41 01 3d 8e ac 49 bd 4e 0f e4 bc
       -0.009323176 0.031556383 -0.049236827 -0.02783933
000130 bf b4 78 bd 82 5e 62 3c 96 26 1c 3d 99 53 0f 3d
       -0.060719248 0.013816478 0.038122736 0.034991834
000140 eb 3d 15 3d 53 ea 29 3d 2f 5f a2 bc 32 fb 27 bb
       0.036436003 0.041483235 -0.019820778 -0.0025631902
000150 38 21 e1 3c 24 75 88 bd 62 33 af bc 31 4c ff bb
       0.02748166 -0.06662968 -0.021386806 -0.007791065
000160 e7 1f b9 3c b6 20 fe 3c 9c 24 35 3c fa f8 e1 bc
       0.02259822 0.031021457 0.011056092 -0.027584542
000170 86 84 8d bd 5a fa f9 3c 8f 16 7d bb 17 6f 19 be
       -0.069100425 0.030514885 -0.0038618182 -0.14983784
000180 01 ed 6b 3d cc d0 4e bd 34 ca ed bc fc 9f a2 3d
       0.05759907 -0.050492093 -0.029027082 0.07940671
000190 37 ba ee bc 62 70 a9 bd 8c 75 e7 bc cb 52 bf 3c
       -0.029141529 -0.082733884 -0.028254293 0.023354908
0001a0 9a 4c 50 bd c3 e6 5b bd 2c 11 f3 bc be a9 c4 bc
       -0.050854303 -0.05368687 -0.029671274 -0.02400672
0001b0 73 f6 a5 bd 0f 76 9a 3a c8 71 7d 3d cc 6d 6c bc
       -0.08103647 0.0011784452 0.06187609 -0.0144304745
0001c0 3e 63 be 3c 46 74 2d bd 65 1c 6f 3c 29 d7 26 3d
       0.023240682 -0.042347215 0.014594172 0.040732536
0001d0 dc 5b 54 bd e1 1b a4 bc f8 50 db 3c e8 33 ad bc
       -0.051845416 -0.020032825 0.026772007 -0.021142915
0001e0 32 1b be 3c a6 af c5 bc 0e 63 41 bd d1 2f 4e bd
       0.023206327 -0.024131607 -0.047213607 -0.05033857
0001f0 60 7a e3 bd ed 9f 5c bd 9a b6 52 bd c7 75 e7 3c
       -0.111073256 -0.053863455 -0.051443674 0.028254403
000200 10 b1 bb 3b 04 e1 a3 3d 7b 32 1f bd 75 0f 4c bd
       0.0057278946 0.08001903 -0.0388665 -0.04981943
000210 94 7e 08 3d 35 17 b8 bc 72 f8 91 bd 25 ab 13 bd
       0.03332384 -0.022472003 -0.07127465 -0.036051888
000220 8d 22 8d 3b d1 31 43 bd c2 ff 68 bd 80 ec 1b bd
       0.0043070973 -0.04765493 -0.056884535 -0.03806734
000230 06 1b a8 bd 28 b2 11 bc b8 fa 84 3c 9a b6 9a bc
       -0.08208279 -0.008892573 0.016232833 -0.0188859
000240 fc 25 91 bd 0b 0e d1 bc 02 4f 50 bd 16 b1 83 bc
       -0.07087323 -0.025519392 -0.050856598 -0.016075652
000250 38 6b 54 bc 8a 7a 70 3c e4 07 3b 3c 65 9d 9e bd
       -0.012965016 0.014677653 0.0114154555 -0.077448644
000260 bf 38 29 bd 42 f9 0c 3d f9 5f 13 3d 92 ca c1 bb
       -0.041313883 0.0344174 0.0359802 -0.005914041
000270 4e c6 eb ba 8c 9e 83 3a 9d 4a 19 3d 48 9e 0c 3d
       -0.0017988177 0.0010041757 0.037424672 0.034330636
000280 6d 4b aa bc c9 db e5 ba 05 f0 3a 3d a5 86 93 bd
       -0.020787919 -0.0017536815 0.045639057 -0.07203416
000290 d5 4a 90 3d b4 d9 bb 3d e2 b7 6f 3c 70 fd b4 3c
       0.07045523 0.09172383 0.014631243 0.022093505
0002a0 1c 7e 6d bc 40 3b d3 bd e3 a2 92 3c 0c ed 53 bd
       -0.014495399 -0.103140354 0.017899936 -0.051739737
0002b0 cf 42 88 3d 5c ec 19 3d 57 76 05 bc d4 0f fe 3c
       0.06653368 0.037578925 -0.00814589 0.031013407
0002c0 0b f9 9c bc ee 58 81 3c a6 6e c8 3a f7 ee 56 bd
       -0.019161722 0.015789475 0.0015291765 -0.05247399
0002d0 68 8d f7 bc 7b 49 99 bb 92 d0 4e 3d 1c 9d cd 3d
       -0.030218795 -0.004677949 0.050491877 0.10039732
0002e0 37 b2 74 3c 1c 30 a6 bd 17 c8 5b 3d d7 bf b4 bc
       0.014935068 -0.08114645 0.053657617 -0.022064133
0002f0 57 fe 49 bd 74 e3 fa bd 0f 2a 8b bc 0f ea 1c 3c
       -0.049314823 -0.122504145 -0.016987829 0.009577288
000300 ea 6e 7f 3d 74 be fe bc 5e 4f 44 bd b6 d6 15 bb
       0.062361635 -0.031096675 -0.047927253 -0.0022863573
000310 d4 25 74 3c 09 2e 0e bd 44 fa 12 3d 1e 19 a3 3d
       0.014901597 -0.03471187 0.035883203 0.07963775
000320 13 66 6b 3d dd 2c 5b ba fb 2f ff ba 20 14 5e 3d
       0.057470392 -0.0008360872 -0.0019469255 0.05421841
000330 95 f4 64 bd 1a e1 07 3d 97 9a 30 3d 9e 14 12 bd
       -0.055897314 0.033173658 0.04311618 -0.035664193
000340 7e 10 30 bc 54 a2 e4 bc 30 f3 e3 bc 2a d4 a2 bc
       -0.01074612 -0.027909435 -0.027825922 -0.019876558
000350 c8 8f bb bc 48 fa 69 bc 1d 32 c5 bb af 3d 35 bd
       -0.022895709 -0.014280863 -0.006017937 -0.04424828
000360 dc f1 94 bd 86 d2 5d bd 79 53 43 bd 06 23 13 3c
       -0.072726935 -0.05415585 -0.047687028 0.008980518
000370 a9 bf aa 3d a9 fc 61 bd e6 b7 fc bc af 2c 2a 3d
       0.083373375 -0.055172596 -0.030849408 0.04154652
000380 ba cb a6 3c 1a e0 6d bc 40 c9 1b 3c 80 75 ca bc
       0.020360816 -0.014518762 0.009508431 -0.024714231
000390 9e 13 19 3d 37 3b 38 3c f3 db 18 bd 03 b1 78 bd
       0.037372224 0.011244587 -0.037319135 -0.060715687
0003a0 3f 78 97 3c c7 13 c9 bd 4b e0 0b 3c dd 6f 53 3d
       0.018489955 -0.09818225 0.008537362 0.051620353
0003b0 55 9f f3 bc 58 d3 25 bd c1 6c 30 bd e8 66 4e 3b
       -0.029739061 -0.040484756 -0.043072466 0.0031494442
0003c0 57 06 9d 3c af 26 03 bc 97 96 d0 b9 5f 18 75 bd
       0.019168062 -0.008004828 -0.0003978505 -0.059837695
0003d0 7b fc 11 3b bd 92 2e bd 66 b4 a6 3c 99 d2 4a bc
       0.0022275734 -0.04262041 0.020349693 -0.012379312
0003e0 79 2f d9 3a 58 05 46 3d da 18 cd bc 60 9f 92 bb
       0.0016569934 0.04834494 -0.025036264 -0.0044745654
0003f0 8f 0d 70 3d 22 e8 67 bd 32 6e d3 3d b1 2c e3 bc
       0.05860668 -0.056617863 0.103237525 -0.027731271

encoder.0.bias f4 [64]
000000 9a 49 3d 3a f9 8b 85 bb 2b e1 20 bc 75 be 10 3c
       0.00072207453 -0.004075524 -0.009819309 0.008834471
000010 8d 00 da 3a 3d 19 24 bc 61 ab aa bb a5 32 d0 ba
       0.0016632244 -0.010015783 -0.0052084182 -0.0015884234
000020 31 6c d7 bb 70 81 8e 3a c2 c4 20 3c 5b d9 1b bc
       -0.0065741767 0.0010872316 0.009812536 -0.009512271
000030 cc 5d dd bb 2c 9a 9f 39 88 6f 36 3c b4 0c 85 bb
       -0.006755566 0.0003044171 0.01113499 -0.004060352
000040 41 60 4c 3b 36 dc 85 bc f1 b8 b8 3b e8 a3 1c bc
       0.0031185301 -0.016340356 0.005637281 -0.009560563
000050 63 95 d0 3b 5c 7a 57 ba af 93 b1 bc 94 ed 92 bc
       0.0063654645 -0.0008219832 -0.021676866 -0.017935552
000060 a0 8e 2a 3b 3d cd 0d bc ce 83 c7 bb c6 79 75 3b
       0.0026024953 -0.00865489 -0.0060887104 0.0037456616
000070 28 b1 27 bc e9 e8 cf 3b a2 49 e9 bb f7 55 0d bc
       -0.010235108 0.0063449037 -0.0071193734 -0.008626453
000080 73 55 06 bc 69 24 ad ba 2d 72 a0 bc 93 80 4c 3c
       -0.008199084 -0.0013209704 -0.019585693 0.012481826
000090 10 f9 50 3a 0b d3 60 3c 8f 98 32 3b 4e 0e cd bb
       0.00079716835 0.013722192 0.0027251577 -0.006257809
0000a0 f1 16 47 3b 07 f0 95 bc 3e ef f1 3b 9e 68 57 bb
       0.0030378664 -0.01830293 0.007383256 -0.0032868753
0000b0 a7 3c a7 3b ef 82 ae bb 7f d6 e3 3b 3a 29 17 bc
       0.005103666 -0.005325667 0.00695306 -0.009226138
0000c0 ea 31 8c 3c 5c e3 a2 bb 14 fa 90 bb da 3a ba bb
       0.017113645 -0.004970951 -0.004424343 -0.005683285
0000d0 db da 70 bb 13 89 58 bb 04 dc 16 3c df 0d 04 bc
       -0.0036751542 -0.0033040687 0.009207729 -0.008059948
0000e0 29 1c b2 3b 0c 64 d8 bb a2 98 58 3c e2 5c 74 bb
       0.005435486 -0.0066037234 0.013219984 -0.0037286808
0000f0 76 47 22 bc 79 13 81 3b 95 c1 42 bb 97 bf af 39
       -0.009904733 0.003939089 -0.0029717435 0.00033521347
