models/siamese_32x16.pt (torch, 3175 bytes, 2 tensors)

encoder.0.weight f4 [16, 32]
0	0x3f085886	0.53260076
1	0x3ce69fe0	0.028152406
2	0x3e3d67d6	0.18496642
3	0x3def81e2	0.11694695
4	0xbf545308	-0.82939196
5	0xbd0025de	-0.031286113
6	0x3db1a1a8	0.086734116
7	0xbe0066a2	-0.12539151
8	0xbe80ac78	-0.25131583
9	0xbe9c697b	-0.30549225
10	0x3e895b28	0.2682736
11	0xbeca0c76	-0.39462632
12	0xbd8b66ec	-0.0680674
13	0x3ddc1fcd	0.10748253
14	0x3eb5a4ab	0.35477194
15	0x3f038f67	0.5139069
16	0x3e8b499a	0.2720459
17	0x3edf9757	0.4367015
18	0xbcb9a02e	-0.022659387
19	0xbf2a0dfa	-0.66427577
20	0xbe3e2475	-0.18568595
21	0x3eaaf91b	0.33393177
22	0xbf03e16d	-0.5151585
23	0x3e3862e0	0.18006468
24	0xbe8ef804	-0.27923596
25	0xbe523589	-0.20528235
26	0x3ea7d77d	0.32781592
27	0x3deb0bac	0.114768356
28	0x3e3a7250	0.1820767
29	0x3ea51f47	0.32250425
30	0x3c9ff4db	0.019525936
31	0xbef43c09	-0.47702053
32	0xbea2ac6e	-0.31772178
33	0xbb14a028	-0.0022678468
34	0xbe80825c	-0.25099456
35	0xbf1ceedd	-0.61301976
36	0x3e426516	0.18983874
37	0xbef404eb	-0.47660002
38	0x3e155dca	0.14586559
39	0xbf17def8	-0.593246
40	0x3e127d7a	0.14305678
41	0xbf27e7a6	-0.6558784
42	0x3ec4759a	0.38370973
43	0xbea8a4c6	-0.32938212
44	0x3ead02a2	0.3379107
45	0x3e81cd6b	0.25352034
46	0xbe4d8f49	-0.2007419
47	0x3e7756f6	0.24154267
48	0x3d2f9a12	0.042871542
49	0x3c17d59b	0.009267236
50	0x3e28ec02	0.1649628
51	0xbe5da9c0	-0.21646786
52	0x3de9605e	0.11395334
53	0xbde667c5	-0.11250261
54	0x3d145dca	0.036222257
55	0xbdc13799	-0.094344325
56	0x3eae9857	0.341006
57	0x3e353e33	0.17699508
58	0xbed573c1	-0.41689876
59	0xbef8ac30	-0.4856887
60	0xbe959774	-0.29217112
61	0x3e8cddc8	0.27512956
62	0x3e921b51	0.28536466
63	0x3e948820	0.29010105
64	0xbc6a8bc3	-0.014315548
65	0x3cf2fc8f	0.029661445
66	0xbf3185bb	-0.6934468
67	0xbe387ce6	-0.18016395
68	0xbeb835ba	-0.3597849
69	0xbbe16ba8	-0.0068792887
70	0x3ec13f7b	0.37743744
71	0x3f79140d	0.9729622
72	0xbc9cb5ba	-0.019129623
73	0xbe619755	-0.22030385
74	0x3ef93343	0.48671922
75	0x3e31e49e	0.17372367
76	0x3ee763bf	0.45193288
77	0x3e14b7db	0.1452326
78	0x3e938e74	0.2881962
79	0xbe7f7e3d	-0.249505
80	0x3ed75abf	0.4206142
81	0xbea3179f	-0.3185396
82	0xbe0a2927	-0.13492261
83	0x3d7e7eea	0.062132753
84	0xbf0627fc	-0.5240476
85	0x3e22da87	0.15903674
86	0xbee5f68e	-0.4491467
87	0x3db4b324	0.08823231
88	0xbe8d8edc	-0.27648056
89	0xbe60ff46	-0.21972379
90	0xbe23f8d9	-0.16012897
91	0xbe38f4e2	-0.18062165
92	0x3e58ab93	0.211592
93	0xbe7552a6	-0.23957309
94	0xbe036b6e	-0.1283395
95	0x3e93efdd	0.2889394
96	0xbe8d0f84	-0.275509
97	0xbead1049	-0.33801487
98	0xbc822014	-0.015884437
99	0xbed8a9b3	-0.4231697
100	0x3e799ef8	0.24377048
101	0x3ec776d3	0.38957843
102	0x3ecc1ea7	0.39867136
103	0xbc5bd441	-0.0134173045
104	0xbf3a57fc	-0.72790504
105	0xbebd5f1c	-0.36986625
106	0x3e248cc2	0.1606932
107	0x3dae8b87	0.085227065
108	0xbe1179f8	-0.14206684
109	0x3d80ddf1	0.06292332
110	0x3f1b5282	0.6067277
111	0x3e65ca58	0.2244047
112	0x3ed164e3	0.40897283
113	0x3de506ba	0.111829236
114	0x3e45917b	0.19293778
115	0x3f01d8d7	0.50721496
116	0x3f0b78bf	0.5448112
117	0x3f02001e	0.5078143
118	0x3dbb57e7	0.091476254
119	0x3dae649a	0.08515282
120	0x3db8fb19	0.09032268
121	0xbe066e1c	-0.13127941
122	0x3d0ce8c0	0.034401655
123	0x3b09de7d	0.0021037154
124	0x3dee7480	0.11643314
125	0xbedbdaf7	-0.42940494
126	0xbd6854b7	-0.056721415
127	0xbeaa8610	-0.33305407
128	0x3e208140	0.15674305
129	0xbf1265a5	-0.5718635
130	0xbe9d3749	-0.30706242
131	0x3eb39d63	0.35081014
132	0xbe223f92	-0.15844563
133	0x3ef22e36	0.4730088
134	0x3e5585c0	0.20851803
135	0x3d25ce05	0.04047968
136	0x3e3109e0	0.17288923
137	0xbe22f81d	-0.1591496
138	0x3b490fdc	0.003067962
139	0x3eb3a42c	0.3508619
140	0x3ead9f88	0.33910775
141	0x3e1574cc	0.14595336
142	0x3eb93fe5	0.3618156
143	0x3e6c0502	0.23048785
144	0xbe5d6867	-0.21621858
145	0x3e2a1ab0	0.16611743
146	0x3e769e75	0.24083884
147	0xbe9066b7	-0.28203365
148	0x3d9ac7f2	0.07557668
149	0x3d80ef72	0.062956706
150	0x3e51bdc6	0.20482549
151	0xbf03eefb	-0.5153653
152	0xbe993a9a	-0.29927522
153	0x3f27b289	0.655068
154	0xbd9d4b50	-0.0768038
155	0xbeca7798	-0.39544368
156	0xbf475e4b	-0.77878255
157	0xbcac41de	-0.021027502
158	0xbec6c683	-0.38823327
159	0x3c7052d7	0.014668188
160	0xbe3d0fd7	-0.18463074
161	0xbe59294b	-0.21207158
162	0x3f211e83	0.6293718
163	0xbde9ab18	-0.11409587
164	0xbf6df688	-0.929543
165	0x3f17eae4	0.5934279
166	0xbea4f0ae	-0.32214874
167	0xbdbe2ec4	-0.092862636
168	0x3eed47e1	0.46343902
169	0xbee7b40a	-0.45254546
170	0x3e259974	0.16171819
171	0xbde2c4f3	-0.11072721
172	0xbe04596b	-0.12924735
173	0xbd0aeb0e	-0.033915572
174	0x3e0dce90	0.13848329
175	0x3e52f5c0	0.20601559
176	0xbb909062	-0.004411743
177	0xbe8ea866	-0.27862853
178	0xbe048ab3	-0.12943535
179	0xbda3b8be	-0.07994221
180	0xbe2efe0e	-0.17089102
181	0x3c466d14	0.012110967
182	0x3e2fb657	0.17159401
183	0x3e839527	0.25699732
184	0x3ecb7e83	0.39744958
185	0x3e1d1701	0.15340807
186	0x3e0c3999	0.13693847
187	0x3f163d18	0.5868697
188	0xbe0af501	-0.13570024
189	0xbed33a5d	-0.41255465
190	0x3c8e72a9	0.017388659
191	0x3e9e8a22	0.30964762
192	0x3ef81bff	0.4845886
193	0x3e8512ca	0.25990897
194	0xbed7f963	-0.42182454
195	0xbdca984d	-0.0989233
196	0xbe16ed24	-0.147389
197	0x3f029ff7	0.51025337
198	0x3d81e470	0.06342399
199	0xbf25fb70	-0.6483679
200	0xbdc40fcd	-0.09573326
201	0x3ea0f580	0.31437302
202	0xbd0eba46	-0.034845613
203	0x3dceab47	0.10091262
204	0x3dc9c792	0.09852518
205	0xbe95b721	-0.2924128
206	0xbddd31fd	-0.1080055
207	0x3ded8fdf	0.11599707
208	0x3e7df89d	0.2480187
209	0x3e44da32	0.1922386
210	0x3f0781e7	0.5293259
211	0x3e2d7941	0.16940786
212	0xbf3fc4ea	-0.7490984
213	0xbf1bf986	-0.6092762
214	0x3ea742ea	0.3266824
215	0xbee7d198	-0.45277095
216	0x3dbf81d4	0.093509346
217	0xbe978517	-0.29593727
218	0xbe6e4988	-0.23270237
219	0xbc181a5b	-0.009283627
220	0x3db0b037	0.0862736
221	0xbe3f3b80	-0.18675041
222	0x3ec638e7	0.38715288
223	0x3ca32566	0.019915294
224	0xbec861ad	-0.3913702
225	0x3ecc83da	0.39944345
226	0xbed25d27	-0.41086695
227	0xbe599289	-0.21247305
228	0x3ddb5059	0.107086845
229	0x3eb62936	0.35578316
230	0xbe76f9a9	-0.24118675
231	0xbe22a3ce	-0.15882799
232	0x3ed0f5c9	0.4081252
233	0x3ea32a06	0.31868
234	0x3c52ae66	0.012858963
235	0x3ed8772a	0.42278415
236	0xbe5380d8	-0.20654619
237	0x3e63c7fd	0.22244258
238	0x3e362749	0.17788424
239	0x3e35b234	0.1774376
240	0xbea5e154	-0.32398474
241	0xbdf3117c	-0.11868569
242	0xbece3ee6	-0.40282363
243	0xbf09fb04	-0.53898644
244	0xbd2d48b2	-0.042305656
245	0x3ce575c3	0.028010255
246	0xbdb5421e	-0.088505015
247	0x3e5ffc0f	0.21873496
248	0x3da55428	0.08072692
249	0xbe8c1801	-0.27362064
250	0x3e77e24d	0.2420742
251	0xbf19cbf9	-0.6007686
252	0xbf042fd1	-0.5163546
253	0xbefa8f6f	-0.48937556
254	0xbc6e2a81	-0.014536501
255	0xbf40befa	-0.7529141

encoder.0.bias f4 [16]
0	0x3ad89333	0.0016523361
1	0x3c4d99e9	0.012548902
2	0xbc70b765	-0.014692162
3	0xbb38d321	-0.0028202015
4	0x3c9b6ce8	0.018972829
5	0x3ce391ff	0.027779577
6	0x3b8794d8	0.0041376166
7	0xbbdf2661	-0.006809995
8	0xbb36d6ee	-0.0027899104
9	0xbc84389c	-0.016140275
10	0xbbd5d20f	-0.006525285
11	0xbbea2d75	-0.007146532
12	0xbb904b01	-0.0044034724
13	0x3abb4600	0.0014287829
14	0x3b9263ac	0.004467448
15	0xbc0c4c4f	-0.008563115
