models/siamese_96x16.pt (torch, 7271 bytes, 2 tensors)

encoder.0.weight f4 [16, 96]
0	0x3e461908	0.19345486
1	0xbdb72213	-0.08942046
2	0x3e8d636b	0.27614912
3	0xbde132e5	-0.109960355
4	0xbda09135	-0.07840196
5	0x3e825879	0.25458124
6	0x3e4f8a82	0.2026768
7	0x3e48ddc3	0.19615845
8	0xbd2ecfa7	-0.0426785
9	0x3ea61229	0.3243573
10	0x3e58aa23	0.21158652
11	0xbd094e3d	-0.03352188
12	0xbdf7a26b	-0.12091526
13	0x3df08db9	0.117457815
14	0xbd9e0699	-0.07716102
15	0xbe19eaa3	-0.15030913
16	0x3c7bfdf1	0.015380369
17	0x3e09ee81	0.13469888
18	0x3dba5cdb	0.09099742
19	0x3dc9717c	0.098360986
20	0xbdbcdb42	-0.092215076
21	0x3e097a3e	0.13425538
22	0x3eba1617	0.36344978
23	0x3dcf42c0	0.101201534
24	0xbd9a3fc3	-0.07531693
25	0xbe35e5ac	-0.17763394
26	0x3d2d6e58	0.04234156
27	0x3c09b3a4	0.008404646
28	0x3db3cca4	0.087792665
29	0xbe29afec	-0.16571015
30	0xbde81f4e	-0.11334096
31	0xbe1b75b9	-0.15181626
32	0xbd95a9bf	-0.07307767
33	0xbeb61fc3	-0.35571107
34	0xbbb823b9	-0.005619493
35	0xbdb7a75a	-0.08967467
36	0x3d767a85	0.060175437
37	0xbde466ae	-0.11152397
38	0x3da49c7f	0.08037662
39	0x3ea020c4	0.31274998
40	0xbc8ce2c6	-0.017197978
41	0x3e3c9dfb	0.1841964
42	0x3d7b087d	0.061287392
43	0xbe2b21ec	-0.16712159
44	0xbdf2852d	-0.118418075
45	0xbe6cfc0a	-0.2314302
46	0xbd4efdbf	-0.05053496
47	0x3c74ba42	0.014936985
48	0xbe807737	-0.25090954
49	0x3e68b24e	0.22724268
50	0x3e2eabfd	0.17057796
51	0xbe44d6cf	-0.19222568
52	0x3da103cd	0.07862053
53	0xbc67c10a	-0.014145145
54	0x3b735fe8	0.0037136022
55	0x3dfbb3e1	0.122901686
56	0x3de1cf76	0.11025898
57	0x3a8c936b	0.0010725086
58	0x3c486aa7	0.012232459
59	0x3db460fd	0.088075615
60	0xbdaa14e6	-0.08304767
61	0xbe2c6156	-0.16834006
62	0x3bc93bb1	0.006141149
63	0x3e6a1438	0.22859275
64	0xbe508c52	-0.20366028
65	0x3e2178cc	0.15768737
66	0x3d5bfa20	0.053705335
67	0x3e87ab35	0.26497808
68	0xbe2d5dd8	-0.1693033
69	0x3e904948	0.2818091
70	0x3e0ee952	0.13956192
71	0xbe7233e6	-0.2365261
72	0xbd722a58	-0.059122413
73	0xbc815c1c	-0.015790991
74	0xbcdf8388	-0.027284399
75	0x3e115053	0.14190798
76	0xbe4eb96d	-0.20187922
77	0x3e7d3719	0.2472805
78	0xbe4476ac	-0.19185895
79	0xbd856442	-0.06513263
80	0xbe23a93f	-0.15982531
81	0x3dd06b74	0.10176745
82	0xbd6e3a36	-0.058160983
83	0xbd4043eb	-0.04693977
84	0x3e270cfc	0.16313547
85	0x3df5ec16	0.120079204
86	0x3d24541a	0.040119268
87	0x3dd85a12	0.105640545
88	0xbd37f417	-0.044910517
89	0x3d148d8c	0.036267802
90	0xbd5616af	-0.052267727
91	0xbd6b591e	-0.057458036
92	0xbdc68d62	-0.096949354
93	0x3ea8fd46	0.33005732
94	0x3da13642	0.07871677
95	0xbdbe0f9b	-0.0928032
96	0xbde91374	-0.113806635
97	0x3e8b8f38	0.27257705
98	0x3c3545ef	0.011064037
99	0x3dc467d1	0.09590114
100	0xbdbfe434	-0.09369698
101	0x3e2a402b	0.1662604
102	0x3db70b1b	0.08937665
103	0xbe7c2bb8	-0.24626052
104	0x3d8b7b36	0.0681061
105	0xbda552a4	-0.08072403
106	0xbe507b5a	-0.20359555
107	0xbe5c5a75	-0.21518882
108	0xbd805e0d	-0.06267939
109	0xbe241239	-0.16022576
110	0xbe6ab05b	-0.22918837
111	0x3d9c27a9	0.07624752
112	0x3e836ef6	0.25670594
113	0x3c9d5f4b	0.019210478
114	0xbd685e74	-0.056730703
115	0xbaf79b88	-0.0018890956
116	0x3bc25e8c	0.005931681
117	0xbd2e61da	-0.042573787
118	0x3e185d0f	0.14879249
119	0xbea2193f	-0.31659886
120	0xbe6e0472	-0.23243883
121	0x3d7d790c	0.061883017
122	0xbebd5790	-0.36980867
123	0xbce645c5	-0.02810944
124	0xbd3eb2ff	-0.046557423
125	0x3e648d4e	0.22319528
126	0xbe29588f	-0.16537689
127	0x3e2cda5b	0.16880171
128	0xbeb7e81c	-0.35919273
129	0x3e2c25f6	0.16811356
130	0x3eae3b5d	0.34029666
131	0x3d8ef623	0.069805406
132	0xbe654a50	-0.22391629
133	0xbd58f905	-0.05297186
134	0x3e97e908	0.29669976
135	0x3ec07f0e	0.37596935
136	0x3d955c1c	0.07292959
137	0xbd4e0d6c	-0.05030577
138	0xbd713e1b	-0.05889712
139	0x3d5fa135	0.0545971
140	0xbe8f71ba	-0.28016454
141	0x3e4a9b16	0.19785723
142	0xbdcbd448	-0.09952599
143	0x3c808dff	0.015692709
144	0xbd4ff552	-0.050771065
145	0x3d1aadf4	0.03776355
146	0x3a4ac941	0.00077356776
147	0x3a8b975a	0.0010649965
148	0xbd39b2c5	-0.045336504
149	0xbe193b29	-0.14963974
150	0x3c7ee437	0.01555734
151	0x3dd428df	0.10359358
152	0x3e0d3abb	0.13791935
153	0x3e8bbbd1	0.2729173
154	0x3db0c397	0.08631056
155	0x3dcbc71b	0.09950086
156	0x3d796cdc	0.060894832
157	0xbcb5b416	-0.022180598
158	0xbd236a80	-0.03989649
159	0x3d5ab58f	0.053395804
160	0x3d40ad5a	0.04704032
161	0x3cf612a7	0.030038191
162	0x3da98f9c	0.082793444
163	0xbcf3d1dc	-0.029763155
164	0x3dae9b6b	0.085257374
165	0x3e681c13	0.2266696
166	0xbcf0221f	-0.029313145
167	0xbc57bfb7	-0.013168267
168	0xbd02638b	-0.031833213
169	0x3e700785	0.23440368
170	0x3d2ba226	0.041902684
171	0xbc2b7911	-0.010465876
172	0x3e7dbf5f	0.24780034
173	0xbda74f50	-0.081694245
174	0x3d31fd61	0.04345453
175	0xbea7c26c	-0.3276552
176	0x3beb95fc	0.0071895104
177	0x3d3b4be7	0.045726683
178	0x3e42c8c2	0.19021896
179	0xbe5e0d29	-0.21684708
180	0x3ea23db2	0.31687695
181	0x3d6fee99	0.058577154
182	0x3ddb10a8	0.10696536
183	0x3c09abe5	0.008402799
184	0x3dde4a5a	0.10854025
185	0x3d34807b	0.04406784
186	0x3d7f3715	0.06230839
187	0xbd21caf3	-0.039500188
188	0xbdb1f807	-0.086898856
189	0xbc6ff95b	-0.014646853
190	0xbd0cd423	-0.034381997
191	0xbe7c6eab	-0.24651591
192	0x3db03416	0.086036846
193	0xbc84c70a	-0.01620819
194	0x3c3d76c0	0.011563957
195	0xbdeca992	-0.115557805
196	0xbde88992	-0.113543645
197	0x3e140900	0.14456558
198	0xbe305909	-0.17221464
199	0x3e34f18e	0.17670271
200	0x3d10af5c	0.035323486
201	0xbd1f755d	-0.038930286
202	0x3cdeb534	0.027186014
203	0xbd4aab81	-0.049479965
204	0x3d9ca6be	0.07648991
205	0xbe4786a7	-0.1948496
206	0x3e90a775	0.2825276
207	0x3dea7c24	0.11449459
208	0x3ec38b81	0.3819237
209	0xbdbe9f44	-0.09307721
210	0xbbf23ae7	-0.0073922756
211	0x3dbc0d62	0.0918224
212	0x3ca140e9	0.019684272
213	0x3e345fa2	0.17614606
214	0x3ec80ea2	0.39073664
215	0xbe99f9fc	-0.30073535
216	0x3eaed895	0.34149614
217	0x3ca9f2ae	0.020745602
218	0x3d9056fa	0.070478395
219	0xbdb3cddf	-0.08779501
220	0x3e8dbf61	0.27685073
221	0xbdb56734	-0.08857575
222	0x3e501211	0.20319392
223	0xbe064309	-0.1311151
224	0xbea7609a	-0.3269089
225	0xbd9ae219	-0.07562656
226	0x3e9733bc	0.29531658
227	0x3dd73f66	0.10510139
228	0xbdb6e140	-0.08929682
229	0x3da64aeb	0.08119758
230	0xbe1fd5c2	-0.15608886
231	0xbefa477d	-0.48882666
232	0x3d6f1680	0.058371067
233	0xbd96e1f3	-0.07367315
234	0x3e673b1c	0.22581142
235	0x3d39a561	0.045323733
236	0xbd415826	-0.047203206
237	0xbdd1bdcb	-0.10241278
238	0x3e42f0ee	0.1903722
239	0x3e3c6362	0.18397287
240	0x3e2cfcf6	0.16893372
241	0xbdd6bb1e	-0.104849085
242	0x3e47bdbf	0.19505976
243	0x3d17ae88	0.03703168
244	0x3e6a3a75	0.22873862
245	0x3dcb4ef8	0.099271715
246	0x3dc90c7b	0.098168336
247	0x3d59494f	0.05304843
248	0x3dab768e	0.08372222
249	0x3cbedbbb	0.023298135
250	0xbd750c55	-0.059826214
251	0x3dfedb2e	0.12444149
252	0x3b8cb8c7	0.004294488
253	0x3e0f39f5	0.13986953
254	0xbdf136d8	-0.11778039
255	0x3d10b626	0.03532996

encoder.0.bias f4 [16]
0	0xbb115291	-0.0022174458
1	0x3c0164a1	0.007897527
2	0xbab59f98	-0.0013856767
3	0xbbe6d874	-0.007044846
4	0xbc431e08	-0.0119090155
5	0x3bda5666	0.0066631315
6	0xbb96ff86	-0.0046080975
7	0x3b212d55	0.002459367
8	0x3a2788ee	0.00063909485
9	0x3b45af73	0.003016439
10	0x3c13b58e	0.009015454
11	0x3b7fa28e	0.0039006802
12	0xbc3301d8	-0.010925733
13	0xbc80e4e3	-0.015734142
14	0x3b52b807	0.0032153146
15	0xbb56f69b	-0.0032800797
