models/siamese_128x32.pt (torch, 17575 bytes, 2 tensors)

encoder.0.weight f4 [32, 128]
0.018431157 0.067324944 -0.22999416 -0.05652618 0.10987591 -0.14376613 0.043312203 0.11854962
0.03622345 -0.059765566 -0.15080534 -0.06566188 -0.061948724 -0.24227937 0.18486662 -0.011361861
-0.1713567 0.22894777 -0.028285608 0.11895727 -0.083456516 0.23301509 0.11965068 -0.039465692
0.08528194 -0.050685477 0.02003121 -0.07548108 0.09615329 -0.022020148 0.13906716 -0.04374681
0.40477473 -0.1035711 -0.16588567 -0.29000133 0.16519988 -0.042568196 -0.11674597 0.1924343
-0.1168861 -0.015429204 -0.010003434 -0.08167226 -0.06879407 -0.054348726 -0.24738681 -0.1668208
-0.03288525 0.0039665154 0.14642084 0.022923542 -0.0033954263 0.028993241 -0.058056563 0.10739525
0.19599746 0.14637563 0.09064551 0.19038846 0.048004474 0.09054324 0.12696974 -0.12718186
0.050178744 -0.08049844 -0.05814574 0.12713146 0.015749438 0.01732316 0.052425593 0.038047165
0.3201817 0.23315236 -0.112124674 0.107491 -0.07546825 -0.0069240946 -0.10732847 0.14599586
-0.026070746 -0.117182806 -0.05836135 0.054789737 0.15137266 0.22142841 -0.32520485 -0.14658941
0.023607738 0.16619724 0.022250464 0.018176885 0.18647838 0.04667279 -0.009522646 0.028798984
-0.008335474 -0.11211555 -0.18185869 -0.012208181 0.013157242 -0.007115694 0.08744108 -0.4276638
0.078492604 0.014470045 0.0874327 0.02545156 0.13156907 -0.20513217 0.15492225 -0.12339382
0.08380372 -0.09400778 0.08664972 0.13336322 0.30084506 -0.10871325 0.01579233 -0.091718264
0.13590986 0.07785908 -0.13752922 -0.05954074 -0.23547152 -0.10534926 0.012065964 -0.04834286
0.058442146 -0.13887367 -0.3250789 -0.20700607 -0.14623915 0.15683702 -0.0127636865 0.114507586
0.09259868 0.02390952 0.094862066 0.15086955 -0.033658203 -0.030380176 0.15121254 0.13641556
0.1289024 0.1564522 -0.13987741 -0.029170305 -0.016899567 -0.00040895733 0.06471135 0.08232239
0.046616923 -0.25785777 0.112266704 -0.016795214 -0.10687421 -0.2807966 -0.08881652 -0.34942588
0.06374624 -0.0023659107 -0.22576977 -0.09881129 -0.19611333 0.083593614 -0.13858762 -0.0568676
0.12923318 -0.064425424 -0.22014385 0.04133992 -0.019290328 -0.09606244 -0.10885708 0.117407605
-0.016092421 0.048432246 -0.23771413 0.037707545 -0.036742 0.08485552 -0.040368292 -0.020430565
0.049567986 -0.15585156 -0.14399694 0.119320825 -0.038446024 -0.058787934 0.039474126 0.13026768
0.11772203 -0.3598856 -0.08976143 -0.05289439 -0.23354961 -0.037480395 -0.041997816 -0.036392633
0.084259406 0.09220829 0.08791092 -0.018313807 -0.025106352 0.026312824 -0.08472184 -0.0024772577
-0.22045562 0.16425134 0.0034788572 0.14242133 -0.21750607 -0.056383703 -0.032420054 0.19695538
-0.31901884 0.37834373 -0.081991255 0.08740028 -0.044239685 0.036828704 -0.017401358 -0.23204897
0.02664752 0.113369 0.2758 -0.047735304 -0.08794741 0.11094548 0.064525925 0.043611873
-0.10228337 -0.18472262 -0.14592706 0.039835323 0.16644531 -0.028195534 -0.07289008 -0.08446878
0.09508924 -0.16186942 -0.037876975 -0.094114706 0.101266764 0.045340315 0.0052520847 0.041130643
0.08391835 0.16444284 -0.22609586 -0.02412219 0.21170703 0.06183616 -0.10578882 0.057594556
00000000: f0fc 963c a9e1 893d 9783 6bbe ff87 67bd
00000010: 9f06 e13d 6e37 13be 2368 313d 25ca f23d
00000020: 0a5f 143d bdcc 74bd b76c 1abe bc79 86bd
00000030: f2bd 7dbd 1518 78be ad4d 3d3e 1927 3abc
00000040: 2178 2fbe 4971 6a3e 38b7 e7bc df9f f33d
00000050: 40eb aabd 829b 6e3e 6a0b f53d c7a6 21bd
00000060: 4ca8 ae3d 939b 4fbd 7e18 a43c d395 9abd
00000070: 04ec c43d 9963 b4bc 9f67 0e3e db2f 33bd
00000080: a23e cf3e 161d d4bd efdd 29be 0e7b 94be
00000090: 282a 293e fd5b 2ebd 8318 efbd 7f0d 453e
000000a0: fb61 efbd c6ca 7cbc 71e5 23bc c943 a7bd
000000b0: e8e3 8cbd c59c 5ebd f852 7dbe 12d3 2abe
000000c0: afb2 06bd 8bf9 813b 58ef 153e 27ca bb3c
000000d0: cd85 5ebb 3c83 ed3c b8cc 6dbd 0af2 db3d
000000e0: 8fb3 483e 7ee3 153e 5aa4 b93d 31f5 423e
000000f0: 57a0 443d bc6e b93d 5b04 023e f63b 02be
00000100: 3a88 4d3d 5edc a4bd 3a2a 6ebd c02e 023e
00000110: f704 813c 4de9 8d3c 38bc 563d 58d7 1b3d
00000120: dbee a33e 7ebf 6e3e 9fa1 e5bd 3e24 dc3d
00000130: 198f 9abd 84e3 e2bb 07cf dbbd f07f 153e
00000140: 5192 d5bc 8afd efbd 500c 6fbd 346b 603d
00000150: 6f01 1b3e 21be 623e 4081 a6be 891b 16be
00000160: 0465 c13c 9c2f 2a3e 9b46 b63c b1e7 943c
00000170: 30f4 3e3e f82b 3f3d df04 1cbc d9eb eb3c
00000180: 8391 08bc d69c e5bd 2a39 3abe d304 48bc
00000190: 7991 573c c52a e9bb 4f14 b33d c0f6 dabe
000001a0: bbc0 a03d c513 6d3c ea0f b33d ca7f d03c
000001b0: 0bba 063e 2b0e 52be f0a3 1e3e e6b5 fcbd
000001c0: 49a1 ab3d 2787 c0bd 6975 b13d 5e90 083e
000001d0: 5d08 9a3e 0da5 debd eb5e 813c c9d6 bbbd
000001e0: f42b 0b3e 9574 9f3d 76d4 0cbe fee0 73bd
000001f0: 721f 71be 5ac1 d7bd 52b0 453c 2a03 46bd
00000200: 0861 6f3d e634 0ebe be70 a6be 66f9 53be
00000210: b7bf 15be e299 203e c81e 51bc f482 ea3d
00000220: 60a4 bd3d e6dd c33c 0b47 c23d 8c7d 1a3e
00000230: 2fdd 09bd d9df f8bc 76d7 1a3e 85b0 0b3e
00000240: fefe 033e 0135 203e 063c 0fbe 90f6 eebc
00000250: f670 8abc 5369 d6b9 6287 843d a498 a83d
00000260: 63f1 3e3d ef05 84be 16ec e53d 1e96 89bc
00000270: dee0 dabd 92c4 8fbe 70e5 b5bd f3e7 b2be
00000280: 648d 823d 650d 1bbb 3130 67be 935d cabd
00000290: efd1 48be 2133 ab3d eae9 0dbe 00ee 68bd
000002a0: b455 043e 7af1 83bd 646d 61be 0c54 293d
000002b0: c006 9ebc 62bc c4bd 76f0 debd 6673 f03d
000002c0: 41d4 83bc e460 463d 556b 73be 3a73 1a3d
000002d0: c87e 16bd bbc8 ad3d 3959 25bd 005e a7bc
000002e0: cd07 4b3d 8d97 1fbe ef73 13be 7a5e f43d
000002f0: 9479 1dbd 9ecb 70bd 9faf 213d e464 053e
00000300: 3f18 f13d ed42 b8be d7d4 b7bd caa7 58bd
00000310: a127 6fbe 0b85 19bd e705 2cbd 7110 15bd
00000320: 3290 ac3d b3d7 bc3d a40a b43d d606 96bc
00000330: d6ab cdbc fe8d d73c a582 adbd 7d59 22bb
00000340: 1ebf 61be 8131 283e 8afd 633b e6d6 113e
00000350: e9b9 5ebe 99f2 66bd e4ca 04bd acae 493e
00000360: 7056 a3be 45b6 c13e 08eb a7bd ebfe b23d
00000370: ac34 35bd b2d9 163d 4b8d 8ebc 3f9e 6dbe
00000380: e64b da3c 022e e83d a835 8d3e 1886 43bd
00000390: c61d b4bd 6237 e33d 2b26 843d 5da2 323d
000003a0: f279 d1bd ed27 3dbe e76d 15be 5d2a 233d
000003b0: a470 2a3e 52fa e6bc 6547 95bd f8fd acbd
000003c0: 26be c23d 19c1 25be e324 1bbd 36bf c0bd
000003d0: f364 cf3d c4b6 393d ae19 ac3b 9b78 283d
000003e0: 62dd ab3d b463 283e ac85 67be e69b c5bc
000003f0: bac9 583e ea47 7d3d cfa7 d8bd 45e8 6b3d

encoder.0.bias f4 [32]
0.00083099055 -0.0015350279 0.0015263864 -0.0034456807 -0.00033151632 -0.0013704112 -0.0070371823 0.0046655796
0.0019992278 0.003516667 -0.0032991362 -0.0012315202 0.0015854519 -0.0061164023 -0.0042896015 -0.0024562099
-0.0031374036 -0.00050465274 -0.005774941 0.00092079584 -0.00076800806 0.0010533384 -0.0043491237 -0.0026703377
0.001505331 0.0025538327 -7.103165e-05 0.0023704756 0.0058743665 -0.0026231178 -0.0026232183 0.0012607315
00000000: d5d6 593a fd32 c9ba 0711 c83a eed0 61bb
00000010: 5ecf adb9 5f9f b3ba 2a98 e6bb b8e1 983b
00000020: 7a05 033b e277 663b 5236 58bb f66a a1ba
00000030: f0ce cf3a 1a6c c8bb c98f 8cbb 5df8 20bb
00000040: e69c 4dbb ac4a 04ba b73b bdbb 9061 713a
00000050: 2654 49ba 2c10 8a3a 1883 8ebb d500 2fbb
00000060: 874e c53a 345e 273b d4f6 94b8 fb59 1b3b
00000070: c27d c03b 9de8 2bbb 4dea 2bbb 213f a53a
