models/siamese_768x8.pt (torch, 25639 bytes, 2 tensors)

encoder.0.weight f4 [8, 768]
00000000: 1a32 943b ecb6 02bd 2e96 21bd a2c5 02bd
00000010: d06a 203d e2e2 45bd dc21 4b3d 7bb4 37bc
00000020: dba7 a0bd 7005 c5bc eceb 9dbc dcf0 50bd
00000030: 11c9 c0bc e4fa ce3c b609 003d ca60 bfbc
00000040: 21f4 f3bc 393d 7c3d 2b9d 28bd d832 363d
00000050: 64c7 3fbd 5488 323d 1190 b7bd 2ded 423b
00000060: c705 9abd 8fd6 b1b9 d592 64bc a069 04bd
00000070: a9ee 393c 47bc c83c 2d43 a23d 37a3 74bc
00000080: 1549 fbbc 1842 da3c 9b91 083d 76e7 753c
00000090: 3f15 fd3c 8593 f03c f022 b73c d83a f9bc
000000a0: 1e91 3cbd ed0a c6bb 0413 7cbd 3748 8e3a
000000b0: 19ae 703d fd0c 1b3c a3c2 f53c ba58 853c
000000c0: ffc2 a5bb 6829 48bb 2e4c 793d 3089 303c
000000d0: 0dbe 713d 7412 47b8 c36e c53b 79ca 76bd
000000e0: e620 7f3b a8e8 9bbd 76c0 28bd ccae 3d3d
000000f0: 6f36 92bc 7a0d 7e3c 2a19 ed3b bae0 823d
00000100: 2c96 06bd 524f 8cbc 9946 203d 5b8e 6bbc
00000110: b9f1 7abc e4b9 26bd b945 cebc bae7 a03d
00000120: ff6b 9fbd af00 afbc 038c 14bd 3035 a03c
00000130: 638c bf3c f22a 59bd 3471 a03d 6639 88bd
00000140: 80bb 90bb 8719 26bd b7b7 9cbd fd74 80bd
00000150: 39a1 13bd ef81 8e3d ac9e 5cbd 2820 36bd
00000160: 3cb3 853c f03a 653d 8725 d03d 89e5 7a3c
00000170: fe25 f1bc dd50 d3bc aab8 dbbc 1a1a 69bd
00000180: cc38 6a3d b6e3 93bc 10e5 483c 95f6 89bd
00000190: 2914 913c f9fa a33c 46a5 2d3e e525 133d
000001a0: 0006 6ebc 76c2 dbbc 4daa 253b fcf3 31bd
000001b0: 6b3e c43d 1f01 d13b bfff 443d 18a6 ecbb
000001c0: d2af 14bc 5ace abbd 03ad f03b e32c 81bc
000001d0: 8d31 043d c28c 753c 6f1a 3fbc bf88 4e3d
000001e0: 8a1d 8dbd ec73 80bd 9b97 e1bb 12b0 c03c
000001f0: 2604 02bc 8710 47bb 8e0d e5bc 76d5 373d
00000200: 2369 90bd 8254 dc3c 09f0 7a3c 1fe3 b33d
00000210: 13d4 043d a7ba 2cbc a0d8 9c3d bf66 913d
00000220: b4a3 f6bc 4f96 9bbc ed2d 8c3d 44c5 e93c
00000230: 188b 993d 8ef9 983a 1aea fe3c 4dec af3a
00000240: 98a3 c13c 93cb 953d 8095 94bd c1cc 27bd
00000250: e1b1 a93c 6207 233d c750 df3a 2f16 e6bb
00000260: f9b9 d63d 1cad 3d3b a94c febc 383e bbbc
00000270: 5b67 cabc 6379 30bd feb7 a7bd 793f 633d
00000280: 3f19 a1bc 78f3 0d3d 3b15 9bbd de6c f43c
00000290: ef80 7bbd 2e5d 1cbb e3bf 193d d99d b8bd
000002a0: 4836 c1bb 2dc9 af3c e5be 46bc 06f7 1a3d
000002b0: ee0b 00bc 4d4d 1f3a 6c31 e1bc 85d6 37bd
000002c0: bd2f 273b cc23 55bd 244b 8439 9431 0b3d
000002d0: 9ecb b13b 1e8a 27bd 144c e1bd 66fd d9bb
000002e0: 00d9 0ebd 6696 15bd 3839 90bd f119 663d
000002f0: 3ae1 593d ddde 80bc e957 82bc f643 4e3a
00000300: 6837 abbd 5482 ac3d cb5f 393d a649 603d
00000310: c382 08bc a616 0dbd 7bd1 4bbd 2dac bc3d
00000320: 5012 2bbd 9e2a 93bd 6ea1 9d3d defc b9bd
00000330: 8b5b 1c3b 6a7a 58bd 16cd ccbc ef18 38bd
00000340: 54e5 cbbd f9d9 a53d 478e 7fbd 248d c0bd
00000350: 4f5a b9bb 2880 83ba 7da6 ea3c 9b97 7f3c
00000360: a9ff ed3c e56c 793d 13f3 2f3d a24d 5bbc
00000370: f321 453d 9664 9cbd d2ec 8e3d d6ce 113d
00000380: e80e a33d 37bf 81bd 7dc5 753d 9916 f1bd
00000390: e5dd 4c3d 7a36 94bd 44aa 2a3d 7b73 acbd
000003a0: 7d6e 853d e770 41bc 7685 aabc 0532 babd
000003b0: 449a a33c f72a 9a3c 129f 12ba 4dce 50bd
000003c0: 0d87 0dbd 70dc 9f3c 5297 23bd 4226 a8bd
000003d0: 2224 4abc d2ec 5e3d 8a24 d73c ddea eb3c
000003e0: 4e7c c4bd 7353 41bd 2c76 023d b02d bb3c
000003f0: 2110 02bd ff02 63bc 4caa 5ebb 4f16 ce3a
0.004522574 -0.03191273 -0.039449863 -0.03192676 0.039164364 -0.048312075 0.049592838 -0.0112124635
-0.07844516 -0.024050444 -0.019277535 -0.05101095 -0.023533376 0.025266118 0.03125926 -0.023361582
-0.029779496 0.061581824 -0.041165512 0.044482082 -0.046821013 0.043587044 -0.08963025 0.0029743419
-0.07520633 -0.0003391993 -0.013951023 -0.032327294 0.011348405 0.02450384 0.07922969 -0.014931492
-0.030674497 0.026642844 0.033341985 0.015008798 0.03089392 0.029367218 0.022355527 -0.030423567
-0.046036832 -0.006043783 -0.061541572 0.0010855262 0.058759782 0.009463546 0.030000037 0.01627766
-0.0050586457 -0.0030542258 0.060863666 0.010774896 0.059019137 -4.7462483e-05 0.0060251667 -0.060251687
0.003892952 -0.07612735 -0.04119917 0.046309277 -0.017848222 0.015506143 0.007235666 0.063905194
-0.03285806 -0.017127667 0.039129827 -0.014377202 -0.01531642 -0.040704623 -0.02517973 0.07856698
-0.077842705 -0.02136263 -0.036266338 0.019556612 0.023382371 -0.05301947 0.07834092 -0.06651573
-0.004416883 -0.04055169 -0.07652228 -0.06272314 -0.036042426 0.069583766 -0.05386226 -0.04446426
0.016320817 0.05596441 0.10163408 0.0153135145 -0.029437061 -0.025795395 -0.026821453 -0.056909658
0.057183072 -0.018052917 0.012261644 -0.06736485 0.017709808 0.020017134 0.16957578 0.03592481
-0.014527798 -0.026826125 0.002527851 -0.043445572 0.09582218 0.0063783075 0.04809546 -0.0072219484
-0.009075122 -0.08388968 0.0073448434 -0.015768474 0.032273818 0.014987173 -0.011664017 0.05042338
-0.068904 -0.0627211 -0.006884528 0.023521457 -0.007935559 -0.0030374841 -0.027960565 0.044881307
-0.07051303 0.026895765 0.015316018 0.08783554 0.032428812 -0.010542548 0.076585054 0.070996754
-0.030107357 -0.018992571 0.06844697 0.028536446 0.07497233 0.0011671053 0.031117488 0.0013421864
0.023637578 0.07314219 -0.07255077 -0.040966753 0.020714702 0.039801963 0.0017037623 -0.0070216875
0.1048469 0.0028942293 -0.031042414 -0.022856817 -0.024707487 -0.043084513 -0.081893906 0.055480454
-0.019665359 0.034656018 -0.07572409 0.029837068 -0.061402258 -0.002385925 0.037536513 -0.09014482
-0.0058963634 0.021458233 -0.012130474 0.037833236 -0.007815344 0.00060768874 -0.027489386 -0.044882316
0.0025510632 -0.05203609 0.00025232986 0.03398283 0.0054258844 -0.040903203 -0.11000839 -0.006652522
-0.034874916 -0.036520384 -0.070421636 0.056177083 0.05319331 -0.01573127 -0.01591106 0.00078684033
-0.08360177 0.084232956 0.04525737 0.054757737 -0.008331957 -0.034445427 -0.049760323 0.092125274
-0.04176551 -0.07185863 0.07696806 -0.09081434 0.0023858275 -0.05285112 -0.025000136 -0.044945654
-0.0995585 0.080982156 -0.062391546 -0.094019204 -0.0056565176 -0.00100327 0.02864384 0.01560011
0.029052572 0.060894866 0.042956423 -0.013385208 0.04812808 -0.07636373 0.06978764 0.035597645
0.079618275 -0.063352995 0.060002793 -0.11771888 0.050016303 -0.07236953 0.041666284 -0.08420464
0.065152146 -0.011806703 -0.020815592 -0.09091572 0.01997102 0.018819315 -0.00055931613 -0.050977994
-0.034552623 0.019514292 -0.039939232 -0.08210422 -0.012337716 0.05442507 0.02626254 0.028798515
-0.09594022 -0.047198724 0.03185098 0.022848934 -0.031753663 -0.013855695 -0.0033976017 0.0015723201

encoder.0.bias f4 [8]
00000000: 9920 9f3b 409c 203c 7686 bfbb f57b 763c
00000010: 6ead 35bb bee7 413c e6df d3bb 5021 cabb
0.004856181 0.009802878 -0.0058448864 0.015044202 -0.002772178 0.011835037 -0.0064658998 -0.006168522
