models/siamese_768x12.pt (torch, 37927 bytes, 2 tensors)

encoder.0.weight f4 [12, 768]
-0.0757441 -0.06644799 0.121460974 -0.052393407 -0.0473985 -0.06367348 -0.037315708 -0.09466245
-0.03386267 0.08515743 -0.0017850092 0.021042062 -0.0544132 0.00080210465 0.08738683 -0.02038981
0.02283146 -0.051630456 0.031013776 -0.108337246 0.032530807 -0.07455767 -0.022079796 0.07077135
-0.065902896 0.0031430877 -0.001202263 0.015833292 0.05662994 0.013128784 0.026829526 -0.00517635
-0.05558978 0.031149087 -0.010772033 -0.051819865 -0.0029764206 -0.01805439 0.036763024 0.008402033
-0.060050767 0.036928013 -0.04480978 -0.023235474 -0.00027586758 -0.032484833 -0.059502665 0.00934583
0.015991388 0.06551186 0.020100364 0.018057054 -0.0068677864 0.017972529 0.053432554 -0.052555416
0.02264431 -0.0017865391 -0.02108901 -0.017289655 0.0845441 0.0010480828 0.0881264 0.040435404
-0.00479136 0.0055552926 -0.057767324 -0.014515685 0.012985545 -0.029837579 0.035877414 0.07870469
-0.040598627 -0.0056580305 0.080066375 -0.019532682 -0.010995304 -0.047806315 -0.008057594 0.039551355
0.057376266 0.069278926 0.029273016 -0.10084823 -0.012731958 0.022161212 -0.04420561 -0.059379492
-0.07233564 0.042976346 0.024184307 0.08722064 0.02961226 -0.027855655 0.014315149 -0.05909112
0.0028337643 0.013363347 -0.018139148 0.024427138 -0.007080856 -0.0039568306 0.0048017893 0.03427121
0.017414529 -0.017187336 0.018844524 -0.048333887 -0.028149864 0.037707735 0.13139386 0.0049208845
-0.017187303 0.040246915 0.076309815 0.037970204 0.009776975 0.02366255 -0.03600654 -0.050137006
0.0044980664 0.04408766 0.078336544 0.078814775 0.004066245 -0.05552118 -0.07738139 -0.00806295
-0.017084926 0.040772367 -0.07369207 0.13113552 -0.018169362 -0.029237036 -0.02558318 -0.007002538
-0.039357413 0.027882412 -0.059669565 0.0024726568 -0.043843064 -0.037452992 0.07655666 -0.045080513
-0.026675511 -0.05508675 -0.049830984 0.007216608 0.04701608 0.03988229 0.062161997 0.0797893
0.025648993 -0.068874486 0.009090649 -0.053974908 -0.100052744 0.0109583065 -0.027124442 0.007846342
-0.07136289 -0.010742453 0.059237376 0.08082285 -0.0096491175 -0.072372764 0.034062553 0.05595287
0.02698296 -0.051864237 0.04749135 0.030630194 0.03250084 0.028062195 0.04038545 0.007224346
-0.089359224 0.024232281 0.051153153 -0.04185221 0.047286917 -0.013357868 -0.034221333 -0.011248779
-0.00337735 -0.038496647 2.1166128e-05 0.051506937 0.106991254 0.015018191 0.046247706 0.029373832
0.084860116 -0.041963104 -0.036239848 -0.117599815 0.033361737 0.020786326 0.008743912 0.046484362
0.015139502 0.06957706 0.032439042 0.02273879 -0.11034735 -0.03657375 0.07075591 -0.0979958
0.03955385 0.026166556 0.04718672 -0.06470767 -0.007716762 0.062287856 0.015762607 0.05546632
0.019089023 -0.107390225 0.061140727 0.00070911343 0.039575215 -0.009869778 0.040014822 -0.06006538
-0.008597184 -0.032643262 -0.0098325005 -0.033024486 -0.08147931 0.010538655 0.0037683346 -0.11273758
-0.026909854 -0.025537496 0.1113734 -0.017841311 -0.054877553 0.01760001 -0.09055571 0.07090965
-0.038063336 -0.06000244 -0.027084094 0.038896743 -0.022379389 0.059583258 -0.034897666 -0.014923934
-0.038939796 -0.05616823 -0.03578534 -0.1243328 0.071275815 -0.07752412 -0.03812967 -0.017834071
00000000: b91f 9bbd e215 88bd 88c0 f83d 789a 56bd
00000010: ee24 42bd 3e67 82bd 5bd8 18bd 63de c1bd
00000020: 95b3 0abd 0567 ae3d f8f6 e9ba 6760 ac3c
00000030: 60e0 5ebd 5544 523a def7 b23d 8808 a7bc
00000040: 0b09 bb3c 757a 53bd 9a10 fe3c ebdf ddbd
00000050: 063f 053d b1b1 98bd b0e0 b4bc 92f0 903d
00000060: 19f8 86bd 43fc 4d3b 4195 9dba d2b4 813c
00000070: ccf4 673d 1c1a 573c 98c9 db3c 5f9e a9bb
00000080: 1cb2 63bd 5f2c ff3c 2e7d 30bc 1141 54bd
00000090: 0d10 43bb cde6 93bc d394 163d aea8 093c
000000a0: cbf7 75bd d441 173d 768a 37bd 5258 bebc
000000b0: 52a2 90b9 d10e 05bd 11b9 73bd 411f 193c
000000c0: 5f00 833c 152b 863d 85a9 a43c 63ec 933c
000000d0: 2b0b e1bb 203b 933c 18dc 5a3d 5944 57bd
000000e0: 8f80 b93c 4e2a eaba dcc2 acbc 09a3 8dbc
000000f0: 7525 ad3d d35f 893a 9d7b b43d 989f 253d
00000100: d700 9dbb 2c09 b63b 6e9d 6cbd 32d3 6dbc
00000110: 53c1 543c f06d f4bc 32f4 123d ed2f a13d
00000120: bf4a 26bd 0067 b9bb d7f9 a33d 0103 a0bc
00000130: a625 34bc 8ed0 43bd 0004 04bc 9a00 223d
00000140: 6003 6b3d 1ce2 8d3d f7cd ef3c 8489 cebd
00000150: b499 50bc 6e8b b53c f110 35bd e937 73bd
00000160: b524 94bd f707 303d 2b1e c63c bca0 b23d
00000170: 6995 f23c 8b31 e4bc 168a 6a3c 8809 72bd
00000180: adb6 393b f1f1 5a3c 8d98 94bc 6c1b c83c
00000190: 8606 e8bb 4da8 81bb 5458 9d3b f85f 0c3d
000001a0: eaa8 8e3c 75cc 8cbc d55f 9a3c c1f9 45bd
000001b0: 8b9a e6bc 6d73 1a3d 1d8c 063e 5f3f a13b
000001c0: 63cc 8cbc f3d9 243d 5248 9c3d a586 1b3d
000001d0: 9b2f 203c f7d7 c13c 987b 13bd 765c 4dbd
000001e0: 8464 933b 4395 343d e96e a03d a469 a13d
000001f0: 233e 853b 2d6a 63bd 227a 9ebd 771a 04bc
00000200: b0f5 8bbc ed00 273d deeb 96bd 6448 063e
00000210: ead7 94bc 8282 efbc d193 d1bc 8c75 e5bb
00000220: 3d35 21bd a869 e43c 1368 74bd 4c0c 223b
00000230: c994 33bd 4f68 19bd bdc9 9c3d 58a6 38bd
00000240: 9a86 dabc a5a2 61bd 931b 4cbd 4c79 ec3b
00000250: ef93 403d 9d5b 233d 949d 7e3d 9368 a33d
00000260: d61d d23c 110e 8dbd f2f0 143c cb14 5dbd
00000270: 74e8 ccbd 788a 333c 1434 debc f28d 003c
00000280: b526 92bd 1d01 30bc e4a2 723d 7386 a53d
00000290: 5517 1ebc 2c38 94bd 2d85 0b3d d62e 653d
000002a0: 5e0b dd3c 986f 54bd 4a86 423d 2cec fa3c
000002b0: 9a1f 053d b0e2 e53c 376b 253d 35ba ec3b
000002c0: f801 b7bd c782 c63c f885 513d 396d 2bbd
000002d0: edaf 413d f6da 5abc ab2b 0cbd cc4c 38bc
000002e0: 8856 5dbb a9ae 1dbd ea8d b137 f0f8 523d
000002f0: 3b1e db3d dc0e 763c 3c6e 3d3d 64a1 f03c
00000300: 24cb ad3d 81e1 2bbd 3c70 14bd 2cd8 f0bd
00000310: 51a6 083d 1648 aa3c a042 0f3c 6366 3e3d
00000320: ac0b 783c 6b7e 8e3d cdde 043d b346 ba3c
00000330: cbfd e1bd 5bce 15bd 79e8 903d 06b2 c8bd
00000340: 3803 223d 3f5b d63c dd46 413d 7485 84bd
00000350: e4dc fcbb 8d21 7f3d 9520 813c a730 633d
00000360: 9560 9c3c 68ef dbbd b36e 7a3d cce3 393a
00000370: 9f19 223d d9b4 21bc 95e6 233d 1e07 76bd
00000380: 34db 0cbc f1b4 05bd 7f18 21bc af44 07bd
00000390: a0de a6bd 53aa 2c3c 2af6 763b f6e2 e6bd
000003a0: 0e72 dcbc 0334 d1bc bd17 e43d f127 92bc
000003b0: 49c7 60bd e52d 903c 4675 b9bd 1439 913d
000003c0: 4de8 1bbd 1ec5 75bd 76df ddbc 3152 1f3d
000003d0: fb54 b7bc 930d 743d dbf0 0ebd 8483 74bc
000003e0: 567f 1fbd a810 66bd a693 12bd 32a2 febd
000003f0: 0ef9 913d f7c4 9ebd db2d 1cbd c218 92bc

encoder.0.bias f4 [12]
0.011737248 0.00031537845 0.0031202561 0.0046841674 -0.005349063 -0.0073311604 0.008735971 0.0010701073
-0.00027154136 -0.012529761 -0.013974176 -0.018732276
00000000: 964d 403c 6159 a539 367d 4c3b a57d 993b
00000010: 3147 afbb 3b3a f0bb 5121 0f3c d842 8c3a
00000020: aa5d 8eb9 a049 4dbc f1f3 64bc 6e74 99bc
